…
W0912 16:14:32.731075 18384 upgrade_proto.cpp:71] Note that future Caffe releases will only support input layers and not input fields.
I0912 16:14:32.748253 18384 net.cpp:58] Initializing net from parameters: 
name: "CaffeNet"
state {
  phase: TRAIN
  level: 0
}
layer {
  name: "input"
  type: "Input"
  top: "target"
  top: "image"
  top: "bbox"
  input_param {
    shape {
      dim: 1
      dim: 3
      dim: 227
      dim: 227
    }
    shape {
      dim: 1
      dim: 3
      dim: 227
      dim: 227
    }
    shape {
      dim: 1
      dim: 4
      dim: 1
      dim: 1
    }
  }
}
layer {
  name: "conv1"
  type: "Convolution"
  bottom: "target"
  top: "conv1"
  param {
    lr_mult: 0
    decay_mult: 1
  }
  param {
    lr_mult: 0
    decay_mult: 0
  }
  convolution_param {
    num_output: 96
    kernel_size: 11
    stride: 4
    weight_filler {
      type: "gaussian"
      std: 0.01
    }
    bias_filler {
      type: "constant"
      value: 0
    }
  }
}
layer {
  name: "relu1"
  type: "ReLU"
  bottom: "conv1"
  top: "conv1"
}
layer {
  name: "pool1"
  type: "Pooling"
  bottom: "conv1"
  top: "pool1"
  pooling_param {
    pool: MAX
    kernel_size: 3
    stride: 2
  }
}
layer {
  name: "norm1"
  type: "LRN"
  bottom: "pool1"
  top: "norm1"
  lrn_param {
    local_size: 5
    alpha: 0.0001
    beta: 0.75
  }
}
layer {
  name: "conv2"
  type: "Convolution"
  bottom: "norm1"
  top: "conv2"
  param {
    lr_mult: 0
    decay_mult: 1
  }
  param {
    lr_mult: 0
    decay_mult: 0
  }
  convolution_param {
    num_output: 256
    kernel_size: 5
    group: 2
    weight_filler {
      type: "gaussian"
      std: 0.01
    }
    bias_filler {
      type: "constant"
      value: 1
    }
  }
}
layer {
  name: "relu2"
  type: "ReLU"
  bottom: "conv2"
  top: "conv2"
}
layer {
  name: "pool2"
  type: "Pooling"
  bottom: "conv2"
  top: "pool2"
  pooling_param {
    pool: MAX
    kernel_size: 3
    stride: 2
  }
}
layer {
  name: "norm2"
  type: "LRN"
  bottom: "pool2"
  top: "norm2"
  lrn_param {
    local_size: 5
    alpha: 0.0001
    beta: 0.75
  }
}
layer {
  name: "conv3"
  type: "Convolution"
  bottom: "norm2"
  top: "conv3"
  param {
    lr_mult: 0
    decay_mult: 1
  }
  param {
    lr_mult: 0
    decay_mult: 0
  }
  convolution_param {
    num_output: 384
    kernel_size: 3
    weight_filler {
      type: "gaussian"
      std: 0.01
    }
    bias_filler {
      type: "constant"
      value: 0
    }
  }
}
layer {
  name: "relu3"
  type: "ReLU"
  bottom: "conv3"
  top: "conv3"
}
layer {
  name: "conv4"
  type: "Convolution"
  bottom: "conv3"
  top: "conv4"
  param {
    lr_mult: 0
    decay_mult: 1
  }
  param {
    lr_mult: 0
    decay_mult: 0
  }
  convolution_param {
    num_output: 384
    kernel_size: 3
    group: 2
    weight_filler {
      type: "gaussian"
      std: 0.01
    }
    bias_filler {
      type: "constant"
      value: 1
    }
  }
}
layer {
  name: "relu4"
  type: "ReLU"
  bottom: "conv4"
  top: "conv4"
}
layer {
  name: "conv1_p"
  type: "Convolution"
  bottom: "image"
  top: "conv1_p"
  param {
    lr_mult: 0
    decay_mult: 1
  }
  param {
    lr_mult: 0
    decay_mult: 0
  }
  convolution_param {
    num_output: 96
    kernel_size: 11
    stride: 4
    weight_filler {
      type: "gaussian"
      std: 0.01
    }
    bias_filler {
      type: "constant"
      value: 0
    }
  }
}
layer {
  name: "relu1_p"
  type: "ReLU"
  bottom: "conv1_p"
  top: "conv1_p"
}
layer {
  name: "pool1_p"
  type: "Pooling"
  bottom: "conv1_p"
  top: "pool1_p"
  pooling_param {
    pool: MAX
    kernel_size: 3
    stride: 2
  }
}
layer {
  name: "norm1_p"
  type: "LRN"
  bottom: "pool1_p"
  top: "norm1_p"
  lrn_param {
    local_size: 5
    alpha: 0.0001
    beta: 0.75
  }
}
layer {
  name: "conv2_p"
  type: "Convolution"
  bottom: "norm1_p"
  top: "conv2_p"
  param {
    lr_mult: 0
    decay_mult: 1
  }
  param {
    lr_mult: 0
    decay_mult: 0
  }
  convolution_param {
    num_output: 256
    kernel_size: 5
    group: 2
    weight_filler {
      type: "gaussian"
      std: 0.01
    }
    bias_filler {
      type: "constant"
      value: 1
    }
  }
}
layer {
  name: "relu2_p"
  type: "ReLU"
  bottom: "conv2_p"
  top: "conv2_p"
}
layer {
  name: "pool2_p"
  type: "Pooling"
  bottom: "conv2_p"
  top: "pool2_p"
  pooling_param {
    pool: MAX
    kernel_size: 3
    stride: 2
  }
}
layer {
  name: "norm2_p"
  type: "LRN"
  bottom: "pool2_p"
  top: "norm2_p"
  lrn_param {
    local_size: 5
    alpha: 0.0001
    beta: 0.75
  }
}
layer {
  name: "conv3_p"
  type: "Convolution"
  bottom: "norm2_p"
  top: "conv3_p"
  param {
    lr_mult: 0
    decay_mult: 1
  }
  param {
    lr_mult: 0
    decay_mult: 0
  }
  convolution_param {
    num_output: 384
    kernel_size: 3
    weight_filler {
      type: "gaussian"
      std: 0.01
    }
    bias_filler {
      type: "constant"
      value: 0
    }
  }
}
layer {
  name: "relu3_p"
  type: "ReLU"
  bottom: "conv3_p"
  top: "conv3_p"
}
layer {
  name: "conv4_p"
  type: "Convolution"
  bottom: "conv3_p"
  top: "conv4_p"
  param {
    lr_mult: 0
    decay_mult: 1
  }
  param {
    lr_mult: 0
    decay_mult: 0
  }
  convolution_param {
    num_output: 384
    kernel_size: 3
    group: 2
    weight_filler {
      type: "gaussian"
      std: 0.01
    }
    bias_filler {
      type: "constant"
      value: 1
    }
  }
}
layer {
  name: "relu4_p"
  type: "ReLU"
  bottom: "conv4_p"
  top: "conv4_p"
}
layer {
  name: "concat"
  type: "Concat"
  bottom: "conv4"
  bottom: "conv4_p"
  top: "conv4_concat"
  concat_param {
    axis: 1
  }
}
layer {
  name: "fc6-new"
  type: "InnerProduct"
  bottom: "conv4_concat"
  top: "fc6"
  param {
    lr_mult: 10
    decay_mult: 1
  }
  param {
    lr_mult: 20
    decay_mult: 0
  }
  inner_product_param {
    num_output: 4096
    weight_filler {
      type: "gaussian"
      std: 0.005
    }
    bias_filler {
      type: "constant"
      value: 1
    }
  }
}
layer {
  name: "relu6"
  type: "ReLU"
  bottom: "fc6"
  top: "fc6"
}
layer {
  name: "drop6"
  type: "Dropout"
  bottom: "fc6"
  top: "fc6"
  dropout_param {
    dropout_ratio: 0.5
  }
}
layer {
  name: "fc7-new"
  type: "InnerProduct"
  bottom: "fc6"
  top: "fc7"
  param {
    lr_mult: 10
    decay_mult: 1
  }
  param {
    lr_mult: 20
    decay_mult: 0
  }
  inner_product_param {
    num_output: 2048
    weight_filler {
      type: "gaussian"
      std: 0.005
    }
    bias_filler {
      type: "constant"
      value: 1
    }
  }
}
layer {
  name: "relu7"
  type: "ReLU"
  bottom: "fc7"
  top: "fc7"
}
layer {
  name: "drop7"
  type: "Dropout"
  bottom: "fc7"
  top: "fc7"
  dropout_param {
    dropout_ratio: 0.5
  }
}
layer {
  name: "fc7-newb"
  type: "InnerProduct"
  bottom: "fc7"
  top: "fc7b"
  param {
    lr_mult: 10
    decay_mult: 1
  }
  param {
    lr_mult: 20
    decay_mult: 0
  }
  inner_product_param {
    num_output: 1024
    weight_filler {
      type: "gaussian"
      std: 0.005
    }
    bias_filler {
      type: "constant"
      value: 1
    }
  }
}
layer {
  name: "relu7b"
  type: "ReLU"
  bottom: "fc7b"
  top: "fc7b"
}
layer {
  name: "drop7b"
  type: "Dropout"
  bottom: "fc7b"
  top: "fc7b"
  dropout_param {
    dropout_ratio: 0.5
  }
}
layer {
  name: "fc8-shapes"
  type: "InnerProduct"
  bottom: "fc7b"
  top: "fc8"
  param {
    lr_mult: 10
    decay_mult: 1
  }
  param {
    lr_mult: 20
    decay_mult: 0
  }
  inner_product_param {
    num_output: 4
    weight_filler {
      type: "gaussian"
      std: 0.01
    }
    bias_filler {
      type: "constant"
      value: 0
    }
  }
}
layer {
  name: "neg"
  type: "Power"
  bottom: "bbox"
  top: "bbox_neg"
  power_param {
    power: 1
    scale: -1
    shift: 0
  }
}
layer {
  name: "flatten"
  type: "Flatten"
  bottom: "bbox_neg"
  top: "bbox_neg_flat"
}
layer {
  name: "subtract"
  type: "Eltwise"
  bottom: "fc8"
  bottom: "bbox_neg_flat"
  top: "out_diff"
}
layer {
  name: "abssum"
  type: "Reduction"
  bottom: "out_diff"
  top: "loss"
  loss_weight: 1
  reduction_param {
    operation: ASUM
  }
}
I0912 16:14:32.748433 18384 layer_factory.hpp:77] Creating layer input
I0912 16:14:32.748463 18384 net.cpp:100] Creating Layer input
I0912 16:14:32.748473 18384 net.cpp:408] input -> target
I0912 16:14:32.748512 18384 net.cpp:408] input -> image
I0912 16:14:32.748534 18384 net.cpp:408] input -> bbox
I0912 16:14:32.760176 18384 net.cpp:150] Setting up input
I0912 16:14:32.760224 18384 net.cpp:157] Top shape: 1 3 227 227 (154587)
I0912 16:14:32.760232 18384 net.cpp:157] Top shape: 1 3 227 227 (154587)
I0912 16:14:32.760239 18384 net.cpp:157] Top shape: 1 4 1 1 (4)
I0912 16:14:32.760244 18384 net.cpp:165] Memory required for data: 1236712
I0912 16:14:32.760257 18384 layer_factory.hpp:77] Creating layer conv1
I0912 16:14:32.760288 18384 net.cpp:100] Creating Layer conv1
I0912 16:14:32.760298 18384 net.cpp:434] conv1 <- target
I0912 16:14:32.760313 18384 net.cpp:408] conv1 -> conv1
I0912 16:14:32.916666 18384 net.cpp:150] Setting up conv1
I0912 16:14:32.916712 18384 net.cpp:157] Top shape: 1 96 55 55 (290400)
I0912 16:14:32.916718 18384 net.cpp:165] Memory required for data: 2398312
I0912 16:14:32.916748 18384 layer_factory.hpp:77] Creating layer relu1
I0912 16:14:32.916764 18384 net.cpp:100] Creating Layer relu1
I0912 16:14:32.916771 18384 net.cpp:434] relu1 <- conv1
I0912 16:14:32.916780 18384 net.cpp:395] relu1 -> conv1 (in-place)
I0912 16:14:32.916990 18384 net.cpp:150] Setting up relu1
I0912 16:14:32.917001 18384 net.cpp:157] Top shape: 1 96 55 55 (290400)
I0912 16:14:32.917007 18384 net.cpp:165] Memory required for data: 3559912
I0912 16:14:32.917013 18384 layer_factory.hpp:77] Creating layer pool1
I0912 16:14:32.917028 18384 net.cpp:100] Creating Layer pool1
I0912 16:14:32.917035 18384 net.cpp:434] pool1 <- conv1
I0912 16:14:32.917043 18384 net.cpp:408] pool1 -> pool1
I0912 16:14:32.917125 18384 net.cpp:150] Setting up pool1
I0912 16:14:32.917135 18384 net.cpp:157] Top shape: 1 96 27 27 (69984)
I0912 16:14:32.917140 18384 net.cpp:165] Memory required for data: 3839848
I0912 16:14:32.917145 18384 layer_factory.hpp:77] Creating layer norm1
I0912 16:14:32.917160 18384 net.cpp:100] Creating Layer norm1
I0912 16:14:32.917165 18384 net.cpp:434] norm1 <- pool1
I0912 16:14:32.917172 18384 net.cpp:408] norm1 -> norm1
I0912 16:14:32.917546 18384 net.cpp:150] Setting up norm1
I0912 16:14:32.917560 18384 net.cpp:157] Top shape: 1 96 27 27 (69984)
I0912 16:14:32.917567 18384 net.cpp:165] Memory required for data: 4119784
I0912 16:14:32.917572 18384 layer_factory.hpp:77] Creating layer conv2
I0912 16:14:32.917587 18384 net.cpp:100] Creating Layer conv2
I0912 16:14:32.917593 18384 net.cpp:434] conv2 <- norm1
I0912 16:14:32.917601 18384 net.cpp:408] conv2 -> conv2
I0912 16:14:32.931244 18384 net.cpp:150] Setting up conv2
I0912 16:14:32.931318 18384 net.cpp:157] Top shape: 1 256 23 23 (135424)
I0912 16:14:32.931325 18384 net.cpp:165] Memory required for data: 4661480
I0912 16:14:32.931351 18384 layer_factory.hpp:77] Creating layer relu2
I0912 16:14:32.931373 18384 net.cpp:100] Creating Layer relu2
I0912 16:14:32.931382 18384 net.cpp:434] relu2 <- conv2
I0912 16:14:32.931396 18384 net.cpp:395] relu2 -> conv2 (in-place)
I0912 16:14:32.931639 18384 net.cpp:150] Setting up relu2
I0912 16:14:32.931653 18384 net.cpp:157] Top shape: 1 256 23 23 (135424)
I0912 16:14:32.931659 18384 net.cpp:165] Memory required for data: 5203176
I0912 16:14:32.931665 18384 layer_factory.hpp:77] Creating layer pool2
I0912 16:14:32.931680 18384 net.cpp:100] Creating Layer pool2
I0912 16:14:32.931686 18384 net.cpp:434] pool2 <- conv2
I0912 16:14:32.931696 18384 net.cpp:408] pool2 -> pool2
I0912 16:14:32.931789 18384 net.cpp:150] Setting up pool2
I0912 16:14:32.931800 18384 net.cpp:157] Top shape: 1 256 11 11 (30976)
I0912 16:14:32.931816 18384 net.cpp:165] Memory required for data: 5327080
I0912 16:14:32.931823 18384 layer_factory.hpp:77] Creating layer norm2
I0912 16:14:32.931849 18384 net.cpp:100] Creating Layer norm2
I0912 16:14:32.931865 18384 net.cpp:434] norm2 <- pool2
I0912 16:14:32.931890 18384 net.cpp:408] norm2 -> norm2
I0912 16:14:32.932400 18384 net.cpp:150] Setting up norm2
I0912 16:14:32.932420 18384 net.cpp:157] Top shape: 1 256 11 11 (30976)
I0912 16:14:32.932445 18384 net.cpp:165] Memory required for data: 5450984
I0912 16:14:32.932452 18384 layer_factory.hpp:77] Creating layer conv3
I0912 16:14:32.932476 18384 net.cpp:100] Creating Layer conv3
I0912 16:14:32.932483 18384 net.cpp:434] conv3 <- norm2
I0912 16:14:32.932493 18384 net.cpp:408] conv3 -> conv3
I0912 16:14:32.964438 18384 net.cpp:150] Setting up conv3
I0912 16:14:32.964493 18384 net.cpp:157] Top shape: 1 384 9 9 (31104)
I0912 16:14:32.964506 18384 net.cpp:165] Memory required for data: 5575400
I0912 16:14:32.964534 18384 layer_factory.hpp:77] Creating layer relu3
I0912 16:14:32.964550 18384 net.cpp:100] Creating Layer relu3
I0912 16:14:32.964560 18384 net.cpp:434] relu3 <- conv3
I0912 16:14:32.964576 18384 net.cpp:395] relu3 -> conv3 (in-place)
I0912 16:14:32.964977 18384 net.cpp:150] Setting up relu3
I0912 16:14:32.964993 18384 net.cpp:157] Top shape: 1 384 9 9 (31104)
I0912 16:14:32.964998 18384 net.cpp:165] Memory required for data: 5699816
I0912 16:14:32.965004 18384 layer_factory.hpp:77] Creating layer conv4
I0912 16:14:32.965021 18384 net.cpp:100] Creating Layer conv4
I0912 16:14:32.965028 18384 net.cpp:434] conv4 <- conv3
I0912 16:14:32.965036 18384 net.cpp:408] conv4 -> conv4
I0912 16:14:32.987102 18384 net.cpp:150] Setting up conv4
I0912 16:14:32.987135 18384 net.cpp:157] Top shape: 1 384 7 7 (18816)
I0912 16:14:32.987140 18384 net.cpp:165] Memory required for data: 5775080
I0912 16:14:32.987152 18384 layer_factory.hpp:77] Creating layer relu4
I0912 16:14:32.987164 18384 net.cpp:100] Creating Layer relu4
I0912 16:14:32.987171 18384 net.cpp:434] relu4 <- conv4
I0912 16:14:32.987186 18384 net.cpp:395] relu4 -> conv4 (in-place)
I0912 16:14:32.987421 18384 net.cpp:150] Setting up relu4
I0912 16:14:32.987457 18384 net.cpp:157] Top shape: 1 384 7 7 (18816)
I0912 16:14:32.987463 18384 net.cpp:165] Memory required for data: 5850344
I0912 16:14:32.987479 18384 layer_factory.hpp:77] Creating layer conv1_p
I0912 16:14:32.987493 18384 net.cpp:100] Creating Layer conv1_p
I0912 16:14:32.987499 18384 net.cpp:434] conv1_p <- image
I0912 16:14:32.987507 18384 net.cpp:408] conv1_p -> conv1_p
I0912 16:14:32.990070 18384 net.cpp:150] Setting up conv1_p
I0912 16:14:32.990092 18384 net.cpp:157] Top shape: 1 96 55 55 (290400)
I0912 16:14:32.990097 18384 net.cpp:165] Memory required for data: 7011944
I0912 16:14:32.990111 18384 layer_factory.hpp:77] Creating layer relu1_p
I0912 16:14:32.990121 18384 net.cpp:100] Creating Layer relu1_p
I0912 16:14:32.990128 18384 net.cpp:434] relu1_p <- conv1_p
I0912 16:14:32.990139 18384 net.cpp:395] relu1_p -> conv1_p (in-place)
I0912 16:14:32.990314 18384 net.cpp:150] Setting up relu1_p
I0912 16:14:32.990324 18384 net.cpp:157] Top shape: 1 96 55 55 (290400)
I0912 16:14:32.990329 18384 net.cpp:165] Memory required for data: 8173544
I0912 16:14:32.990335 18384 layer_factory.hpp:77] Creating layer pool1_p
I0912 16:14:32.990345 18384 net.cpp:100] Creating Layer pool1_p
I0912 16:14:32.990351 18384 net.cpp:434] pool1_p <- conv1_p
I0912 16:14:32.990358 18384 net.cpp:408] pool1_p -> pool1_p
I0912 16:14:32.990419 18384 net.cpp:150] Setting up pool1_p
I0912 16:14:32.990428 18384 net.cpp:157] Top shape: 1 96 27 27 (69984)
I0912 16:14:32.990433 18384 net.cpp:165] Memory required for data: 8453480
I0912 16:14:32.990438 18384 layer_factory.hpp:77] Creating layer norm1_p
I0912 16:14:32.990453 18384 net.cpp:100] Creating Layer norm1_p
I0912 16:14:32.990458 18384 net.cpp:434] norm1_p <- pool1_p
I0912 16:14:32.990466 18384 net.cpp:408] norm1_p -> norm1_p
I0912 16:14:32.991010 18384 net.cpp:150] Setting up norm1_p
I0912 16:14:32.991024 18384 net.cpp:157] Top shape: 1 96 27 27 (69984)
I0912 16:14:32.991029 18384 net.cpp:165] Memory required for data: 8733416
I0912 16:14:32.991035 18384 layer_factory.hpp:77] Creating layer conv2_p
I0912 16:14:32.991047 18384 net.cpp:100] Creating Layer conv2_p
I0912 16:14:32.991060 18384 net.cpp:434] conv2_p <- norm1_p
I0912 16:14:32.991070 18384 net.cpp:408] conv2_p -> conv2_p
I0912 16:14:33.003563 18384 net.cpp:150] Setting up conv2_p
I0912 16:14:33.003598 18384 net.cpp:157] Top shape: 1 256 23 23 (135424)
I0912 16:14:33.003602 18384 net.cpp:165] Memory required for data: 9275112
I0912 16:14:33.003609 18384 layer_factory.hpp:77] Creating layer relu2_p
I0912 16:14:33.003619 18384 net.cpp:100] Creating Layer relu2_p
I0912 16:14:33.003624 18384 net.cpp:434] relu2_p <- conv2_p
I0912 16:14:33.003630 18384 net.cpp:395] relu2_p -> conv2_p (in-place)
I0912 16:14:33.003762 18384 net.cpp:150] Setting up relu2_p
I0912 16:14:33.003770 18384 net.cpp:157] Top shape: 1 256 23 23 (135424)
I0912 16:14:33.003773 18384 net.cpp:165] Memory required for data: 9816808
I0912 16:14:33.003777 18384 layer_factory.hpp:77] Creating layer pool2_p
I0912 16:14:33.003783 18384 net.cpp:100] Creating Layer pool2_p
I0912 16:14:33.003787 18384 net.cpp:434] pool2_p <- conv2_p
I0912 16:14:33.003793 18384 net.cpp:408] pool2_p -> pool2_p
I0912 16:14:33.003837 18384 net.cpp:150] Setting up pool2_p
I0912 16:14:33.003844 18384 net.cpp:157] Top shape: 1 256 11 11 (30976)
I0912 16:14:33.003846 18384 net.cpp:165] Memory required for data: 9940712
I0912 16:14:33.003849 18384 layer_factory.hpp:77] Creating layer norm2_p
I0912 16:14:33.003856 18384 net.cpp:100] Creating Layer norm2_p
I0912 16:14:33.003860 18384 net.cpp:434] norm2_p <- pool2_p
I0912 16:14:33.003865 18384 net.cpp:408] norm2_p -> norm2_p
I0912 16:14:33.004158 18384 net.cpp:150] Setting up norm2_p
I0912 16:14:33.004168 18384 net.cpp:157] Top shape: 1 256 11 11 (30976)
I0912 16:14:33.004171 18384 net.cpp:165] Memory required for data: 10064616
I0912 16:14:33.004174 18384 layer_factory.hpp:77] Creating layer conv3_p
I0912 16:14:33.004184 18384 net.cpp:100] Creating Layer conv3_p
I0912 16:14:33.004187 18384 net.cpp:434] conv3_p <- norm2_p
I0912 16:14:33.004192 18384 net.cpp:408] conv3_p -> conv3_p
I0912 16:14:33.031991 18384 net.cpp:150] Setting up conv3_p
I0912 16:14:33.032033 18384 net.cpp:157] Top shape: 1 384 9 9 (31104)
I0912 16:14:33.032040 18384 net.cpp:165] Memory required for data: 10189032
I0912 16:14:33.032052 18384 layer_factory.hpp:77] Creating layer relu3_p
I0912 16:14:33.032064 18384 net.cpp:100] Creating Layer relu3_p
I0912 16:14:33.032071 18384 net.cpp:434] relu3_p <- conv3_p
I0912 16:14:33.032079 18384 net.cpp:395] relu3_p -> conv3_p (in-place)
I0912 16:14:33.032420 18384 net.cpp:150] Setting up relu3_p
I0912 16:14:33.032433 18384 net.cpp:157] Top shape: 1 384 9 9 (31104)
I0912 16:14:33.032440 18384 net.cpp:165] Memory required for data: 10313448
I0912 16:14:33.032445 18384 layer_factory.hpp:77] Creating layer conv4_p
I0912 16:14:33.032461 18384 net.cpp:100] Creating Layer conv4_p
I0912 16:14:33.032467 18384 net.cpp:434] conv4_p <- conv3_p
I0912 16:14:33.032477 18384 net.cpp:408] conv4_p -> conv4_p
I0912 16:14:33.057281 18384 net.cpp:150] Setting up conv4_p
I0912 16:14:33.057322 18384 net.cpp:157] Top shape: 1 384 7 7 (18816)
I0912 16:14:33.057328 18384 net.cpp:165] Memory required for data: 10388712
I0912 16:14:33.057339 18384 layer_factory.hpp:77] Creating layer relu4_p
I0912 16:14:33.057353 18384 net.cpp:100] Creating Layer relu4_p
I0912 16:14:33.057359 18384 net.cpp:434] relu4_p <- conv4_p
I0912 16:14:33.057368 18384 net.cpp:395] relu4_p -> conv4_p (in-place)
I0912 16:14:33.057574 18384 net.cpp:150] Setting up relu4_p
I0912 16:14:33.057585 18384 net.cpp:157] Top shape: 1 384 7 7 (18816)
I0912 16:14:33.057590 18384 net.cpp:165] Memory required for data: 10463976
I0912 16:14:33.057595 18384 layer_factory.hpp:77] Creating layer concat
I0912 16:14:33.057605 18384 net.cpp:100] Creating Layer concat
I0912 16:14:33.057611 18384 net.cpp:434] concat <- conv4
I0912 16:14:33.057617 18384 net.cpp:434] concat <- conv4_p
I0912 16:14:33.057627 18384 net.cpp:408] concat -> conv4_concat
I0912 16:14:33.057673 18384 net.cpp:150] Setting up concat
I0912 16:14:33.057682 18384 net.cpp:157] Top shape: 1 768 7 7 (37632)
I0912 16:14:33.057696 18384 net.cpp:165] Memory required for data: 10614504
I0912 16:14:33.057718 18384 layer_factory.hpp:77] Creating layer fc6-new
I0912 16:14:33.057730 18384 net.cpp:100] Creating Layer fc6-new
I0912 16:14:33.057744 18384 net.cpp:434] fc6-new <- conv4_concat
I0912 16:14:33.057751 18384 net.cpp:408] fc6-new -> fc6
I0912 16:14:38.143579 18384 net.cpp:150] Setting up fc6-new
I0912 16:14:38.143628 18384 net.cpp:157] Top shape: 1 4096 (4096)
I0912 16:14:38.143635 18384 net.cpp:165] Memory required for data: 10630888
I0912 16:14:38.143656 18384 layer_factory.hpp:77] Creating layer relu6
I0912 16:14:38.143673 18384 net.cpp:100] Creating Layer relu6
I0912 16:14:38.143683 18384 net.cpp:434] relu6 <- fc6
I0912 16:14:38.143698 18384 net.cpp:395] relu6 -> fc6 (in-place)
I0912 16:14:38.144196 18384 net.cpp:150] Setting up relu6
I0912 16:14:38.144210 18384 net.cpp:157] Top shape: 1 4096 (4096)
I0912 16:14:38.144217 18384 net.cpp:165] Memory required for data: 10647272
I0912 16:14:38.144223 18384 layer_factory.hpp:77] Creating layer drop6
I0912 16:14:38.144233 18384 net.cpp:100] Creating Layer drop6
I0912 16:14:38.144239 18384 net.cpp:434] drop6 <- fc6
I0912 16:14:38.144246 18384 net.cpp:395] drop6 -> fc6 (in-place)
I0912 16:14:38.144289 18384 net.cpp:150] Setting up drop6
I0912 16:14:38.144297 18384 net.cpp:157] Top shape: 1 4096 (4096)
I0912 16:14:38.144302 18384 net.cpp:165] Memory required for data: 10663656
I0912 16:14:38.144309 18384 layer_factory.hpp:77] Creating layer fc7-new
I0912 16:14:38.144320 18384 net.cpp:100] Creating Layer fc7-new
I0912 16:14:38.144326 18384 net.cpp:434] fc7-new <- fc6
I0912 16:14:38.144335 18384 net.cpp:408] fc7-new -> fc7
I0912 16:14:38.424149 18384 net.cpp:150] Setting up fc7-new
I0912 16:14:38.424191 18384 net.cpp:157] Top shape: 1 2048 (2048)
I0912 16:14:38.424197 18384 net.cpp:165] Memory required for data: 10671848
I0912 16:14:38.424211 18384 layer_factory.hpp:77] Creating layer relu7
I0912 16:14:38.424226 18384 net.cpp:100] Creating Layer relu7
I0912 16:14:38.424235 18384 net.cpp:434] relu7 <- fc7
I0912 16:14:38.424247 18384 net.cpp:395] relu7 -> fc7 (in-place)
I0912 16:14:38.424482 18384 net.cpp:150] Setting up relu7
I0912 16:14:38.424494 18384 net.cpp:157] Top shape: 1 2048 (2048)
I0912 16:14:38.424499 18384 net.cpp:165] Memory required for data: 10680040
I0912 16:14:38.424505 18384 layer_factory.hpp:77] Creating layer drop7
I0912 16:14:38.424513 18384 net.cpp:100] Creating Layer drop7
I0912 16:14:38.424520 18384 net.cpp:434] drop7 <- fc7
I0912 16:14:38.424526 18384 net.cpp:395] drop7 -> fc7 (in-place)
I0912 16:14:38.424567 18384 net.cpp:150] Setting up drop7
I0912 16:14:38.424576 18384 net.cpp:157] Top shape: 1 2048 (2048)
I0912 16:14:38.424582 18384 net.cpp:165] Memory required for data: 10688232
I0912 16:14:38.424587 18384 layer_factory.hpp:77] Creating layer fc7-newb
I0912 16:14:38.424603 18384 net.cpp:100] Creating Layer fc7-newb
I0912 16:14:38.424609 18384 net.cpp:434] fc7-newb <- fc7
I0912 16:14:38.424618 18384 net.cpp:408] fc7-newb -> fc7b
I0912 16:14:38.495442 18384 net.cpp:150] Setting up fc7-newb
I0912 16:14:38.495482 18384 net.cpp:157] Top shape: 1 1024 (1024)
I0912 16:14:38.495489 18384 net.cpp:165] Memory required for data: 10692328
I0912 16:14:38.495501 18384 layer_factory.hpp:77] Creating layer relu7b
I0912 16:14:38.495514 18384 net.cpp:100] Creating Layer relu7b
I0912 16:14:38.495522 18384 net.cpp:434] relu7b <- fc7b
I0912 16:14:38.495532 18384 net.cpp:395] relu7b -> fc7b (in-place)
I0912 16:14:38.496029 18384 net.cpp:150] Setting up relu7b
I0912 16:14:38.496043 18384 net.cpp:157] Top shape: 1 1024 (1024)
I0912 16:14:38.496049 18384 net.cpp:165] Memory required for data: 10696424
I0912 16:14:38.496055 18384 layer_factory.hpp:77] Creating layer drop7b
I0912 16:14:38.496064 18384 net.cpp:100] Creating Layer drop7b
I0912 16:14:38.496070 18384 net.cpp:434] drop7b <- fc7b
I0912 16:14:38.496078 18384 net.cpp:395] drop7b -> fc7b (in-place)
I0912 16:14:38.496119 18384 net.cpp:150] Setting up drop7b
I0912 16:14:38.496127 18384 net.cpp:157] Top shape: 1 1024 (1024)
I0912 16:14:38.496134 18384 net.cpp:165] Memory required for data: 10700520
I0912 16:14:38.496145 18384 layer_factory.hpp:77] Creating layer fc8-shapes
I0912 16:14:38.496156 18384 net.cpp:100] Creating Layer fc8-shapes
I0912 16:14:38.496170 18384 net.cpp:434] fc8-shapes <- fc7b
I0912 16:14:38.496179 18384 net.cpp:408] fc8-shapes -> fc8
I0912 16:14:38.496480 18384 net.cpp:150] Setting up fc8-shapes
I0912 16:14:38.496490 18384 net.cpp:157] Top shape: 1 4 (4)
I0912 16:14:38.496495 18384 net.cpp:165] Memory required for data: 10700536
I0912 16:14:38.496502 18384 layer_factory.hpp:77] Creating layer neg
I0912 16:14:38.496510 18384 net.cpp:100] Creating Layer neg
I0912 16:14:38.496515 18384 net.cpp:434] neg <- bbox
I0912 16:14:38.496522 18384 net.cpp:408] neg -> bbox_neg
I0912 16:14:38.496556 18384 net.cpp:150] Setting up neg
I0912 16:14:38.496564 18384 net.cpp:157] Top shape: 1 4 1 1 (4)
I0912 16:14:38.496569 18384 net.cpp:165] Memory required for data: 10700552
I0912 16:14:38.496573 18384 layer_factory.hpp:77] Creating layer flatten
I0912 16:14:38.496587 18384 net.cpp:100] Creating Layer flatten
I0912 16:14:38.496592 18384 net.cpp:434] flatten <- bbox_neg
I0912 16:14:38.496599 18384 net.cpp:408] flatten -> bbox_neg_flat
I0912 16:14:38.496639 18384 net.cpp:150] Setting up flatten
I0912 16:14:38.496646 18384 net.cpp:157] Top shape: 1 4 (4)
I0912 16:14:38.496650 18384 net.cpp:165] Memory required for data: 10700568
I0912 16:14:38.496655 18384 layer_factory.hpp:77] Creating layer subtract
I0912 16:14:38.496662 18384 net.cpp:100] Creating Layer subtract
I0912 16:14:38.496667 18384 net.cpp:434] subtract <- fc8
I0912 16:14:38.496673 18384 net.cpp:434] subtract <- bbox_neg_flat
I0912 16:14:38.496683 18384 net.cpp:408] subtract -> out_diff
I0912 16:14:38.496717 18384 net.cpp:150] Setting up subtract
I0912 16:14:38.496724 18384 net.cpp:157] Top shape: 1 4 (4)
I0912 16:14:38.496729 18384 net.cpp:165] Memory required for data: 10700584
I0912 16:14:38.496734 18384 layer_factory.hpp:77] Creating layer abssum
I0912 16:14:38.496742 18384 net.cpp:100] Creating Layer abssum
I0912 16:14:38.496747 18384 net.cpp:434] abssum <- out_diff
I0912 16:14:38.496754 18384 net.cpp:408] abssum -> loss
I0912 16:14:38.496791 18384 net.cpp:150] Setting up abssum
I0912 16:14:38.496801 18384 net.cpp:157] Top shape: (1)
…
