…
W0904 23:07:10.593904  2710 upgrade_proto.cpp:71] Note that future Caffe releases will only support input layers and not input fields.
I0904 23:07:10.594220  2710 net.cpp:58] Initializing net from parameters: 
name: "CaffeNet"
state {
  phase: TRAIN
  level: 0
}
layer {
  name: "input"
  type: "Input"
  top: "target"
  top: "image"
  top: "bbox"
  input_param {
    shape {
      dim: 1
      dim: 3
      dim: 227
      dim: 227
    }
    shape {
      dim: 1
      dim: 3
      dim: 227
      dim: 227
    }
    shape {
      dim: 1
      dim: 4
      dim: 1
      dim: 1
    }
  }
}
layer {
  name: "conv1"
  type: "Convolution"
  bottom: "target"
  top: "conv1"
  param {
    lr_mult: 5
    decay_mult: 1
  }
  param {
    lr_mult: 10
    decay_mult: 0
  }
  convolution_param {
    num_output: 96
    kernel_size: 11
    stride: 4
    weight_filler {
      type: "gaussian"
      std: 0.01
    }
    bias_filler {
      type: "constant"
      value: 0
    }
  }
}
layer {
  name: "relu1"
  type: "ReLU"
  bottom: "conv1"
  top: "conv1"
}
layer {
  name: "pool1"
  type: "Pooling"
  bottom: "conv1"
  top: "pool1"
  pooling_param {
    pool: MAX
    kernel_size: 3
    stride: 2
  }
}
layer {
  name: "norm1"
  type: "LRN"
  bottom: "pool1"
  top: "norm1"
  lrn_param {
    local_size: 5
    alpha: 0.0001
    beta: 0.75
  }
}
layer {
  name: "conv2"
  type: "Convolution"
  bottom: "norm1"
  top: "conv2"
  param {
    lr_mult: 5
    decay_mult: 1
  }
  param {
    lr_mult: 10
    decay_mult: 0
  }
  convolution_param {
    num_output: 256
    kernel_size: 5
    group: 2
    weight_filler {
      type: "gaussian"
      std: 0.01
    }
    bias_filler {
      type: "constant"
      value: 1
    }
  }
}
layer {
  name: "relu2"
  type: "ReLU"
  bottom: "conv2"
  top: "conv2"
}
layer {
  name: "pool2"
  type: "Pooling"
  bottom: "conv2"
  top: "pool2"
  pooling_param {
    pool: MAX
    kernel_size: 3
    stride: 2
  }
}
layer {
  name: "norm2"
  type: "LRN"
  bottom: "pool2"
  top: "norm2"
  lrn_param {
    local_size: 5
    alpha: 0.0001
    beta: 0.75
  }
}
layer {
  name: "conv3"
  type: "Convolution"
  bottom: "norm2"
  top: "conv3"
  param {
    lr_mult: 5
    decay_mult: 1
  }
  param {
    lr_mult: 10
    decay_mult: 0
  }
  convolution_param {
    num_output: 384
    kernel_size: 3
    weight_filler {
      type: "gaussian"
      std: 0.01
    }
    bias_filler {
      type: "constant"
      value: 0
    }
  }
}
layer {
  name: "relu3"
  type: "ReLU"
  bottom: "conv3"
  top: "conv3"
}
layer {
  name: "conv4"
  type: "Convolution"
  bottom: "conv3"
  top: "conv4"
  param {
    lr_mult: 5
    decay_mult: 1
  }
  param {
    lr_mult: 10
    decay_mult: 0
  }
  convolution_param {
    num_output: 384
    kernel_size: 3
    group: 2
    weight_filler {
      type: "gaussian"
      std: 0.01
    }
    bias_filler {
      type: "constant"
      value: 1
    }
  }
}
layer {
  name: "relu4"
  type: "ReLU"
  bottom: "conv4"
  top: "conv4"
}
layer {
  name: "conv1_p"
  type: "Convolution"
  bottom: "image"
  top: "conv1_p"
  param {
    lr_mult: 5
    decay_mult: 1
  }
  param {
    lr_mult: 10
    decay_mult: 0
  }
  convolution_param {
    num_output: 96
    kernel_size: 11
    stride: 4
    weight_filler {
      type: "gaussian"
      std: 0.01
    }
    bias_filler {
      type: "constant"
      value: 0
    }
  }
}
layer {
  name: "relu1_p"
  type: "ReLU"
  bottom: "conv1_p"
  top: "conv1_p"
}
layer {
  name: "pool1_p"
  type: "Pooling"
  bottom: "conv1_p"
  top: "pool1_p"
  pooling_param {
    pool: MAX
    kernel_size: 3
    stride: 2
  }
}
layer {
  name: "norm1_p"
  type: "LRN"
  bottom: "pool1_p"
  top: "norm1_p"
  lrn_param {
    local_size: 5
    alpha: 0.0001
    beta: 0.75
  }
}
layer {
  name: "conv2_p"
  type: "Convolution"
  bottom: "norm1_p"
  top: "conv2_p"
  param {
    lr_mult: 5
    decay_mult: 1
  }
  param {
    lr_mult: 10
    decay_mult: 0
  }
  convolution_param {
    num_output: 256
    kernel_size: 5
    group: 2
    weight_filler {
      type: "gaussian"
      std: 0.01
    }
    bias_filler {
      type: "constant"
      value: 1
    }
  }
}
layer {
  name: "relu2_p"
  type: "ReLU"
  bottom: "conv2_p"
  top: "conv2_p"
}
layer {
  name: "pool2_p"
  type: "Pooling"
  bottom: "conv2_p"
  top: "pool2_p"
  pooling_param {
    pool: MAX
    kernel_size: 3
    stride: 2
  }
}
layer {
  name: "norm2_p"
  type: "LRN"
  bottom: "pool2_p"
  top: "norm2_p"
  lrn_param {
    local_size: 5
    alpha: 0.0001
    beta: 0.75
  }
}
layer {
  name: "conv3_p"
  type: "Convolution"
  bottom: "norm2_p"
  top: "conv3_p"
  param {
    lr_mult: 5
    decay_mult: 1
  }
  param {
    lr_mult: 10
    decay_mult: 0
  }
  convolution_param {
    num_output: 384
    kernel_size: 3
    weight_filler {
      type: "gaussian"
      std: 0.01
    }
    bias_filler {
      type: "constant"
      value: 0
    }
  }
}
layer {
  name: "relu3_p"
  type: "ReLU"
  bottom: "conv3_p"
  top: "conv3_p"
}
layer {
  name: "conv4_p"
  type: "Convolution"
  bottom: "conv3_p"
  top: "conv4_p"
  param {
    lr_mult: 5
    decay_mult: 1
  }
  param {
    lr_mult: 10
    decay_mult: 0
  }
  convolution_param {
    num_output: 384
    kernel_size: 3
    group: 2
    weight_filler {
      type: "gaussian"
      std: 0.01
    }
    bias_filler {
      type: "constant"
      value: 1
    }
  }
}
layer {
  name: "relu4_p"
  type: "ReLU"
  bottom: "conv4_p"
  top: "conv4_p"
}
layer {
  name: "concat"
  type: "Concat"
  bottom: "conv4"
  bottom: "conv4_p"
  top: "conv4_concat"
  concat_param {
    axis: 1
  }
}
layer {
  name: "fc6-new"
  type: "InnerProduct"
  bottom: "conv4_concat"
  top: "fc6"
  param {
    lr_mult: 10
    decay_mult: 1
  }
  param {
    lr_mult: 20
    decay_mult: 0
  }
  inner_product_param {
    num_output: 4096
    weight_filler {
      type: "gaussian"
      std: 0.005
    }
    bias_filler {
      type: "constant"
      value: 1
    }
  }
}
layer {
  name: "relu6"
  type: "ReLU"
  bottom: "fc6"
  top: "fc6"
}
layer {
  name: "drop6"
  type: "Dropout"
  bottom: "fc6"
  top: "fc6"
  dropout_param {
    dropout_ratio: 0.5
  }
}
layer {
  name: "fc7-new"
  type: "InnerProduct"
  bottom: "fc6"
  top: "fc7"
  param {
    lr_mult: 10
    decay_mult: 1
  }
  param {
    lr_mult: 20
    decay_mult: 0
  }
  inner_product_param {
    num_output: 2048
    weight_filler {
      type: "gaussian"
      std: 0.005
    }
    bias_filler {
      type: "constant"
      value: 1
    }
  }
}
layer {
  name: "relu7"
  type: "ReLU"
  bottom: "fc7"
  top: "fc7"
}
layer {
  name: "drop7"
  type: "Dropout"
  bottom: "fc7"
  top: "fc7"
  dropout_param {
    dropout_ratio: 0.5
  }
}
layer {
  name: "fc7-newb"
  type: "InnerProduct"
  bottom: "fc7"
  top: "fc7b"
  param {
    lr_mult: 10
    decay_mult: 1
  }
  param {
    lr_mult: 20
    decay_mult: 0
  }
  inner_product_param {
    num_output: 1024
    weight_filler {
      type: "gaussian"
      std: 0.005
    }
    bias_filler {
      type: "constant"
      value: 1
    }
  }
}
layer {
  name: "relu7b"
  type: "ReLU"
  bottom: "fc7b"
  top: "fc7b"
}
layer {
  name: "drop7b"
  type: "Dropout"
  bottom: "fc7b"
  top: "fc7b"
  dropout_param {
    dropout_ratio: 0.5
  }
}
layer {
  name: "fc8-shapes"
  type: "InnerProduct"
  bottom: "fc7b"
  top: "fc8"
  param {
    lr_mult: 10
    decay_mult: 1
  }
  param {
    lr_mult: 20
    decay_mult: 0
  }
  inner_product_param {
    num_output: 4
    weight_filler {
      type: "gaussian"
      std: 0.01
    }
    bias_filler {
      type: "constant"
      value: 0
    }
  }
}
layer {
  name: "neg"
  type: "Power"
  bottom: "bbox"
  top: "bbox_neg"
  power_param {
    power: 1
    scale: -1
    shift: 0
  }
}
layer {
  name: "flatten"
  type: "Flatten"
  bottom: "bbox_neg"
  top: "bbox_neg_flat"
}
layer {
  name: "subtract"
  type: "Eltwise"
  bottom: "fc8"
  bottom: "bbox_neg_flat"
  top: "out_diff"
}
layer {
  name: "abssum"
  type: "Reduction"
  bottom: "out_diff"
  top: "loss"
  loss_weight: 1
  reduction_param {
    operation: ASUM
  }
}
I0904 23:07:10.594347  2710 layer_factory.hpp:77] Creating layer input
I0904 23:07:10.594367  2710 net.cpp:100] Creating Layer input
I0904 23:07:10.594373  2710 net.cpp:408] input -> target
I0904 23:07:10.594403  2710 net.cpp:408] input -> image
I0904 23:07:10.594413  2710 net.cpp:408] input -> bbox
I0904 23:07:10.600447  2710 net.cpp:150] Setting up input
I0904 23:07:10.600492  2710 net.cpp:157] Top shape: 1 3 227 227 (154587)
I0904 23:07:10.600497  2710 net.cpp:157] Top shape: 1 3 227 227 (154587)
I0904 23:07:10.600502  2710 net.cpp:157] Top shape: 1 4 1 1 (4)
I0904 23:07:10.600505  2710 net.cpp:165] Memory required for data: 1236712
I0904 23:07:10.600515  2710 layer_factory.hpp:77] Creating layer conv1
I0904 23:07:10.600543  2710 net.cpp:100] Creating Layer conv1
I0904 23:07:10.600549  2710 net.cpp:434] conv1 <- target
I0904 23:07:10.600563  2710 net.cpp:408] conv1 -> conv1
I0904 23:07:10.705410  2710 net.cpp:150] Setting up conv1
I0904 23:07:10.705453  2710 net.cpp:157] Top shape: 1 96 55 55 (290400)
I0904 23:07:10.705459  2710 net.cpp:165] Memory required for data: 2398312
I0904 23:07:10.705482  2710 layer_factory.hpp:77] Creating layer relu1
I0904 23:07:10.705495  2710 net.cpp:100] Creating Layer relu1
I0904 23:07:10.705500  2710 net.cpp:434] relu1 <- conv1
I0904 23:07:10.705507  2710 net.cpp:395] relu1 -> conv1 (in-place)
I0904 23:07:10.705668  2710 net.cpp:150] Setting up relu1
I0904 23:07:10.705678  2710 net.cpp:157] Top shape: 1 96 55 55 (290400)
I0904 23:07:10.705682  2710 net.cpp:165] Memory required for data: 3559912
I0904 23:07:10.705687  2710 layer_factory.hpp:77] Creating layer pool1
I0904 23:07:10.705694  2710 net.cpp:100] Creating Layer pool1
I0904 23:07:10.705698  2710 net.cpp:434] pool1 <- conv1
I0904 23:07:10.705704  2710 net.cpp:408] pool1 -> pool1
I0904 23:07:10.705746  2710 net.cpp:150] Setting up pool1
I0904 23:07:10.705754  2710 net.cpp:157] Top shape: 1 96 27 27 (69984)
I0904 23:07:10.705757  2710 net.cpp:165] Memory required for data: 3839848
I0904 23:07:10.705761  2710 layer_factory.hpp:77] Creating layer norm1
I0904 23:07:10.705772  2710 net.cpp:100] Creating Layer norm1
I0904 23:07:10.705776  2710 net.cpp:434] norm1 <- pool1
I0904 23:07:10.705780  2710 net.cpp:408] norm1 -> norm1
I0904 23:07:10.706030  2710 net.cpp:150] Setting up norm1
I0904 23:07:10.706043  2710 net.cpp:157] Top shape: 1 96 27 27 (69984)
I0904 23:07:10.706048  2710 net.cpp:165] Memory required for data: 4119784
I0904 23:07:10.706051  2710 layer_factory.hpp:77] Creating layer conv2
I0904 23:07:10.706063  2710 net.cpp:100] Creating Layer conv2
I0904 23:07:10.706068  2710 net.cpp:434] conv2 <- norm1
I0904 23:07:10.706074  2710 net.cpp:408] conv2 -> conv2
I0904 23:07:10.715589  2710 net.cpp:150] Setting up conv2
I0904 23:07:10.715626  2710 net.cpp:157] Top shape: 1 256 23 23 (135424)
I0904 23:07:10.715631  2710 net.cpp:165] Memory required for data: 4661480
I0904 23:07:10.715646  2710 layer_factory.hpp:77] Creating layer relu2
I0904 23:07:10.715656  2710 net.cpp:100] Creating Layer relu2
I0904 23:07:10.715662  2710 net.cpp:434] relu2 <- conv2
I0904 23:07:10.715668  2710 net.cpp:395] relu2 -> conv2 (in-place)
I0904 23:07:10.715816  2710 net.cpp:150] Setting up relu2
I0904 23:07:10.715826  2710 net.cpp:157] Top shape: 1 256 23 23 (135424)
I0904 23:07:10.715829  2710 net.cpp:165] Memory required for data: 5203176
I0904 23:07:10.715832  2710 layer_factory.hpp:77] Creating layer pool2
I0904 23:07:10.715842  2710 net.cpp:100] Creating Layer pool2
I0904 23:07:10.715845  2710 net.cpp:434] pool2 <- conv2
I0904 23:07:10.715852  2710 net.cpp:408] pool2 -> pool2
I0904 23:07:10.715888  2710 net.cpp:150] Setting up pool2
I0904 23:07:10.715894  2710 net.cpp:157] Top shape: 1 256 11 11 (30976)
I0904 23:07:10.715898  2710 net.cpp:165] Memory required for data: 5327080
I0904 23:07:10.715901  2710 layer_factory.hpp:77] Creating layer norm2
I0904 23:07:10.715910  2710 net.cpp:100] Creating Layer norm2
I0904 23:07:10.715914  2710 net.cpp:434] norm2 <- pool2
I0904 23:07:10.715924  2710 net.cpp:408] norm2 -> norm2
I0904 23:07:10.716169  2710 net.cpp:150] Setting up norm2
I0904 23:07:10.716189  2710 net.cpp:157] Top shape: 1 256 11 11 (30976)
I0904 23:07:10.716202  2710 net.cpp:165] Memory required for data: 5450984
I0904 23:07:10.716205  2710 layer_factory.hpp:77] Creating layer conv3
I0904 23:07:10.716217  2710 net.cpp:100] Creating Layer conv3
I0904 23:07:10.716223  2710 net.cpp:434] conv3 <- norm2
I0904 23:07:10.716228  2710 net.cpp:408] conv3 -> conv3
I0904 23:07:10.739934  2710 net.cpp:150] Setting up conv3
I0904 23:07:10.739974  2710 net.cpp:157] Top shape: 1 384 9 9 (31104)
I0904 23:07:10.739979  2710 net.cpp:165] Memory required for data: 5575400
I0904 23:07:10.739994  2710 layer_factory.hpp:77] Creating layer relu3
I0904 23:07:10.740005  2710 net.cpp:100] Creating Layer relu3
I0904 23:07:10.740010  2710 net.cpp:434] relu3 <- conv3
I0904 23:07:10.740015  2710 net.cpp:395] relu3 -> conv3 (in-place)
I0904 23:07:10.740239  2710 net.cpp:150] Setting up relu3
I0904 23:07:10.740252  2710 net.cpp:157] Top shape: 1 384 9 9 (31104)
I0904 23:07:10.740257  2710 net.cpp:165] Memory required for data: 5699816
I0904 23:07:10.740262  2710 layer_factory.hpp:77] Creating layer conv4
I0904 23:07:10.740272  2710 net.cpp:100] Creating Layer conv4
I0904 23:07:10.740275  2710 net.cpp:434] conv4 <- conv3
I0904 23:07:10.740283  2710 net.cpp:408] conv4 -> conv4
I0904 23:07:10.758761  2710 net.cpp:150] Setting up conv4
I0904 23:07:10.758801  2710 net.cpp:157] Top shape: 1 384 7 7 (18816)
I0904 23:07:10.758806  2710 net.cpp:165] Memory required for data: 5775080
I0904 23:07:10.758817  2710 layer_factory.hpp:77] Creating layer relu4
I0904 23:07:10.758827  2710 net.cpp:100] Creating Layer relu4
I0904 23:07:10.758832  2710 net.cpp:434] relu4 <- conv4
I0904 23:07:10.758839  2710 net.cpp:395] relu4 -> conv4 (in-place)
I0904 23:07:10.759019  2710 net.cpp:150] Setting up relu4
I0904 23:07:10.759032  2710 net.cpp:157] Top shape: 1 384 7 7 (18816)
I0904 23:07:10.759035  2710 net.cpp:165] Memory required for data: 5850344
I0904 23:07:10.759039  2710 layer_factory.hpp:77] Creating layer conv1_p
I0904 23:07:10.759050  2710 net.cpp:100] Creating Layer conv1_p
I0904 23:07:10.759057  2710 net.cpp:434] conv1_p <- image
I0904 23:07:10.759068  2710 net.cpp:408] conv1_p -> conv1_p
I0904 23:07:10.760730  2710 net.cpp:150] Setting up conv1_p
I0904 23:07:10.760746  2710 net.cpp:157] Top shape: 1 96 55 55 (290400)
I0904 23:07:10.760751  2710 net.cpp:165] Memory required for data: 7011944
I0904 23:07:10.760761  2710 layer_factory.hpp:77] Creating layer relu1_p
I0904 23:07:10.760769  2710 net.cpp:100] Creating Layer relu1_p
I0904 23:07:10.760774  2710 net.cpp:434] relu1_p <- conv1_p
I0904 23:07:10.760779  2710 net.cpp:395] relu1_p -> conv1_p (in-place)
I0904 23:07:10.760905  2710 net.cpp:150] Setting up relu1_p
I0904 23:07:10.760915  2710 net.cpp:157] Top shape: 1 96 55 55 (290400)
I0904 23:07:10.760920  2710 net.cpp:165] Memory required for data: 8173544
I0904 23:07:10.760923  2710 layer_factory.hpp:77] Creating layer pool1_p
I0904 23:07:10.760929  2710 net.cpp:100] Creating Layer pool1_p
I0904 23:07:10.760933  2710 net.cpp:434] pool1_p <- conv1_p
I0904 23:07:10.760938  2710 net.cpp:408] pool1_p -> pool1_p
I0904 23:07:10.760972  2710 net.cpp:150] Setting up pool1_p
I0904 23:07:10.760979  2710 net.cpp:157] Top shape: 1 96 27 27 (69984)
I0904 23:07:10.760982  2710 net.cpp:165] Memory required for data: 8453480
I0904 23:07:10.760987  2710 layer_factory.hpp:77] Creating layer norm1_p
I0904 23:07:10.760995  2710 net.cpp:100] Creating Layer norm1_p
I0904 23:07:10.760999  2710 net.cpp:434] norm1_p <- pool1_p
I0904 23:07:10.761005  2710 net.cpp:408] norm1_p -> norm1_p
I0904 23:07:10.761332  2710 net.cpp:150] Setting up norm1_p
I0904 23:07:10.761344  2710 net.cpp:157] Top shape: 1 96 27 27 (69984)
I0904 23:07:10.761348  2710 net.cpp:165] Memory required for data: 8733416
I0904 23:07:10.761353  2710 layer_factory.hpp:77] Creating layer conv2_p
I0904 23:07:10.761363  2710 net.cpp:100] Creating Layer conv2_p
I0904 23:07:10.761379  2710 net.cpp:434] conv2_p <- norm1_p
I0904 23:07:10.761385  2710 net.cpp:408] conv2_p -> conv2_p
I0904 23:07:10.770596  2710 net.cpp:150] Setting up conv2_p
I0904 23:07:10.770638  2710 net.cpp:157] Top shape: 1 256 23 23 (135424)
I0904 23:07:10.770644  2710 net.cpp:165] Memory required for data: 9275112
I0904 23:07:10.770654  2710 layer_factory.hpp:77] Creating layer relu2_p
I0904 23:07:10.770664  2710 net.cpp:100] Creating Layer relu2_p
I0904 23:07:10.770669  2710 net.cpp:434] relu2_p <- conv2_p
I0904 23:07:10.770676  2710 net.cpp:395] relu2_p -> conv2_p (in-place)
I0904 23:07:10.770812  2710 net.cpp:150] Setting up relu2_p
I0904 23:07:10.770822  2710 net.cpp:157] Top shape: 1 256 23 23 (135424)
I0904 23:07:10.770825  2710 net.cpp:165] Memory required for data: 9816808
I0904 23:07:10.770829  2710 layer_factory.hpp:77] Creating layer pool2_p
I0904 23:07:10.770836  2710 net.cpp:100] Creating Layer pool2_p
I0904 23:07:10.770841  2710 net.cpp:434] pool2_p <- conv2_p
I0904 23:07:10.770846  2710 net.cpp:408] pool2_p -> pool2_p
I0904 23:07:10.770880  2710 net.cpp:150] Setting up pool2_p
I0904 23:07:10.770887  2710 net.cpp:157] Top shape: 1 256 11 11 (30976)
I0904 23:07:10.770890  2710 net.cpp:165] Memory required for data: 9940712
I0904 23:07:10.770895  2710 layer_factory.hpp:77] Creating layer norm2_p
I0904 23:07:10.770905  2710 net.cpp:100] Creating Layer norm2_p
I0904 23:07:10.770908  2710 net.cpp:434] norm2_p <- pool2_p
I0904 23:07:10.770913  2710 net.cpp:408] norm2_p -> norm2_p
I0904 23:07:10.771159  2710 net.cpp:150] Setting up norm2_p
I0904 23:07:10.771173  2710 net.cpp:157] Top shape: 1 256 11 11 (30976)
I0904 23:07:10.771176  2710 net.cpp:165] Memory required for data: 10064616
I0904 23:07:10.771180  2710 layer_factory.hpp:77] Creating layer conv3_p
I0904 23:07:10.771193  2710 net.cpp:100] Creating Layer conv3_p
I0904 23:07:10.771196  2710 net.cpp:434] conv3_p <- norm2_p
I0904 23:07:10.771203  2710 net.cpp:408] conv3_p -> conv3_p
I0904 23:07:10.795027  2710 net.cpp:150] Setting up conv3_p
I0904 23:07:10.795065  2710 net.cpp:157] Top shape: 1 384 9 9 (31104)
I0904 23:07:10.795070  2710 net.cpp:165] Memory required for data: 10189032
I0904 23:07:10.795079  2710 layer_factory.hpp:77] Creating layer relu3_p
I0904 23:07:10.795090  2710 net.cpp:100] Creating Layer relu3_p
I0904 23:07:10.795096  2710 net.cpp:434] relu3_p <- conv3_p
I0904 23:07:10.795102  2710 net.cpp:395] relu3_p -> conv3_p (in-place)
I0904 23:07:10.795322  2710 net.cpp:150] Setting up relu3_p
I0904 23:07:10.795334  2710 net.cpp:157] Top shape: 1 384 9 9 (31104)
I0904 23:07:10.795338  2710 net.cpp:165] Memory required for data: 10313448
I0904 23:07:10.795342  2710 layer_factory.hpp:77] Creating layer conv4_p
I0904 23:07:10.795352  2710 net.cpp:100] Creating Layer conv4_p
I0904 23:07:10.795357  2710 net.cpp:434] conv4_p <- conv3_p
I0904 23:07:10.795363  2710 net.cpp:408] conv4_p -> conv4_p
I0904 23:07:10.813891  2710 net.cpp:150] Setting up conv4_p
I0904 23:07:10.813930  2710 net.cpp:157] Top shape: 1 384 7 7 (18816)
I0904 23:07:10.813935  2710 net.cpp:165] Memory required for data: 10388712
I0904 23:07:10.813946  2710 layer_factory.hpp:77] Creating layer relu4_p
I0904 23:07:10.813956  2710 net.cpp:100] Creating Layer relu4_p
I0904 23:07:10.813961  2710 net.cpp:434] relu4_p <- conv4_p
I0904 23:07:10.813968  2710 net.cpp:395] relu4_p -> conv4_p (in-place)
I0904 23:07:10.814103  2710 net.cpp:150] Setting up relu4_p
I0904 23:07:10.814112  2710 net.cpp:157] Top shape: 1 384 7 7 (18816)
I0904 23:07:10.814116  2710 net.cpp:165] Memory required for data: 10463976
I0904 23:07:10.814121  2710 layer_factory.hpp:77] Creating layer concat
I0904 23:07:10.814133  2710 net.cpp:100] Creating Layer concat
I0904 23:07:10.814138  2710 net.cpp:434] concat <- conv4
I0904 23:07:10.814142  2710 net.cpp:434] concat <- conv4_p
I0904 23:07:10.814147  2710 net.cpp:408] concat -> conv4_concat
I0904 23:07:10.814174  2710 net.cpp:150] Setting up concat
I0904 23:07:10.814180  2710 net.cpp:157] Top shape: 1 768 7 7 (37632)
I0904 23:07:10.814184  2710 net.cpp:165] Memory required for data: 10614504
I0904 23:07:10.814193  2710 layer_factory.hpp:77] Creating layer fc6-new
I0904 23:07:10.814203  2710 net.cpp:100] Creating Layer fc6-new
I0904 23:07:10.814213  2710 net.cpp:434] fc6-new <- conv4_concat
I0904 23:07:10.814219  2710 net.cpp:408] fc6-new -> fc6
I0904 23:07:14.846424  2710 net.cpp:150] Setting up fc6-new
I0904 23:07:14.846464  2710 net.cpp:157] Top shape: 1 4096 (4096)
I0904 23:07:14.846469  2710 net.cpp:165] Memory required for data: 10630888
I0904 23:07:14.846487  2710 layer_factory.hpp:77] Creating layer relu6
I0904 23:07:14.846498  2710 net.cpp:100] Creating Layer relu6
I0904 23:07:14.846503  2710 net.cpp:434] relu6 <- fc6
I0904 23:07:14.846511  2710 net.cpp:395] relu6 -> fc6 (in-place)
I0904 23:07:14.846835  2710 net.cpp:150] Setting up relu6
I0904 23:07:14.846848  2710 net.cpp:157] Top shape: 1 4096 (4096)
I0904 23:07:14.846853  2710 net.cpp:165] Memory required for data: 10647272
I0904 23:07:14.846856  2710 layer_factory.hpp:77] Creating layer drop6
I0904 23:07:14.846863  2710 net.cpp:100] Creating Layer drop6
I0904 23:07:14.846868  2710 net.cpp:434] drop6 <- fc6
I0904 23:07:14.846874  2710 net.cpp:395] drop6 -> fc6 (in-place)
I0904 23:07:14.846899  2710 net.cpp:150] Setting up drop6
I0904 23:07:14.846905  2710 net.cpp:157] Top shape: 1 4096 (4096)
I0904 23:07:14.846909  2710 net.cpp:165] Memory required for data: 10663656
I0904 23:07:14.846913  2710 layer_factory.hpp:77] Creating layer fc7-new
I0904 23:07:14.846922  2710 net.cpp:100] Creating Layer fc7-new
I0904 23:07:14.846926  2710 net.cpp:434] fc7-new <- fc6
I0904 23:07:14.846932  2710 net.cpp:408] fc7-new -> fc7
I0904 23:07:15.066422  2710 net.cpp:150] Setting up fc7-new
I0904 23:07:15.066462  2710 net.cpp:157] Top shape: 1 2048 (2048)
I0904 23:07:15.066468  2710 net.cpp:165] Memory required for data: 10671848
I0904 23:07:15.066478  2710 layer_factory.hpp:77] Creating layer relu7
I0904 23:07:15.066490  2710 net.cpp:100] Creating Layer relu7
I0904 23:07:15.066496  2710 net.cpp:434] relu7 <- fc7
I0904 23:07:15.066503  2710 net.cpp:395] relu7 -> fc7 (in-place)
I0904 23:07:15.066687  2710 net.cpp:150] Setting up relu7
I0904 23:07:15.066697  2710 net.cpp:157] Top shape: 1 2048 (2048)
I0904 23:07:15.066701  2710 net.cpp:165] Memory required for data: 10680040
I0904 23:07:15.066705  2710 layer_factory.hpp:77] Creating layer drop7
I0904 23:07:15.066714  2710 net.cpp:100] Creating Layer drop7
I0904 23:07:15.066717  2710 net.cpp:434] drop7 <- fc7
I0904 23:07:15.066722  2710 net.cpp:395] drop7 -> fc7 (in-place)
I0904 23:07:15.066745  2710 net.cpp:150] Setting up drop7
I0904 23:07:15.066751  2710 net.cpp:157] Top shape: 1 2048 (2048)
I0904 23:07:15.066756  2710 net.cpp:165] Memory required for data: 10688232
I0904 23:07:15.066759  2710 layer_factory.hpp:77] Creating layer fc7-newb
I0904 23:07:15.066772  2710 net.cpp:100] Creating Layer fc7-newb
I0904 23:07:15.066777  2710 net.cpp:434] fc7-newb <- fc7
I0904 23:07:15.066783  2710 net.cpp:408] fc7-newb -> fc7b
I0904 23:07:15.121811  2710 net.cpp:150] Setting up fc7-newb
I0904 23:07:15.121848  2710 net.cpp:157] Top shape: 1 1024 (1024)
I0904 23:07:15.121853  2710 net.cpp:165] Memory required for data: 10692328
I0904 23:07:15.121865  2710 layer_factory.hpp:77] Creating layer relu7b
I0904 23:07:15.121877  2710 net.cpp:100] Creating Layer relu7b
I0904 23:07:15.121882  2710 net.cpp:434] relu7b <- fc7b
I0904 23:07:15.121889  2710 net.cpp:395] relu7b -> fc7b (in-place)
I0904 23:07:15.122221  2710 net.cpp:150] Setting up relu7b
I0904 23:07:15.122233  2710 net.cpp:157] Top shape: 1 1024 (1024)
I0904 23:07:15.122237  2710 net.cpp:165] Memory required for data: 10696424
I0904 23:07:15.122241  2710 layer_factory.hpp:77] Creating layer drop7b
I0904 23:07:15.122251  2710 net.cpp:100] Creating Layer drop7b
I0904 23:07:15.122254  2710 net.cpp:434] drop7b <- fc7b
I0904 23:07:15.122261  2710 net.cpp:395] drop7b -> fc7b (in-place)
I0904 23:07:15.122284  2710 net.cpp:150] Setting up drop7b
I0904 23:07:15.122292  2710 net.cpp:157] Top shape: 1 1024 (1024)
I0904 23:07:15.122295  2710 net.cpp:165] Memory required for data: 10700520
I0904 23:07:15.122304  2710 layer_factory.hpp:77] Creating layer fc8-shapes
I0904 23:07:15.122313  2710 net.cpp:100] Creating Layer fc8-shapes
I0904 23:07:15.122323  2710 net.cpp:434] fc8-shapes <- fc7b
I0904 23:07:15.122329  2710 net.cpp:408] fc8-shapes -> fc8
I0904 23:07:15.122517  2710 net.cpp:150] Setting up fc8-shapes
I0904 23:07:15.122524  2710 net.cpp:157] Top shape: 1 4 (4)
I0904 23:07:15.122529  2710 net.cpp:165] Memory required for data: 10700536
I0904 23:07:15.122534  2710 layer_factory.hpp:77] Creating layer neg
I0904 23:07:15.122545  2710 net.cpp:100] Creating Layer neg
I0904 23:07:15.122550  2710 net.cpp:434] neg <- bbox
I0904 23:07:15.122557  2710 net.cpp:408] neg -> bbox_neg
I0904 23:07:15.122576  2710 net.cpp:150] Setting up neg
I0904 23:07:15.122583  2710 net.cpp:157] Top shape: 1 4 1 1 (4)
I0904 23:07:15.122586  2710 net.cpp:165] Memory required for data: 10700552
I0904 23:07:15.122591  2710 layer_factory.hpp:77] Creating layer flatten
I0904 23:07:15.122596  2710 net.cpp:100] Creating Layer flatten
I0904 23:07:15.122601  2710 net.cpp:434] flatten <- bbox_neg
I0904 23:07:15.122604  2710 net.cpp:408] flatten -> bbox_neg_flat
I0904 23:07:15.122623  2710 net.cpp:150] Setting up flatten
I0904 23:07:15.122629  2710 net.cpp:157] Top shape: 1 4 (4)
I0904 23:07:15.122632  2710 net.cpp:165] Memory required for data: 10700568
I0904 23:07:15.122637  2710 layer_factory.hpp:77] Creating layer subtract
I0904 23:07:15.122642  2710 net.cpp:100] Creating Layer subtract
I0904 23:07:15.122645  2710 net.cpp:434] subtract <- fc8
I0904 23:07:15.122650  2710 net.cpp:434] subtract <- bbox_neg_flat
I0904 23:07:15.122656  2710 net.cpp:408] subtract -> out_diff
I0904 23:07:15.122675  2710 net.cpp:150] Setting up subtract
I0904 23:07:15.122680  2710 net.cpp:157] Top shape: 1 4 (4)
I0904 23:07:15.122684  2710 net.cpp:165] Memory required for data: 10700584
I0904 23:07:15.122687  2710 layer_factory.hpp:77] Creating layer abssum
I0904 23:07:15.122694  2710 net.cpp:100] Creating Layer abssum
I0904 23:07:15.122697  2710 net.cpp:434] abssum <- out_diff
I0904 23:07:15.122702  2710 net.cpp:408] abssum -> loss
I0904 23:07:15.122722  2710 net.cpp:150] Setting up abssum
I0904 23:07:15.122728  2710 net.cpp:157] Top shape: (1)
…
