…
W0905 17:39:00.148114  2648 upgrade_proto.cpp:71] Note that future Caffe releases will only support input layers and not input fields.
I0905 17:39:00.148473  2648 net.cpp:58] Initializing net from parameters: 
name: "CaffeNet"
state {
  phase: TRAIN
  level: 0
}
layer {
  name: "input"
  type: "Input"
  top: "target"
  top: "image"
  top: "bbox"
  input_param {
    shape {
      dim: 1
      dim: 3
      dim: 227
      dim: 227
    }
    shape {
      dim: 1
      dim: 3
      dim: 227
      dim: 227
    }
    shape {
      dim: 1
      dim: 4
      dim: 1
      dim: 1
    }
  }
}
layer {
  name: "conv1"
  type: "Convolution"
  bottom: "target"
  top: "conv1"
  param {
    lr_mult: 5
    decay_mult: 1
  }
  param {
    lr_mult: 10
    decay_mult: 0
  }
  convolution_param {
    num_output: 96
    kernel_size: 11
    stride: 4
    weight_filler {
      type: "gaussian"
      std: 0.01
    }
    bias_filler {
      type: "constant"
      value: 0
    }
  }
}
layer {
  name: "relu1"
  type: "ReLU"
  bottom: "conv1"
  top: "conv1"
}
layer {
  name: "pool1"
  type: "Pooling"
  bottom: "conv1"
  top: "pool1"
  pooling_param {
    pool: MAX
    kernel_size: 3
    stride: 2
  }
}
layer {
  name: "norm1"
  type: "LRN"
  bottom: "pool1"
  top: "norm1"
  lrn_param {
    local_size: 5
    alpha: 0.0001
    beta: 0.75
  }
}
layer {
  name: "conv2"
  type: "Convolution"
  bottom: "norm1"
  top: "conv2"
  param {
    lr_mult: 5
    decay_mult: 1
  }
  param {
    lr_mult: 10
    decay_mult: 0
  }
  convolution_param {
    num_output: 256
    kernel_size: 5
    group: 2
    weight_filler {
      type: "gaussian"
      std: 0.01
    }
    bias_filler {
      type: "constant"
      value: 1
    }
  }
}
layer {
  name: "relu2"
  type: "ReLU"
  bottom: "conv2"
  top: "conv2"
}
layer {
  name: "pool2"
  type: "Pooling"
  bottom: "conv2"
  top: "pool2"
  pooling_param {
    pool: MAX
    kernel_size: 3
    stride: 2
  }
}
layer {
  name: "norm2"
  type: "LRN"
  bottom: "pool2"
  top: "norm2"
  lrn_param {
    local_size: 5
    alpha: 0.0001
    beta: 0.75
  }
}
layer {
  name: "conv3"
  type: "Convolution"
  bottom: "norm2"
  top: "conv3"
  param {
    lr_mult: 5
    decay_mult: 1
  }
  param {
    lr_mult: 10
    decay_mult: 0
  }
  convolution_param {
    num_output: 384
    kernel_size: 3
    weight_filler {
      type: "gaussian"
      std: 0.01
    }
    bias_filler {
      type: "constant"
      value: 0
    }
  }
}
layer {
  name: "relu3"
  type: "ReLU"
  bottom: "conv3"
  top: "conv3"
}
layer {
  name: "conv4"
  type: "Convolution"
  bottom: "conv3"
  top: "conv4"
  param {
    lr_mult: 5
    decay_mult: 1
  }
  param {
    lr_mult: 10
    decay_mult: 0
  }
  convolution_param {
    num_output: 384
    kernel_size: 3
    group: 2
    weight_filler {
      type: "gaussian"
      std: 0.01
    }
    bias_filler {
      type: "constant"
      value: 1
    }
  }
}
layer {
  name: "relu4"
  type: "ReLU"
  bottom: "conv4"
  top: "conv4"
}
layer {
  name: "conv1_p"
  type: "Convolution"
  bottom: "image"
  top: "conv1_p"
  param {
    lr_mult: 5
    decay_mult: 1
  }
  param {
    lr_mult: 10
    decay_mult: 0
  }
  convolution_param {
    num_output: 96
    kernel_size: 11
    stride: 4
    weight_filler {
      type: "gaussian"
      std: 0.01
    }
    bias_filler {
      type: "constant"
      value: 0
    }
  }
}
layer {
  name: "relu1_p"
  type: "ReLU"
  bottom: "conv1_p"
  top: "conv1_p"
}
layer {
  name: "pool1_p"
  type: "Pooling"
  bottom: "conv1_p"
  top: "pool1_p"
  pooling_param {
    pool: MAX
    kernel_size: 3
    stride: 2
  }
}
layer {
  name: "norm1_p"
  type: "LRN"
  bottom: "pool1_p"
  top: "norm1_p"
  lrn_param {
    local_size: 5
    alpha: 0.0001
    beta: 0.75
  }
}
layer {
  name: "conv2_p"
  type: "Convolution"
  bottom: "norm1_p"
  top: "conv2_p"
  param {
    lr_mult: 5
    decay_mult: 1
  }
  param {
    lr_mult: 10
    decay_mult: 0
  }
  convolution_param {
    num_output: 256
    kernel_size: 5
    group: 2
    weight_filler {
      type: "gaussian"
      std: 0.01
    }
    bias_filler {
      type: "constant"
      value: 1
    }
  }
}
layer {
  name: "relu2_p"
  type: "ReLU"
  bottom: "conv2_p"
  top: "conv2_p"
}
layer {
  name: "pool2_p"
  type: "Pooling"
  bottom: "conv2_p"
  top: "pool2_p"
  pooling_param {
    pool: MAX
    kernel_size: 3
    stride: 2
  }
}
layer {
  name: "norm2_p"
  type: "LRN"
  bottom: "pool2_p"
  top: "norm2_p"
  lrn_param {
    local_size: 5
    alpha: 0.0001
    beta: 0.75
  }
}
layer {
  name: "conv3_p"
  type: "Convolution"
  bottom: "norm2_p"
  top: "conv3_p"
  param {
    lr_mult: 5
    decay_mult: 1
  }
  param {
    lr_mult: 10
    decay_mult: 0
  }
  convolution_param {
    num_output: 384
    kernel_size: 3
    weight_filler {
      type: "gaussian"
      std: 0.01
    }
    bias_filler {
      type: "constant"
      value: 0
    }
  }
}
layer {
  name: "relu3_p"
  type: "ReLU"
  bottom: "conv3_p"
  top: "conv3_p"
}
layer {
  name: "conv4_p"
  type: "Convolution"
  bottom: "conv3_p"
  top: "conv4_p"
  param {
    lr_mult: 5
    decay_mult: 1
  }
  param {
    lr_mult: 10
    decay_mult: 0
  }
  convolution_param {
    num_output: 384
    kernel_size: 3
    group: 2
    weight_filler {
      type: "gaussian"
      std: 0.01
    }
    bias_filler {
      type: "constant"
      value: 1
    }
  }
}
layer {
  name: "relu4_p"
  type: "ReLU"
  bottom: "conv4_p"
  top: "conv4_p"
}
layer {
  name: "concat"
  type: "Concat"
  bottom: "conv4"
  bottom: "conv4_p"
  top: "conv4_concat"
  concat_param {
    axis: 1
  }
}
layer {
  name: "fc6-new"
  type: "InnerProduct"
  bottom: "conv4_concat"
  top: "fc6"
  param {
    lr_mult: 10
    decay_mult: 1
  }
  param {
    lr_mult: 20
    decay_mult: 0
  }
  inner_product_param {
    num_output: 4096
    weight_filler {
      type: "gaussian"
      std: 0.005
    }
    bias_filler {
      type: "constant"
      value: 1
    }
  }
}
layer {
  name: "relu6"
  type: "ReLU"
  bottom: "fc6"
  top: "fc6"
}
layer {
  name: "drop6"
  type: "Dropout"
  bottom: "fc6"
  top: "fc6"
  dropout_param {
    dropout_ratio: 0.5
  }
}
layer {
  name: "fc7-new"
  type: "InnerProduct"
  bottom: "fc6"
  top: "fc7"
  param {
    lr_mult: 10
    decay_mult: 1
  }
  param {
    lr_mult: 20
    decay_mult: 0
  }
  inner_product_param {
    num_output: 2048
    weight_filler {
      type: "gaussian"
      std: 0.005
    }
    bias_filler {
      type: "constant"
      value: 1
    }
  }
}
layer {
  name: "relu7"
  type: "ReLU"
  bottom: "fc7"
  top: "fc7"
}
layer {
  name: "drop7"
  type: "Dropout"
  bottom: "fc7"
  top: "fc7"
  dropout_param {
    dropout_ratio: 0.5
  }
}
layer {
  name: "fc7-newb"
  type: "InnerProduct"
  bottom: "fc7"
  top: "fc7b"
  param {
    lr_mult: 10
    decay_mult: 1
  }
  param {
    lr_mult: 20
    decay_mult: 0
  }
  inner_product_param {
    num_output: 1024
    weight_filler {
      type: "gaussian"
      std: 0.005
    }
    bias_filler {
      type: "constant"
      value: 1
    }
  }
}
layer {
  name: "relu7b"
  type: "ReLU"
  bottom: "fc7b"
  top: "fc7b"
}
layer {
  name: "drop7b"
  type: "Dropout"
  bottom: "fc7b"
  top: "fc7b"
  dropout_param {
    dropout_ratio: 0.5
  }
}
layer {
  name: "fc8-shapes"
  type: "InnerProduct"
  bottom: "fc7b"
  top: "fc8"
  param {
    lr_mult: 10
    decay_mult: 1
  }
  param {
    lr_mult: 20
    decay_mult: 0
  }
  inner_product_param {
    num_output: 4
    weight_filler {
      type: "gaussian"
      std: 0.01
    }
    bias_filler {
      type: "constant"
      value: 0
    }
  }
}
layer {
  name: "neg"
  type: "Power"
  bottom: "bbox"
  top: "bbox_neg"
  power_param {
    power: 1
    scale: -1
    shift: 0
  }
}
layer {
  name: "flatten"
  type: "Flatten"
  bottom: "bbox_neg"
  top: "bbox_neg_flat"
}
layer {
  name: "subtract"
  type: "Eltwise"
  bottom: "fc8"
  bottom: "bbox_neg_flat"
  top: "out_diff"
}
layer {
  name: "abssum"
  type: "Reduction"
  bottom: "out_diff"
  top: "loss"
  loss_weight: 1
  reduction_param {
    operation: ASUM
  }
}
I0905 17:39:00.148612  2648 layer_factory.hpp:77] Creating layer input
I0905 17:39:00.148633  2648 net.cpp:100] Creating Layer input
I0905 17:39:00.148640  2648 net.cpp:408] input -> target
I0905 17:39:00.148677  2648 net.cpp:408] input -> image
I0905 17:39:00.148689  2648 net.cpp:408] input -> bbox
I0905 17:39:00.154711  2648 net.cpp:150] Setting up input
I0905 17:39:00.154755  2648 net.cpp:157] Top shape: 1 3 227 227 (154587)
I0905 17:39:00.154762  2648 net.cpp:157] Top shape: 1 3 227 227 (154587)
I0905 17:39:00.154767  2648 net.cpp:157] Top shape: 1 4 1 1 (4)
I0905 17:39:00.154770  2648 net.cpp:165] Memory required for data: 1236712
I0905 17:39:00.154779  2648 layer_factory.hpp:77] Creating layer conv1
I0905 17:39:00.154808  2648 net.cpp:100] Creating Layer conv1
I0905 17:39:00.154814  2648 net.cpp:434] conv1 <- target
I0905 17:39:00.154826  2648 net.cpp:408] conv1 -> conv1
I0905 17:39:00.272120  2648 net.cpp:150] Setting up conv1
I0905 17:39:00.272161  2648 net.cpp:157] Top shape: 1 96 55 55 (290400)
I0905 17:39:00.272166  2648 net.cpp:165] Memory required for data: 2398312
I0905 17:39:00.272189  2648 layer_factory.hpp:77] Creating layer relu1
I0905 17:39:00.272202  2648 net.cpp:100] Creating Layer relu1
I0905 17:39:00.272208  2648 net.cpp:434] relu1 <- conv1
I0905 17:39:00.272214  2648 net.cpp:395] relu1 -> conv1 (in-place)
I0905 17:39:00.272368  2648 net.cpp:150] Setting up relu1
I0905 17:39:00.272377  2648 net.cpp:157] Top shape: 1 96 55 55 (290400)
I0905 17:39:00.272382  2648 net.cpp:165] Memory required for data: 3559912
I0905 17:39:00.272385  2648 layer_factory.hpp:77] Creating layer pool1
I0905 17:39:00.272393  2648 net.cpp:100] Creating Layer pool1
I0905 17:39:00.272397  2648 net.cpp:434] pool1 <- conv1
I0905 17:39:00.272403  2648 net.cpp:408] pool1 -> pool1
I0905 17:39:00.272445  2648 net.cpp:150] Setting up pool1
I0905 17:39:00.272454  2648 net.cpp:157] Top shape: 1 96 27 27 (69984)
I0905 17:39:00.272456  2648 net.cpp:165] Memory required for data: 3839848
I0905 17:39:00.272460  2648 layer_factory.hpp:77] Creating layer norm1
I0905 17:39:00.272471  2648 net.cpp:100] Creating Layer norm1
I0905 17:39:00.272475  2648 net.cpp:434] norm1 <- pool1
I0905 17:39:00.272480  2648 net.cpp:408] norm1 -> norm1
I0905 17:39:00.272729  2648 net.cpp:150] Setting up norm1
I0905 17:39:00.272742  2648 net.cpp:157] Top shape: 1 96 27 27 (69984)
I0905 17:39:00.272747  2648 net.cpp:165] Memory required for data: 4119784
I0905 17:39:00.272750  2648 layer_factory.hpp:77] Creating layer conv2
I0905 17:39:00.272761  2648 net.cpp:100] Creating Layer conv2
I0905 17:39:00.272765  2648 net.cpp:434] conv2 <- norm1
I0905 17:39:00.272771  2648 net.cpp:408] conv2 -> conv2
I0905 17:39:00.282419  2648 net.cpp:150] Setting up conv2
I0905 17:39:00.282455  2648 net.cpp:157] Top shape: 1 256 23 23 (135424)
I0905 17:39:00.282461  2648 net.cpp:165] Memory required for data: 4661480
I0905 17:39:00.282475  2648 layer_factory.hpp:77] Creating layer relu2
I0905 17:39:00.282486  2648 net.cpp:100] Creating Layer relu2
I0905 17:39:00.282492  2648 net.cpp:434] relu2 <- conv2
I0905 17:39:00.282498  2648 net.cpp:395] relu2 -> conv2 (in-place)
I0905 17:39:00.282641  2648 net.cpp:150] Setting up relu2
I0905 17:39:00.282651  2648 net.cpp:157] Top shape: 1 256 23 23 (135424)
I0905 17:39:00.282655  2648 net.cpp:165] Memory required for data: 5203176
I0905 17:39:00.282660  2648 layer_factory.hpp:77] Creating layer pool2
I0905 17:39:00.282665  2648 net.cpp:100] Creating Layer pool2
I0905 17:39:00.282670  2648 net.cpp:434] pool2 <- conv2
I0905 17:39:00.282675  2648 net.cpp:408] pool2 -> pool2
I0905 17:39:00.282711  2648 net.cpp:150] Setting up pool2
I0905 17:39:00.282716  2648 net.cpp:157] Top shape: 1 256 11 11 (30976)
I0905 17:39:00.282721  2648 net.cpp:165] Memory required for data: 5327080
I0905 17:39:00.282723  2648 layer_factory.hpp:77] Creating layer norm2
I0905 17:39:00.282732  2648 net.cpp:100] Creating Layer norm2
I0905 17:39:00.282737  2648 net.cpp:434] norm2 <- pool2
I0905 17:39:00.282747  2648 net.cpp:408] norm2 -> norm2
I0905 17:39:00.282985  2648 net.cpp:150] Setting up norm2
I0905 17:39:00.282999  2648 net.cpp:157] Top shape: 1 256 11 11 (30976)
I0905 17:39:00.283010  2648 net.cpp:165] Memory required for data: 5450984
I0905 17:39:00.283015  2648 layer_factory.hpp:77] Creating layer conv3
I0905 17:39:00.283025  2648 net.cpp:100] Creating Layer conv3
I0905 17:39:00.283030  2648 net.cpp:434] conv3 <- norm2
I0905 17:39:00.283035  2648 net.cpp:408] conv3 -> conv3
I0905 17:39:00.307447  2648 net.cpp:150] Setting up conv3
I0905 17:39:00.307485  2648 net.cpp:157] Top shape: 1 384 9 9 (31104)
I0905 17:39:00.307492  2648 net.cpp:165] Memory required for data: 5575400
I0905 17:39:00.307507  2648 layer_factory.hpp:77] Creating layer relu3
I0905 17:39:00.307518  2648 net.cpp:100] Creating Layer relu3
I0905 17:39:00.307523  2648 net.cpp:434] relu3 <- conv3
I0905 17:39:00.307528  2648 net.cpp:395] relu3 -> conv3 (in-place)
I0905 17:39:00.307751  2648 net.cpp:150] Setting up relu3
I0905 17:39:00.307763  2648 net.cpp:157] Top shape: 1 384 9 9 (31104)
I0905 17:39:00.307767  2648 net.cpp:165] Memory required for data: 5699816
I0905 17:39:00.307771  2648 layer_factory.hpp:77] Creating layer conv4
I0905 17:39:00.307782  2648 net.cpp:100] Creating Layer conv4
I0905 17:39:00.307786  2648 net.cpp:434] conv4 <- conv3
I0905 17:39:00.307792  2648 net.cpp:408] conv4 -> conv4
I0905 17:39:00.327100  2648 net.cpp:150] Setting up conv4
I0905 17:39:00.327137  2648 net.cpp:157] Top shape: 1 384 7 7 (18816)
I0905 17:39:00.327142  2648 net.cpp:165] Memory required for data: 5775080
I0905 17:39:00.327152  2648 layer_factory.hpp:77] Creating layer relu4
I0905 17:39:00.327162  2648 net.cpp:100] Creating Layer relu4
I0905 17:39:00.327167  2648 net.cpp:434] relu4 <- conv4
I0905 17:39:00.327175  2648 net.cpp:395] relu4 -> conv4 (in-place)
I0905 17:39:00.327309  2648 net.cpp:150] Setting up relu4
I0905 17:39:00.327318  2648 net.cpp:157] Top shape: 1 384 7 7 (18816)
I0905 17:39:00.327322  2648 net.cpp:165] Memory required for data: 5850344
I0905 17:39:00.327327  2648 layer_factory.hpp:77] Creating layer conv1_p
I0905 17:39:00.327337  2648 net.cpp:100] Creating Layer conv1_p
I0905 17:39:00.327342  2648 net.cpp:434] conv1_p <- image
I0905 17:39:00.327348  2648 net.cpp:408] conv1_p -> conv1_p
I0905 17:39:00.329792  2648 net.cpp:150] Setting up conv1_p
I0905 17:39:00.329821  2648 net.cpp:157] Top shape: 1 96 55 55 (290400)
I0905 17:39:00.329826  2648 net.cpp:165] Memory required for data: 7011944
I0905 17:39:00.329839  2648 layer_factory.hpp:77] Creating layer relu1_p
I0905 17:39:00.329850  2648 net.cpp:100] Creating Layer relu1_p
I0905 17:39:00.329855  2648 net.cpp:434] relu1_p <- conv1_p
I0905 17:39:00.329861  2648 net.cpp:395] relu1_p -> conv1_p (in-place)
I0905 17:39:00.329989  2648 net.cpp:150] Setting up relu1_p
I0905 17:39:00.329998  2648 net.cpp:157] Top shape: 1 96 55 55 (290400)
I0905 17:39:00.330000  2648 net.cpp:165] Memory required for data: 8173544
I0905 17:39:00.330004  2648 layer_factory.hpp:77] Creating layer pool1_p
I0905 17:39:00.330011  2648 net.cpp:100] Creating Layer pool1_p
I0905 17:39:00.330015  2648 net.cpp:434] pool1_p <- conv1_p
I0905 17:39:00.330020  2648 net.cpp:408] pool1_p -> pool1_p
I0905 17:39:00.330054  2648 net.cpp:150] Setting up pool1_p
I0905 17:39:00.330060  2648 net.cpp:157] Top shape: 1 96 27 27 (69984)
I0905 17:39:00.330063  2648 net.cpp:165] Memory required for data: 8453480
I0905 17:39:00.330067  2648 layer_factory.hpp:77] Creating layer norm1_p
I0905 17:39:00.330076  2648 net.cpp:100] Creating Layer norm1_p
I0905 17:39:00.330080  2648 net.cpp:434] norm1_p <- pool1_p
I0905 17:39:00.330086  2648 net.cpp:408] norm1_p -> norm1_p
I0905 17:39:00.330412  2648 net.cpp:150] Setting up norm1_p
I0905 17:39:00.330423  2648 net.cpp:157] Top shape: 1 96 27 27 (69984)
I0905 17:39:00.330427  2648 net.cpp:165] Memory required for data: 8733416
I0905 17:39:00.330431  2648 layer_factory.hpp:77] Creating layer conv2_p
I0905 17:39:00.330442  2648 net.cpp:100] Creating Layer conv2_p
I0905 17:39:00.330452  2648 net.cpp:434] conv2_p <- norm1_p
I0905 17:39:00.330459  2648 net.cpp:408] conv2_p -> conv2_p
I0905 17:39:00.341228  2648 net.cpp:150] Setting up conv2_p
I0905 17:39:00.341275  2648 net.cpp:157] Top shape: 1 256 23 23 (135424)
I0905 17:39:00.341281  2648 net.cpp:165] Memory required for data: 9275112
I0905 17:39:00.341291  2648 layer_factory.hpp:77] Creating layer relu2_p
I0905 17:39:00.341301  2648 net.cpp:100] Creating Layer relu2_p
I0905 17:39:00.341307  2648 net.cpp:434] relu2_p <- conv2_p
I0905 17:39:00.341315  2648 net.cpp:395] relu2_p -> conv2_p (in-place)
I0905 17:39:00.341450  2648 net.cpp:150] Setting up relu2_p
I0905 17:39:00.341459  2648 net.cpp:157] Top shape: 1 256 23 23 (135424)
I0905 17:39:00.341464  2648 net.cpp:165] Memory required for data: 9816808
I0905 17:39:00.341467  2648 layer_factory.hpp:77] Creating layer pool2_p
I0905 17:39:00.341475  2648 net.cpp:100] Creating Layer pool2_p
I0905 17:39:00.341480  2648 net.cpp:434] pool2_p <- conv2_p
I0905 17:39:00.341485  2648 net.cpp:408] pool2_p -> pool2_p
I0905 17:39:00.341519  2648 net.cpp:150] Setting up pool2_p
I0905 17:39:00.341526  2648 net.cpp:157] Top shape: 1 256 11 11 (30976)
I0905 17:39:00.341528  2648 net.cpp:165] Memory required for data: 9940712
I0905 17:39:00.341532  2648 layer_factory.hpp:77] Creating layer norm2_p
I0905 17:39:00.341542  2648 net.cpp:100] Creating Layer norm2_p
I0905 17:39:00.341545  2648 net.cpp:434] norm2_p <- pool2_p
I0905 17:39:00.341550  2648 net.cpp:408] norm2_p -> norm2_p
I0905 17:39:00.341789  2648 net.cpp:150] Setting up norm2_p
I0905 17:39:00.341801  2648 net.cpp:157] Top shape: 1 256 11 11 (30976)
I0905 17:39:00.341805  2648 net.cpp:165] Memory required for data: 10064616
I0905 17:39:00.341809  2648 layer_factory.hpp:77] Creating layer conv3_p
I0905 17:39:00.341820  2648 net.cpp:100] Creating Layer conv3_p
I0905 17:39:00.341825  2648 net.cpp:434] conv3_p <- norm2_p
I0905 17:39:00.341830  2648 net.cpp:408] conv3_p -> conv3_p
I0905 17:39:00.366396  2648 net.cpp:150] Setting up conv3_p
I0905 17:39:00.366431  2648 net.cpp:157] Top shape: 1 384 9 9 (31104)
I0905 17:39:00.366436  2648 net.cpp:165] Memory required for data: 10189032
I0905 17:39:00.366446  2648 layer_factory.hpp:77] Creating layer relu3_p
I0905 17:39:00.366456  2648 net.cpp:100] Creating Layer relu3_p
I0905 17:39:00.366461  2648 net.cpp:434] relu3_p <- conv3_p
I0905 17:39:00.366468  2648 net.cpp:395] relu3_p -> conv3_p (in-place)
I0905 17:39:00.366690  2648 net.cpp:150] Setting up relu3_p
I0905 17:39:00.366703  2648 net.cpp:157] Top shape: 1 384 9 9 (31104)
I0905 17:39:00.366705  2648 net.cpp:165] Memory required for data: 10313448
I0905 17:39:00.366710  2648 layer_factory.hpp:77] Creating layer conv4_p
I0905 17:39:00.366720  2648 net.cpp:100] Creating Layer conv4_p
I0905 17:39:00.366725  2648 net.cpp:434] conv4_p <- conv3_p
I0905 17:39:00.366732  2648 net.cpp:408] conv4_p -> conv4_p
I0905 17:39:00.385627  2648 net.cpp:150] Setting up conv4_p
I0905 17:39:00.385666  2648 net.cpp:157] Top shape: 1 384 7 7 (18816)
I0905 17:39:00.385673  2648 net.cpp:165] Memory required for data: 10388712
I0905 17:39:00.385682  2648 layer_factory.hpp:77] Creating layer relu4_p
I0905 17:39:00.385692  2648 net.cpp:100] Creating Layer relu4_p
I0905 17:39:00.385697  2648 net.cpp:434] relu4_p <- conv4_p
I0905 17:39:00.385704  2648 net.cpp:395] relu4_p -> conv4_p (in-place)
I0905 17:39:00.385835  2648 net.cpp:150] Setting up relu4_p
I0905 17:39:00.385843  2648 net.cpp:157] Top shape: 1 384 7 7 (18816)
I0905 17:39:00.385848  2648 net.cpp:165] Memory required for data: 10463976
I0905 17:39:00.385851  2648 layer_factory.hpp:77] Creating layer concat
I0905 17:39:00.385864  2648 net.cpp:100] Creating Layer concat
I0905 17:39:00.385869  2648 net.cpp:434] concat <- conv4
I0905 17:39:00.385874  2648 net.cpp:434] concat <- conv4_p
I0905 17:39:00.385879  2648 net.cpp:408] concat -> conv4_concat
I0905 17:39:00.385905  2648 net.cpp:150] Setting up concat
I0905 17:39:00.385911  2648 net.cpp:157] Top shape: 1 768 7 7 (37632)
I0905 17:39:00.385915  2648 net.cpp:165] Memory required for data: 10614504
I0905 17:39:00.385923  2648 layer_factory.hpp:77] Creating layer fc6-new
I0905 17:39:00.385932  2648 net.cpp:100] Creating Layer fc6-new
I0905 17:39:00.385943  2648 net.cpp:434] fc6-new <- conv4_concat
I0905 17:39:00.385948  2648 net.cpp:408] fc6-new -> fc6
I0905 17:39:04.475822  2648 net.cpp:150] Setting up fc6-new
I0905 17:39:04.475931  2648 net.cpp:157] Top shape: 1 4096 (4096)
I0905 17:39:04.475951  2648 net.cpp:165] Memory required for data: 10630888
I0905 17:39:04.476003  2648 layer_factory.hpp:77] Creating layer relu6
I0905 17:39:04.476037  2648 net.cpp:100] Creating Layer relu6
I0905 17:39:04.476053  2648 net.cpp:434] relu6 <- fc6
I0905 17:39:04.476073  2648 net.cpp:395] relu6 -> fc6 (in-place)
I0905 17:39:04.476948  2648 net.cpp:150] Setting up relu6
I0905 17:39:04.477032  2648 net.cpp:157] Top shape: 1 4096 (4096)
I0905 17:39:04.477041  2648 net.cpp:165] Memory required for data: 10647272
I0905 17:39:04.477048  2648 layer_factory.hpp:77] Creating layer drop6
I0905 17:39:04.477061  2648 net.cpp:100] Creating Layer drop6
I0905 17:39:04.477067  2648 net.cpp:434] drop6 <- fc6
I0905 17:39:04.477075  2648 net.cpp:395] drop6 -> fc6 (in-place)
I0905 17:39:04.477130  2648 net.cpp:150] Setting up drop6
I0905 17:39:04.477140  2648 net.cpp:157] Top shape: 1 4096 (4096)
I0905 17:39:04.477146  2648 net.cpp:165] Memory required for data: 10663656
I0905 17:39:04.477154  2648 layer_factory.hpp:77] Creating layer fc7-new
I0905 17:39:04.477167  2648 net.cpp:100] Creating Layer fc7-new
I0905 17:39:04.477172  2648 net.cpp:434] fc7-new <- fc6
I0905 17:39:04.477180  2648 net.cpp:408] fc7-new -> fc7
I0905 17:39:04.696877  2648 net.cpp:150] Setting up fc7-new
I0905 17:39:04.696916  2648 net.cpp:157] Top shape: 1 2048 (2048)
I0905 17:39:04.696921  2648 net.cpp:165] Memory required for data: 10671848
I0905 17:39:04.696933  2648 layer_factory.hpp:77] Creating layer relu7
I0905 17:39:04.696945  2648 net.cpp:100] Creating Layer relu7
I0905 17:39:04.696950  2648 net.cpp:434] relu7 <- fc7
I0905 17:39:04.696959  2648 net.cpp:395] relu7 -> fc7 (in-place)
I0905 17:39:04.697144  2648 net.cpp:150] Setting up relu7
I0905 17:39:04.697151  2648 net.cpp:157] Top shape: 1 2048 (2048)
I0905 17:39:04.697156  2648 net.cpp:165] Memory required for data: 10680040
I0905 17:39:04.697160  2648 layer_factory.hpp:77] Creating layer drop7
I0905 17:39:04.697167  2648 net.cpp:100] Creating Layer drop7
I0905 17:39:04.697171  2648 net.cpp:434] drop7 <- fc7
I0905 17:39:04.697176  2648 net.cpp:395] drop7 -> fc7 (in-place)
I0905 17:39:04.697199  2648 net.cpp:150] Setting up drop7
I0905 17:39:04.697206  2648 net.cpp:157] Top shape: 1 2048 (2048)
I0905 17:39:04.697208  2648 net.cpp:165] Memory required for data: 10688232
I0905 17:39:04.697212  2648 layer_factory.hpp:77] Creating layer fc7-newb
I0905 17:39:04.697226  2648 net.cpp:100] Creating Layer fc7-newb
I0905 17:39:04.697229  2648 net.cpp:434] fc7-newb <- fc7
I0905 17:39:04.697235  2648 net.cpp:408] fc7-newb -> fc7b
I0905 17:39:04.751344  2648 net.cpp:150] Setting up fc7-newb
I0905 17:39:04.751381  2648 net.cpp:157] Top shape: 1 1024 (1024)
I0905 17:39:04.751386  2648 net.cpp:165] Memory required for data: 10692328
I0905 17:39:04.751399  2648 layer_factory.hpp:77] Creating layer relu7b
I0905 17:39:04.751410  2648 net.cpp:100] Creating Layer relu7b
I0905 17:39:04.751415  2648 net.cpp:434] relu7b <- fc7b
I0905 17:39:04.751422  2648 net.cpp:395] relu7b -> fc7b (in-place)
I0905 17:39:04.751754  2648 net.cpp:150] Setting up relu7b
I0905 17:39:04.751766  2648 net.cpp:157] Top shape: 1 1024 (1024)
I0905 17:39:04.751771  2648 net.cpp:165] Memory required for data: 10696424
I0905 17:39:04.751775  2648 layer_factory.hpp:77] Creating layer drop7b
I0905 17:39:04.751783  2648 net.cpp:100] Creating Layer drop7b
I0905 17:39:04.751788  2648 net.cpp:434] drop7b <- fc7b
I0905 17:39:04.751794  2648 net.cpp:395] drop7b -> fc7b (in-place)
I0905 17:39:04.751817  2648 net.cpp:150] Setting up drop7b
I0905 17:39:04.751823  2648 net.cpp:157] Top shape: 1 1024 (1024)
I0905 17:39:04.751827  2648 net.cpp:165] Memory required for data: 10700520
I0905 17:39:04.751837  2648 layer_factory.hpp:77] Creating layer fc8-shapes
I0905 17:39:04.751845  2648 net.cpp:100] Creating Layer fc8-shapes
I0905 17:39:04.751857  2648 net.cpp:434] fc8-shapes <- fc7b
I0905 17:39:04.751863  2648 net.cpp:408] fc8-shapes -> fc8
I0905 17:39:04.752055  2648 net.cpp:150] Setting up fc8-shapes
I0905 17:39:04.752063  2648 net.cpp:157] Top shape: 1 4 (4)
I0905 17:39:04.752066  2648 net.cpp:165] Memory required for data: 10700536
I0905 17:39:04.752073  2648 layer_factory.hpp:77] Creating layer neg
I0905 17:39:04.752079  2648 net.cpp:100] Creating Layer neg
I0905 17:39:04.752084  2648 net.cpp:434] neg <- bbox
I0905 17:39:04.752087  2648 net.cpp:408] neg -> bbox_neg
I0905 17:39:04.752112  2648 net.cpp:150] Setting up neg
I0905 17:39:04.752118  2648 net.cpp:157] Top shape: 1 4 1 1 (4)
I0905 17:39:04.752122  2648 net.cpp:165] Memory required for data: 10700552
I0905 17:39:04.752125  2648 layer_factory.hpp:77] Creating layer flatten
I0905 17:39:04.752131  2648 net.cpp:100] Creating Layer flatten
I0905 17:39:04.752135  2648 net.cpp:434] flatten <- bbox_neg
I0905 17:39:04.752142  2648 net.cpp:408] flatten -> bbox_neg_flat
I0905 17:39:04.752159  2648 net.cpp:150] Setting up flatten
I0905 17:39:04.752164  2648 net.cpp:157] Top shape: 1 4 (4)
I0905 17:39:04.752167  2648 net.cpp:165] Memory required for data: 10700568
I0905 17:39:04.752171  2648 layer_factory.hpp:77] Creating layer subtract
I0905 17:39:04.752177  2648 net.cpp:100] Creating Layer subtract
I0905 17:39:04.752180  2648 net.cpp:434] subtract <- fc8
I0905 17:39:04.752185  2648 net.cpp:434] subtract <- bbox_neg_flat
I0905 17:39:04.752192  2648 net.cpp:408] subtract -> out_diff
I0905 17:39:04.752208  2648 net.cpp:150] Setting up subtract
I0905 17:39:04.752214  2648 net.cpp:157] Top shape: 1 4 (4)
I0905 17:39:04.752218  2648 net.cpp:165] Memory required for data: 10700584
I0905 17:39:04.752221  2648 layer_factory.hpp:77] Creating layer abssum
I0905 17:39:04.752226  2648 net.cpp:100] Creating Layer abssum
I0905 17:39:04.752230  2648 net.cpp:434] abssum <- out_diff
I0905 17:39:04.752235  2648 net.cpp:408] abssum -> loss
I0905 17:39:04.752254  2648 net.cpp:150] Setting up abssum
I0905 17:39:04.752259  2648 net.cpp:157] Top shape: (1)
…
