…
W0905 18:08:00.563997  2469 upgrade_proto.cpp:71] Note that future Caffe releases will only support input layers and not input fields.
I0905 18:08:00.565043  2469 net.cpp:58] Initializing net from parameters: 
name: "CaffeNet"
state {
  phase: TRAIN
  level: 0
}
layer {
  name: "input"
  type: "Input"
  top: "target"
  top: "image"
  top: "bbox"
  input_param {
    shape {
      dim: 1
      dim: 3
      dim: 227
      dim: 227
    }
    shape {
      dim: 1
      dim: 3
      dim: 227
      dim: 227
    }
    shape {
      dim: 1
      dim: 4
      dim: 1
      dim: 1
    }
  }
}
layer {
  name: "conv1"
  type: "Convolution"
  bottom: "target"
  top: "conv1"
  param {
    lr_mult: 5
    decay_mult: 1
  }
  param {
    lr_mult: 10
    decay_mult: 0
  }
  convolution_param {
    num_output: 96
    kernel_size: 11
    stride: 4
    weight_filler {
      type: "gaussian"
      std: 0.01
    }
    bias_filler {
      type: "constant"
      value: 0
    }
  }
}
layer {
  name: "relu1"
  type: "ReLU"
  bottom: "conv1"
  top: "conv1"
}
layer {
  name: "pool1"
  type: "Pooling"
  bottom: "conv1"
  top: "pool1"
  pooling_param {
    pool: MAX
    kernel_size: 3
    stride: 2
  }
}
layer {
  name: "norm1"
  type: "LRN"
  bottom: "pool1"
  top: "norm1"
  lrn_param {
    local_size: 5
    alpha: 0.0001
    beta: 0.75
  }
}
layer {
  name: "conv2"
  type: "Convolution"
  bottom: "norm1"
  top: "conv2"
  param {
    lr_mult: 5
    decay_mult: 1
  }
  param {
    lr_mult: 10
    decay_mult: 0
  }
  convolution_param {
    num_output: 256
    kernel_size: 5
    group: 2
    weight_filler {
      type: "gaussian"
      std: 0.01
    }
    bias_filler {
      type: "constant"
      value: 1
    }
  }
}
layer {
  name: "relu2"
  type: "ReLU"
  bottom: "conv2"
  top: "conv2"
}
layer {
  name: "pool2"
  type: "Pooling"
  bottom: "conv2"
  top: "pool2"
  pooling_param {
    pool: MAX
    kernel_size: 3
    stride: 2
  }
}
layer {
  name: "norm2"
  type: "LRN"
  bottom: "pool2"
  top: "norm2"
  lrn_param {
    local_size: 5
    alpha: 0.0001
    beta: 0.75
  }
}
layer {
  name: "conv3"
  type: "Convolution"
  bottom: "norm2"
  top: "conv3"
  param {
    lr_mult: 5
    decay_mult: 1
  }
  param {
    lr_mult: 10
    decay_mult: 0
  }
  convolution_param {
    num_output: 384
    kernel_size: 3
    weight_filler {
      type: "gaussian"
      std: 0.01
    }
    bias_filler {
      type: "constant"
      value: 0
    }
  }
}
layer {
  name: "relu3"
  type: "ReLU"
  bottom: "conv3"
  top: "conv3"
}
layer {
  name: "conv4"
  type: "Convolution"
  bottom: "conv3"
  top: "conv4"
  param {
    lr_mult: 5
    decay_mult: 1
  }
  param {
    lr_mult: 10
    decay_mult: 0
  }
  convolution_param {
    num_output: 384
    kernel_size: 3
    group: 2
    weight_filler {
      type: "gaussian"
      std: 0.01
    }
    bias_filler {
      type: "constant"
      value: 1
    }
  }
}
layer {
  name: "relu4"
  type: "ReLU"
  bottom: "conv4"
  top: "conv4"
}
layer {
  name: "conv1_p"
  type: "Convolution"
  bottom: "image"
  top: "conv1_p"
  param {
    lr_mult: 5
    decay_mult: 1
  }
  param {
    lr_mult: 10
    decay_mult: 0
  }
  convolution_param {
    num_output: 96
    kernel_size: 11
    stride: 4
    weight_filler {
      type: "gaussian"
      std: 0.01
    }
    bias_filler {
      type: "constant"
      value: 0
    }
  }
}
layer {
  name: "relu1_p"
  type: "ReLU"
  bottom: "conv1_p"
  top: "conv1_p"
}
layer {
  name: "pool1_p"
  type: "Pooling"
  bottom: "conv1_p"
  top: "pool1_p"
  pooling_param {
    pool: MAX
    kernel_size: 3
    stride: 2
  }
}
layer {
  name: "norm1_p"
  type: "LRN"
  bottom: "pool1_p"
  top: "norm1_p"
  lrn_param {
    local_size: 5
    alpha: 0.0001
    beta: 0.75
  }
}
layer {
  name: "conv2_p"
  type: "Convolution"
  bottom: "norm1_p"
  top: "conv2_p"
  param {
    lr_mult: 5
    decay_mult: 1
  }
  param {
    lr_mult: 10
    decay_mult: 0
  }
  convolution_param {
    num_output: 256
    kernel_size: 5
    group: 2
    weight_filler {
      type: "gaussian"
      std: 0.01
    }
    bias_filler {
      type: "constant"
      value: 1
    }
  }
}
layer {
  name: "relu2_p"
  type: "ReLU"
  bottom: "conv2_p"
  top: "conv2_p"
}
layer {
  name: "pool2_p"
  type: "Pooling"
  bottom: "conv2_p"
  top: "pool2_p"
  pooling_param {
    pool: MAX
    kernel_size: 3
    stride: 2
  }
}
layer {
  name: "norm2_p"
  type: "LRN"
  bottom: "pool2_p"
  top: "norm2_p"
  lrn_param {
    local_size: 5
    alpha: 0.0001
    beta: 0.75
  }
}
layer {
  name: "conv3_p"
  type: "Convolution"
  bottom: "norm2_p"
  top: "conv3_p"
  param {
    lr_mult: 5
    decay_mult: 1
  }
  param {
    lr_mult: 10
    decay_mult: 0
  }
  convolution_param {
    num_output: 384
    kernel_size: 3
    weight_filler {
      type: "gaussian"
      std: 0.01
    }
    bias_filler {
      type: "constant"
      value: 0
    }
  }
}
layer {
  name: "relu3_p"
  type: "ReLU"
  bottom: "conv3_p"
  top: "conv3_p"
}
layer {
  name: "conv4_p"
  type: "Convolution"
  bottom: "conv3_p"
  top: "conv4_p"
  param {
    lr_mult: 5
    decay_mult: 1
  }
  param {
    lr_mult: 10
    decay_mult: 0
  }
  convolution_param {
    num_output: 384
    kernel_size: 3
    group: 2
    weight_filler {
      type: "gaussian"
      std: 0.01
    }
    bias_filler {
      type: "constant"
      value: 1
    }
  }
}
layer {
  name: "relu4_p"
  type: "ReLU"
  bottom: "conv4_p"
  top: "conv4_p"
}
layer {
  name: "concat"
  type: "Concat"
  bottom: "conv4"
  bottom: "conv4_p"
  top: "conv4_concat"
  concat_param {
    axis: 1
  }
}
layer {
  name: "fc6-new"
  type: "InnerProduct"
  bottom: "conv4_concat"
  top: "fc6"
  param {
    lr_mult: 10
    decay_mult: 1
  }
  param {
    lr_mult: 20
    decay_mult: 0
  }
  inner_product_param {
    num_output: 4096
    weight_filler {
      type: "gaussian"
      std: 0.005
    }
    bias_filler {
      type: "constant"
      value: 1
    }
  }
}
layer {
  name: "relu6"
  type: "ReLU"
  bottom: "fc6"
  top: "fc6"
}
layer {
  name: "drop6"
  type: "Dropout"
  bottom: "fc6"
  top: "fc6"
  dropout_param {
    dropout_ratio: 0.5
  }
}
layer {
  name: "fc7-new"
  type: "InnerProduct"
  bottom: "fc6"
  top: "fc7"
  param {
    lr_mult: 10
    decay_mult: 1
  }
  param {
    lr_mult: 20
    decay_mult: 0
  }
  inner_product_param {
    num_output: 2048
    weight_filler {
      type: "gaussian"
      std: 0.005
    }
    bias_filler {
      type: "constant"
      value: 1
    }
  }
}
layer {
  name: "relu7"
  type: "ReLU"
  bottom: "fc7"
  top: "fc7"
}
layer {
  name: "drop7"
  type: "Dropout"
  bottom: "fc7"
  top: "fc7"
  dropout_param {
    dropout_ratio: 0.5
  }
}
layer {
  name: "fc7-newb"
  type: "InnerProduct"
  bottom: "fc7"
  top: "fc7b"
  param {
    lr_mult: 10
    decay_mult: 1
  }
  param {
    lr_mult: 20
    decay_mult: 0
  }
  inner_product_param {
    num_output: 1024
    weight_filler {
      type: "gaussian"
      std: 0.005
    }
    bias_filler {
      type: "constant"
      value: 1
    }
  }
}
layer {
  name: "relu7b"
  type: "ReLU"
  bottom: "fc7b"
  top: "fc7b"
}
layer {
  name: "drop7b"
  type: "Dropout"
  bottom: "fc7b"
  top: "fc7b"
  dropout_param {
    dropout_ratio: 0.5
  }
}
layer {
  name: "fc8-shapes"
  type: "InnerProduct"
  bottom: "fc7b"
  top: "fc8"
  param {
    lr_mult: 10
    decay_mult: 1
  }
  param {
    lr_mult: 20
    decay_mult: 0
  }
  inner_product_param {
    num_output: 4
    weight_filler {
      type: "gaussian"
      std: 0.01
    }
    bias_filler {
      type: "constant"
      value: 0
    }
  }
}
layer {
  name: "neg"
  type: "Power"
  bottom: "bbox"
  top: "bbox_neg"
  power_param {
    power: 1
    scale: -1
    shift: 0
  }
}
layer {
  name: "flatten"
  type: "Flatten"
  bottom: "bbox_neg"
  top: "bbox_neg_flat"
}
layer {
  name: "subtract"
  type: "Eltwise"
  bottom: "fc8"
  bottom: "bbox_neg_flat"
  top: "out_diff"
}
layer {
  name: "abssum"
  type: "Reduction"
  bottom: "out_diff"
  top: "loss"
  loss_weight: 1
  reduction_param {
    operation: ASUM
  }
}
I0905 18:08:00.613651  2469 layer_factory.hpp:77] Creating layer input
I0905 18:08:00.613713  2469 net.cpp:100] Creating Layer input
I0905 18:08:00.613724  2469 net.cpp:408] input -> target
I0905 18:08:00.619932  2469 net.cpp:408] input -> image
I0905 18:08:00.619977  2469 net.cpp:408] input -> bbox
I0905 18:08:00.647940  2469 net.cpp:150] Setting up input
I0905 18:08:00.647984  2469 net.cpp:157] Top shape: 1 3 227 227 (154587)
I0905 18:08:00.647992  2469 net.cpp:157] Top shape: 1 3 227 227 (154587)
I0905 18:08:00.647997  2469 net.cpp:157] Top shape: 1 4 1 1 (4)
I0905 18:08:00.648001  2469 net.cpp:165] Memory required for data: 1236712
I0905 18:08:00.648012  2469 layer_factory.hpp:77] Creating layer conv1
I0905 18:08:00.648037  2469 net.cpp:100] Creating Layer conv1
I0905 18:08:00.648046  2469 net.cpp:434] conv1 <- target
I0905 18:08:00.648061  2469 net.cpp:408] conv1 -> conv1
I0905 18:08:02.636425  2469 net.cpp:150] Setting up conv1
I0905 18:08:02.636461  2469 net.cpp:157] Top shape: 1 96 55 55 (290400)
I0905 18:08:02.636467  2469 net.cpp:165] Memory required for data: 2398312
I0905 18:08:02.636488  2469 layer_factory.hpp:77] Creating layer relu1
I0905 18:08:02.636500  2469 net.cpp:100] Creating Layer relu1
I0905 18:08:02.636507  2469 net.cpp:434] relu1 <- conv1
I0905 18:08:02.636512  2469 net.cpp:395] relu1 -> conv1 (in-place)
I0905 18:08:02.655730  2469 net.cpp:150] Setting up relu1
I0905 18:08:02.655762  2469 net.cpp:157] Top shape: 1 96 55 55 (290400)
I0905 18:08:02.655767  2469 net.cpp:165] Memory required for data: 3559912
I0905 18:08:02.655772  2469 layer_factory.hpp:77] Creating layer pool1
I0905 18:08:02.655786  2469 net.cpp:100] Creating Layer pool1
I0905 18:08:02.655791  2469 net.cpp:434] pool1 <- conv1
I0905 18:08:02.655799  2469 net.cpp:408] pool1 -> pool1
I0905 18:08:02.655863  2469 net.cpp:150] Setting up pool1
I0905 18:08:02.655871  2469 net.cpp:157] Top shape: 1 96 27 27 (69984)
I0905 18:08:02.655875  2469 net.cpp:165] Memory required for data: 3839848
I0905 18:08:02.655879  2469 layer_factory.hpp:77] Creating layer norm1
I0905 18:08:02.655890  2469 net.cpp:100] Creating Layer norm1
I0905 18:08:02.655894  2469 net.cpp:434] norm1 <- pool1
I0905 18:08:02.655900  2469 net.cpp:408] norm1 -> norm1
I0905 18:08:02.656239  2469 net.cpp:150] Setting up norm1
I0905 18:08:02.656263  2469 net.cpp:157] Top shape: 1 96 27 27 (69984)
I0905 18:08:02.656267  2469 net.cpp:165] Memory required for data: 4119784
I0905 18:08:02.656272  2469 layer_factory.hpp:77] Creating layer conv2
I0905 18:08:02.656288  2469 net.cpp:100] Creating Layer conv2
I0905 18:08:02.656293  2469 net.cpp:434] conv2 <- norm1
I0905 18:08:02.656301  2469 net.cpp:408] conv2 -> conv2
I0905 18:08:02.683375  2469 net.cpp:150] Setting up conv2
I0905 18:08:02.683408  2469 net.cpp:157] Top shape: 1 256 23 23 (135424)
I0905 18:08:02.683413  2469 net.cpp:165] Memory required for data: 4661480
I0905 18:08:02.683429  2469 layer_factory.hpp:77] Creating layer relu2
I0905 18:08:02.683440  2469 net.cpp:100] Creating Layer relu2
I0905 18:08:02.683446  2469 net.cpp:434] relu2 <- conv2
I0905 18:08:02.683454  2469 net.cpp:395] relu2 -> conv2 (in-place)
I0905 18:08:02.683650  2469 net.cpp:150] Setting up relu2
I0905 18:08:02.683665  2469 net.cpp:157] Top shape: 1 256 23 23 (135424)
I0905 18:08:02.683672  2469 net.cpp:165] Memory required for data: 5203176
I0905 18:08:02.683679  2469 layer_factory.hpp:77] Creating layer pool2
I0905 18:08:02.683691  2469 net.cpp:100] Creating Layer pool2
I0905 18:08:02.683697  2469 net.cpp:434] pool2 <- conv2
I0905 18:08:02.683709  2469 net.cpp:408] pool2 -> pool2
I0905 18:08:02.683763  2469 net.cpp:150] Setting up pool2
I0905 18:08:02.683770  2469 net.cpp:157] Top shape: 1 256 11 11 (30976)
I0905 18:08:02.683774  2469 net.cpp:165] Memory required for data: 5327080
I0905 18:08:02.683779  2469 layer_factory.hpp:77] Creating layer norm2
I0905 18:08:02.683789  2469 net.cpp:100] Creating Layer norm2
I0905 18:08:02.683792  2469 net.cpp:434] norm2 <- pool2
I0905 18:08:02.683805  2469 net.cpp:408] norm2 -> norm2
I0905 18:08:02.684146  2469 net.cpp:150] Setting up norm2
I0905 18:08:02.684160  2469 net.cpp:157] Top shape: 1 256 11 11 (30976)
I0905 18:08:02.684175  2469 net.cpp:165] Memory required for data: 5450984
I0905 18:08:02.684182  2469 layer_factory.hpp:77] Creating layer conv3
I0905 18:08:02.684197  2469 net.cpp:100] Creating Layer conv3
I0905 18:08:02.684203  2469 net.cpp:434] conv3 <- norm2
I0905 18:08:02.684211  2469 net.cpp:408] conv3 -> conv3
I0905 18:08:02.710115  2469 net.cpp:150] Setting up conv3
I0905 18:08:02.710197  2469 net.cpp:157] Top shape: 1 384 9 9 (31104)
I0905 18:08:02.710204  2469 net.cpp:165] Memory required for data: 5575400
I0905 18:08:02.710227  2469 layer_factory.hpp:77] Creating layer relu3
I0905 18:08:02.710242  2469 net.cpp:100] Creating Layer relu3
I0905 18:08:02.710252  2469 net.cpp:434] relu3 <- conv3
I0905 18:08:02.710261  2469 net.cpp:395] relu3 -> conv3 (in-place)
I0905 18:08:02.710546  2469 net.cpp:150] Setting up relu3
I0905 18:08:02.710577  2469 net.cpp:157] Top shape: 1 384 9 9 (31104)
I0905 18:08:02.710582  2469 net.cpp:165] Memory required for data: 5699816
I0905 18:08:02.710587  2469 layer_factory.hpp:77] Creating layer conv4
I0905 18:08:02.710618  2469 net.cpp:100] Creating Layer conv4
I0905 18:08:02.710623  2469 net.cpp:434] conv4 <- conv3
I0905 18:08:02.710631  2469 net.cpp:408] conv4 -> conv4
I0905 18:08:02.731106  2469 net.cpp:150] Setting up conv4
I0905 18:08:02.731181  2469 net.cpp:157] Top shape: 1 384 7 7 (18816)
I0905 18:08:02.731186  2469 net.cpp:165] Memory required for data: 5775080
I0905 18:08:02.731204  2469 layer_factory.hpp:77] Creating layer relu4
I0905 18:08:02.731220  2469 net.cpp:100] Creating Layer relu4
I0905 18:08:02.731227  2469 net.cpp:434] relu4 <- conv4
I0905 18:08:02.731238  2469 net.cpp:395] relu4 -> conv4 (in-place)
I0905 18:08:02.731407  2469 net.cpp:150] Setting up relu4
I0905 18:08:02.731426  2469 net.cpp:157] Top shape: 1 384 7 7 (18816)
I0905 18:08:02.731431  2469 net.cpp:165] Memory required for data: 5850344
I0905 18:08:02.731437  2469 layer_factory.hpp:77] Creating layer conv1_p
I0905 18:08:02.731456  2469 net.cpp:100] Creating Layer conv1_p
I0905 18:08:02.731462  2469 net.cpp:434] conv1_p <- image
I0905 18:08:02.731469  2469 net.cpp:408] conv1_p -> conv1_p
I0905 18:08:02.733562  2469 net.cpp:150] Setting up conv1_p
I0905 18:08:02.733613  2469 net.cpp:157] Top shape: 1 96 55 55 (290400)
I0905 18:08:02.733618  2469 net.cpp:165] Memory required for data: 7011944
I0905 18:08:02.733641  2469 layer_factory.hpp:77] Creating layer relu1_p
I0905 18:08:02.733659  2469 net.cpp:100] Creating Layer relu1_p
I0905 18:08:02.733669  2469 net.cpp:434] relu1_p <- conv1_p
I0905 18:08:02.733677  2469 net.cpp:395] relu1_p -> conv1_p (in-place)
I0905 18:08:02.733845  2469 net.cpp:150] Setting up relu1_p
I0905 18:08:02.733855  2469 net.cpp:157] Top shape: 1 96 55 55 (290400)
I0905 18:08:02.733860  2469 net.cpp:165] Memory required for data: 8173544
I0905 18:08:02.733863  2469 layer_factory.hpp:77] Creating layer pool1_p
I0905 18:08:02.733873  2469 net.cpp:100] Creating Layer pool1_p
I0905 18:08:02.733877  2469 net.cpp:434] pool1_p <- conv1_p
I0905 18:08:02.733883  2469 net.cpp:408] pool1_p -> pool1_p
I0905 18:08:02.733927  2469 net.cpp:150] Setting up pool1_p
I0905 18:08:02.733933  2469 net.cpp:157] Top shape: 1 96 27 27 (69984)
I0905 18:08:02.733937  2469 net.cpp:165] Memory required for data: 8453480
I0905 18:08:02.733940  2469 layer_factory.hpp:77] Creating layer norm1_p
I0905 18:08:02.733955  2469 net.cpp:100] Creating Layer norm1_p
I0905 18:08:02.733959  2469 net.cpp:434] norm1_p <- pool1_p
I0905 18:08:02.733964  2469 net.cpp:408] norm1_p -> norm1_p
I0905 18:08:02.734324  2469 net.cpp:150] Setting up norm1_p
I0905 18:08:02.734335  2469 net.cpp:157] Top shape: 1 96 27 27 (69984)
I0905 18:08:02.734339  2469 net.cpp:165] Memory required for data: 8733416
I0905 18:08:02.734344  2469 layer_factory.hpp:77] Creating layer conv2_p
I0905 18:08:02.734354  2469 net.cpp:100] Creating Layer conv2_p
I0905 18:08:02.734364  2469 net.cpp:434] conv2_p <- norm1_p
I0905 18:08:02.734371  2469 net.cpp:408] conv2_p -> conv2_p
I0905 18:08:02.744649  2469 net.cpp:150] Setting up conv2_p
I0905 18:08:02.744709  2469 net.cpp:157] Top shape: 1 256 23 23 (135424)
I0905 18:08:02.744714  2469 net.cpp:165] Memory required for data: 9275112
I0905 18:08:02.744726  2469 layer_factory.hpp:77] Creating layer relu2_p
I0905 18:08:02.744742  2469 net.cpp:100] Creating Layer relu2_p
I0905 18:08:02.744752  2469 net.cpp:434] relu2_p <- conv2_p
I0905 18:08:02.744765  2469 net.cpp:395] relu2_p -> conv2_p (in-place)
I0905 18:08:02.744922  2469 net.cpp:150] Setting up relu2_p
I0905 18:08:02.744936  2469 net.cpp:157] Top shape: 1 256 23 23 (135424)
I0905 18:08:02.744940  2469 net.cpp:165] Memory required for data: 9816808
I0905 18:08:02.744945  2469 layer_factory.hpp:77] Creating layer pool2_p
I0905 18:08:02.744953  2469 net.cpp:100] Creating Layer pool2_p
I0905 18:08:02.744957  2469 net.cpp:434] pool2_p <- conv2_p
I0905 18:08:02.744963  2469 net.cpp:408] pool2_p -> pool2_p
I0905 18:08:02.745005  2469 net.cpp:150] Setting up pool2_p
I0905 18:08:02.745012  2469 net.cpp:157] Top shape: 1 256 11 11 (30976)
I0905 18:08:02.745017  2469 net.cpp:165] Memory required for data: 9940712
I0905 18:08:02.745019  2469 layer_factory.hpp:77] Creating layer norm2_p
I0905 18:08:02.745031  2469 net.cpp:100] Creating Layer norm2_p
I0905 18:08:02.745035  2469 net.cpp:434] norm2_p <- pool2_p
I0905 18:08:02.745041  2469 net.cpp:408] norm2_p -> norm2_p
I0905 18:08:02.745302  2469 net.cpp:150] Setting up norm2_p
I0905 18:08:02.745318  2469 net.cpp:157] Top shape: 1 256 11 11 (30976)
I0905 18:08:02.745322  2469 net.cpp:165] Memory required for data: 10064616
I0905 18:08:02.745327  2469 layer_factory.hpp:77] Creating layer conv3_p
I0905 18:08:02.745342  2469 net.cpp:100] Creating Layer conv3_p
I0905 18:08:02.745347  2469 net.cpp:434] conv3_p <- norm2_p
I0905 18:08:02.745354  2469 net.cpp:408] conv3_p -> conv3_p
I0905 18:08:02.771185  2469 net.cpp:150] Setting up conv3_p
I0905 18:08:02.771219  2469 net.cpp:157] Top shape: 1 384 9 9 (31104)
I0905 18:08:02.771224  2469 net.cpp:165] Memory required for data: 10189032
I0905 18:08:02.771232  2469 layer_factory.hpp:77] Creating layer relu3_p
I0905 18:08:02.771241  2469 net.cpp:100] Creating Layer relu3_p
I0905 18:08:02.771247  2469 net.cpp:434] relu3_p <- conv3_p
I0905 18:08:02.771255  2469 net.cpp:395] relu3_p -> conv3_p (in-place)
I0905 18:08:02.771474  2469 net.cpp:150] Setting up relu3_p
I0905 18:08:02.771486  2469 net.cpp:157] Top shape: 1 384 9 9 (31104)
I0905 18:08:02.771489  2469 net.cpp:165] Memory required for data: 10313448
I0905 18:08:02.771493  2469 layer_factory.hpp:77] Creating layer conv4_p
I0905 18:08:02.771504  2469 net.cpp:100] Creating Layer conv4_p
I0905 18:08:02.771508  2469 net.cpp:434] conv4_p <- conv3_p
I0905 18:08:02.771515  2469 net.cpp:408] conv4_p -> conv4_p
I0905 18:08:02.791147  2469 net.cpp:150] Setting up conv4_p
I0905 18:08:02.791179  2469 net.cpp:157] Top shape: 1 384 7 7 (18816)
I0905 18:08:02.791184  2469 net.cpp:165] Memory required for data: 10388712
I0905 18:08:02.791195  2469 layer_factory.hpp:77] Creating layer relu4_p
I0905 18:08:02.791205  2469 net.cpp:100] Creating Layer relu4_p
I0905 18:08:02.791211  2469 net.cpp:434] relu4_p <- conv4_p
I0905 18:08:02.791220  2469 net.cpp:395] relu4_p -> conv4_p (in-place)
I0905 18:08:02.791355  2469 net.cpp:150] Setting up relu4_p
I0905 18:08:02.791365  2469 net.cpp:157] Top shape: 1 384 7 7 (18816)
I0905 18:08:02.791369  2469 net.cpp:165] Memory required for data: 10463976
I0905 18:08:02.791373  2469 layer_factory.hpp:77] Creating layer concat
I0905 18:08:02.791386  2469 net.cpp:100] Creating Layer concat
I0905 18:08:02.791390  2469 net.cpp:434] concat <- conv4
I0905 18:08:02.791394  2469 net.cpp:434] concat <- conv4_p
I0905 18:08:02.791399  2469 net.cpp:408] concat -> conv4_concat
I0905 18:08:02.791429  2469 net.cpp:150] Setting up concat
I0905 18:08:02.791435  2469 net.cpp:157] Top shape: 1 768 7 7 (37632)
I0905 18:08:02.791437  2469 net.cpp:165] Memory required for data: 10614504
I0905 18:08:02.791447  2469 layer_factory.hpp:77] Creating layer fc6-new
I0905 18:08:02.791456  2469 net.cpp:100] Creating Layer fc6-new
I0905 18:08:02.791466  2469 net.cpp:434] fc6-new <- conv4_concat
I0905 18:08:02.791472  2469 net.cpp:408] fc6-new -> fc6
I0905 18:08:07.032536  2469 net.cpp:150] Setting up fc6-new
I0905 18:08:07.032569  2469 net.cpp:157] Top shape: 1 4096 (4096)
I0905 18:08:07.032574  2469 net.cpp:165] Memory required for data: 10630888
I0905 18:08:07.032590  2469 layer_factory.hpp:77] Creating layer relu6
I0905 18:08:07.032600  2469 net.cpp:100] Creating Layer relu6
I0905 18:08:07.032605  2469 net.cpp:434] relu6 <- fc6
I0905 18:08:07.032611  2469 net.cpp:395] relu6 -> fc6 (in-place)
I0905 18:08:07.032934  2469 net.cpp:150] Setting up relu6
I0905 18:08:07.032946  2469 net.cpp:157] Top shape: 1 4096 (4096)
I0905 18:08:07.032951  2469 net.cpp:165] Memory required for data: 10647272
I0905 18:08:07.032955  2469 layer_factory.hpp:77] Creating layer drop6
I0905 18:08:07.032963  2469 net.cpp:100] Creating Layer drop6
I0905 18:08:07.032965  2469 net.cpp:434] drop6 <- fc6
I0905 18:08:07.032970  2469 net.cpp:395] drop6 -> fc6 (in-place)
I0905 18:08:07.032996  2469 net.cpp:150] Setting up drop6
I0905 18:08:07.033002  2469 net.cpp:157] Top shape: 1 4096 (4096)
I0905 18:08:07.033005  2469 net.cpp:165] Memory required for data: 10663656
I0905 18:08:07.033010  2469 layer_factory.hpp:77] Creating layer fc7-new
I0905 18:08:07.033017  2469 net.cpp:100] Creating Layer fc7-new
I0905 18:08:07.033020  2469 net.cpp:434] fc7-new <- fc6
I0905 18:08:07.033025  2469 net.cpp:408] fc7-new -> fc7
I0905 18:08:07.263906  2469 net.cpp:150] Setting up fc7-new
I0905 18:08:07.263988  2469 net.cpp:157] Top shape: 1 2048 (2048)
I0905 18:08:07.263996  2469 net.cpp:165] Memory required for data: 10671848
I0905 18:08:07.264016  2469 layer_factory.hpp:77] Creating layer relu7
I0905 18:08:07.264040  2469 net.cpp:100] Creating Layer relu7
I0905 18:08:07.264050  2469 net.cpp:434] relu7 <- fc7
I0905 18:08:07.264062  2469 net.cpp:395] relu7 -> fc7 (in-place)
I0905 18:08:07.264389  2469 net.cpp:150] Setting up relu7
I0905 18:08:07.264415  2469 net.cpp:157] Top shape: 1 2048 (2048)
I0905 18:08:07.264420  2469 net.cpp:165] Memory required for data: 10680040
I0905 18:08:07.264425  2469 layer_factory.hpp:77] Creating layer drop7
I0905 18:08:07.264433  2469 net.cpp:100] Creating Layer drop7
I0905 18:08:07.264437  2469 net.cpp:434] drop7 <- fc7
I0905 18:08:07.264443  2469 net.cpp:395] drop7 -> fc7 (in-place)
I0905 18:08:07.264479  2469 net.cpp:150] Setting up drop7
I0905 18:08:07.264485  2469 net.cpp:157] Top shape: 1 2048 (2048)
I0905 18:08:07.264488  2469 net.cpp:165] Memory required for data: 10688232
I0905 18:08:07.264492  2469 layer_factory.hpp:77] Creating layer fc7-newb
I0905 18:08:07.264514  2469 net.cpp:100] Creating Layer fc7-newb
I0905 18:08:07.264518  2469 net.cpp:434] fc7-newb <- fc7
I0905 18:08:07.264525  2469 net.cpp:408] fc7-newb -> fc7b
I0905 18:08:07.321482  2469 net.cpp:150] Setting up fc7-newb
I0905 18:08:07.321534  2469 net.cpp:157] Top shape: 1 1024 (1024)
I0905 18:08:07.321547  2469 net.cpp:165] Memory required for data: 10692328
I0905 18:08:07.321563  2469 layer_factory.hpp:77] Creating layer relu7b
I0905 18:08:07.321580  2469 net.cpp:100] Creating Layer relu7b
I0905 18:08:07.321593  2469 net.cpp:434] relu7b <- fc7b
I0905 18:08:07.321606  2469 net.cpp:395] relu7b -> fc7b (in-place)
I0905 18:08:07.322108  2469 net.cpp:150] Setting up relu7b
I0905 18:08:07.322129  2469 net.cpp:157] Top shape: 1 1024 (1024)
I0905 18:08:07.322135  2469 net.cpp:165] Memory required for data: 10696424
I0905 18:08:07.322142  2469 layer_factory.hpp:77] Creating layer drop7b
I0905 18:08:07.322152  2469 net.cpp:100] Creating Layer drop7b
I0905 18:08:07.322160  2469 net.cpp:434] drop7b <- fc7b
I0905 18:08:07.322170  2469 net.cpp:395] drop7b -> fc7b (in-place)
I0905 18:08:07.322213  2469 net.cpp:150] Setting up drop7b
I0905 18:08:07.322222  2469 net.cpp:157] Top shape: 1 1024 (1024)
I0905 18:08:07.322227  2469 net.cpp:165] Memory required for data: 10700520
I0905 18:08:07.322247  2469 layer_factory.hpp:77] Creating layer fc8-shapes
I0905 18:08:07.322259  2469 net.cpp:100] Creating Layer fc8-shapes
I0905 18:08:07.322274  2469 net.cpp:434] fc8-shapes <- fc7b
I0905 18:08:07.322286  2469 net.cpp:408] fc8-shapes -> fc8
I0905 18:08:07.322537  2469 net.cpp:150] Setting up fc8-shapes
I0905 18:08:07.322548  2469 net.cpp:157] Top shape: 1 4 (4)
I0905 18:08:07.322552  2469 net.cpp:165] Memory required for data: 10700536
I0905 18:08:07.322559  2469 layer_factory.hpp:77] Creating layer neg
I0905 18:08:07.322566  2469 net.cpp:100] Creating Layer neg
I0905 18:08:07.322571  2469 net.cpp:434] neg <- bbox
I0905 18:08:07.322576  2469 net.cpp:408] neg -> bbox_neg
I0905 18:08:07.322604  2469 net.cpp:150] Setting up neg
I0905 18:08:07.322610  2469 net.cpp:157] Top shape: 1 4 1 1 (4)
I0905 18:08:07.322614  2469 net.cpp:165] Memory required for data: 10700552
I0905 18:08:07.322618  2469 layer_factory.hpp:77] Creating layer flatten
I0905 18:08:07.322623  2469 net.cpp:100] Creating Layer flatten
I0905 18:08:07.322626  2469 net.cpp:434] flatten <- bbox_neg
I0905 18:08:07.322631  2469 net.cpp:408] flatten -> bbox_neg_flat
I0905 18:08:07.322651  2469 net.cpp:150] Setting up flatten
I0905 18:08:07.322656  2469 net.cpp:157] Top shape: 1 4 (4)
I0905 18:08:07.322660  2469 net.cpp:165] Memory required for data: 10700568
I0905 18:08:07.322664  2469 layer_factory.hpp:77] Creating layer subtract
I0905 18:08:07.322669  2469 net.cpp:100] Creating Layer subtract
I0905 18:08:07.322674  2469 net.cpp:434] subtract <- fc8
I0905 18:08:07.322677  2469 net.cpp:434] subtract <- bbox_neg_flat
I0905 18:08:07.322684  2469 net.cpp:408] subtract -> out_diff
I0905 18:08:07.322702  2469 net.cpp:150] Setting up subtract
I0905 18:08:07.322707  2469 net.cpp:157] Top shape: 1 4 (4)
I0905 18:08:07.322710  2469 net.cpp:165] Memory required for data: 10700584
I0905 18:08:07.322715  2469 layer_factory.hpp:77] Creating layer abssum
I0905 18:08:07.322720  2469 net.cpp:100] Creating Layer abssum
I0905 18:08:07.322723  2469 net.cpp:434] abssum <- out_diff
I0905 18:08:07.322731  2469 net.cpp:408] abssum -> loss
I0905 18:08:07.322751  2469 net.cpp:150] Setting up abssum
I0905 18:08:07.322757  2469 net.cpp:157] Top shape: (1)
…
