…
W0920 20:34:44.142501 28730 upgrade_proto.cpp:72] Note that future Caffe releases will only support input layers and not input fields.
I0920 20:34:44.142844 28730 net.cpp:58] Initializing net from parameters: 
name: "CaffeNet"
state {
  phase: TRAIN
  level: 0
}
layer {
  name: "input"
  type: "Input"
  top: "target"
  top: "image"
  top: "bbox"
  input_param {
    shape {
      dim: 1
      dim: 3
      dim: 227
      dim: 227
    }
    shape {
      dim: 1
      dim: 3
      dim: 227
      dim: 227
    }
    shape {
      dim: 1
      dim: 4
      dim: 1
      dim: 1
    }
  }
}
layer {
  name: "conv1"
  type: "Convolution"
  bottom: "target"
  top: "conv1"
  param {
    lr_mult: 0
    decay_mult: 1
  }
  param {
    lr_mult: 0
    decay_mult: 0
  }
  convolution_param {
    num_output: 96
    kernel_size: 11
    stride: 4
    weight_filler {
      type: "gaussian"
      std: 0.01
    }
    bias_filler {
      type: "constant"
      value: 0
    }
  }
}
layer {
  name: "relu1"
  type: "ReLU"
  bottom: "conv1"
  top: "conv1"
}
layer {
  name: "pool1"
  type: "Pooling"
  bottom: "conv1"
  top: "pool1"
  pooling_param {
    pool: MAX
    kernel_size: 3
    stride: 2
  }
}
layer {
  name: "norm1"
  type: "LRN"
  bottom: "pool1"
  top: "norm1"
  lrn_param {
    local_size: 5
    alpha: 0.0001
    beta: 0.75
  }
}
layer {
  name: "conv2"
  type: "Convolution"
  bottom: "norm1"
  top: "conv2"
  param {
    lr_mult: 0
    decay_mult: 1
  }
  param {
    lr_mult: 0
    decay_mult: 0
  }
  convolution_param {
    num_output: 256
    kernel_size: 5
    group: 2
    weight_filler {
      type: "gaussian"
      std: 0.01
    }
    bias_filler {
      type: "constant"
      value: 1
    }
  }
}
layer {
  name: "relu2"
  type: "ReLU"
  bottom: "conv2"
  top: "conv2"
}
layer {
  name: "pool2"
  type: "Pooling"
  bottom: "conv2"
  top: "pool2"
  pooling_param {
    pool: MAX
    kernel_size: 3
    stride: 2
  }
}
layer {
  name: "norm2"
  type: "LRN"
  bottom: "pool2"
  top: "norm2"
  lrn_param {
    local_size: 5
    alpha: 0.0001
    beta: 0.75
  }
}
layer {
  name: "conv3"
  type: "Convolution"
  bottom: "norm2"
  top: "conv3"
  param {
    lr_mult: 0
    decay_mult: 1
  }
  param {
    lr_mult: 0
    decay_mult: 0
  }
  convolution_param {
    num_output: 384
    kernel_size: 3
    weight_filler {
      type: "gaussian"
      std: 0.01
    }
    bias_filler {
      type: "constant"
      value: 0
    }
  }
}
layer {
  name: "relu3"
  type: "ReLU"
  bottom: "conv3"
  top: "conv3"
}
layer {
  name: "conv4"
  type: "Convolution"
  bottom: "conv3"
  top: "conv4"
  param {
    lr_mult: 0
    decay_mult: 1
  }
  param {
    lr_mult: 0
    decay_mult: 0
  }
  convolution_param {
    num_output: 384
    kernel_size: 3
    group: 2
    weight_filler {
      type: "gaussian"
      std: 0.01
    }
    bias_filler {
      type: "constant"
      value: 1
    }
  }
}
layer {
  name: "relu4"
  type: "ReLU"
  bottom: "conv4"
  top: "conv4"
}
layer {
  name: "conv1_p"
  type: "Convolution"
  bottom: "image"
  top: "conv1_p"
  param {
    lr_mult: 10
    decay_mult: 1
  }
  param {
    lr_mult: 20
    decay_mult: 0
  }
  convolution_param {
    num_output: 96
    kernel_size: 11
    stride: 4
    weight_filler {
      type: "gaussian"
      std: 0.01
    }
    bias_filler {
      type: "constant"
      value: 0
    }
  }
}
layer {
  name: "relu1_p"
  type: "ReLU"
  bottom: "conv1_p"
  top: "conv1_p"
}
layer {
  name: "pool1_p"
  type: "Pooling"
  bottom: "conv1_p"
  top: "pool1_p"
  pooling_param {
    pool: MAX
    kernel_size: 3
    stride: 2
  }
}
layer {
  name: "norm1_p"
  type: "LRN"
  bottom: "pool1_p"
  top: "norm1_p"
  lrn_param {
    local_size: 5
    alpha: 0.0001
    beta: 0.75
  }
}
layer {
  name: "conv2_p"
  type: "Convolution"
  bottom: "norm1_p"
  top: "conv2_p"
  param {
    lr_mult: 10
    decay_mult: 1
  }
  param {
    lr_mult: 20
    decay_mult: 0
  }
  convolution_param {
    num_output: 256
    kernel_size: 5
    group: 2
    weight_filler {
      type: "gaussian"
      std: 0.01
    }
    bias_filler {
      type: "constant"
      value: 1
    }
  }
}
layer {
  name: "relu2_p"
  type: "ReLU"
  bottom: "conv2_p"
  top: "conv2_p"
}
layer {
  name: "pool2_p"
  type: "Pooling"
  bottom: "conv2_p"
  top: "pool2_p"
  pooling_param {
    pool: MAX
    kernel_size: 3
    stride: 2
  }
}
layer {
  name: "norm2_p"
  type: "LRN"
  bottom: "pool2_p"
  top: "norm2_p"
  lrn_param {
    local_size: 5
    alpha: 0.0001
    beta: 0.75
  }
}
layer {
  name: "conv3_p"
  type: "Convolution"
  bottom: "norm2_p"
  top: "conv3_p"
  param {
    lr_mult: 10
    decay_mult: 1
  }
  param {
    lr_mult: 20
    decay_mult: 0
  }
  convolution_param {
    num_output: 384
    kernel_size: 3
    weight_filler {
      type: "gaussian"
      std: 0.01
    }
    bias_filler {
      type: "constant"
      value: 0
    }
  }
}
layer {
  name: "relu3_p"
  type: "ReLU"
  bottom: "conv3_p"
  top: "conv3_p"
}
layer {
  name: "conv4_p"
  type: "Convolution"
  bottom: "conv3_p"
  top: "conv4_p"
  param {
    lr_mult: 10
    decay_mult: 1
  }
  param {
    lr_mult: 20
    decay_mult: 0
  }
  convolution_param {
    num_output: 384
    kernel_size: 3
    group: 2
    weight_filler {
      type: "gaussian"
      std: 0.01
    }
    bias_filler {
      type: "constant"
      value: 1
    }
  }
}
layer {
  name: "relu4_p"
  type: "ReLU"
  bottom: "conv4_p"
  top: "conv4_p"
}
layer {
  name: "concat"
  type: "Concat"
  bottom: "conv4"
  bottom: "conv4_p"
  top: "conv4_concat"
  concat_param {
    axis: 1
  }
}
layer {
  name: "fc6-new"
  type: "InnerProduct"
  bottom: "conv4_concat"
  top: "fc6"
  param {
    lr_mult: 10
    decay_mult: 1
  }
  param {
    lr_mult: 20
    decay_mult: 0
  }
  inner_product_param {
    num_output: 4096
    weight_filler {
      type: "gaussian"
      std: 0.005
    }
    bias_filler {
      type: "constant"
      value: 1
    }
  }
}
layer {
  name: "relu6"
  type: "ReLU"
  bottom: "fc6"
  top: "fc6"
}
layer {
  name: "drop6"
  type: "Dropout"
  bottom: "fc6"
  top: "fc6"
  dropout_param {
    dropout_ratio: 0.5
  }
}
layer {
  name: "fc7-new"
  type: "InnerProduct"
  bottom: "fc6"
  top: "fc7"
  param {
    lr_mult: 10
    decay_mult: 1
  }
  param {
    lr_mult: 20
    decay_mult: 0
  }
  inner_product_param {
    num_output: 2048
    weight_filler {
      type: "gaussian"
      std: 0.005
    }
    bias_filler {
      type: "constant"
      value: 1
    }
  }
}
layer {
  name: "relu7"
  type: "ReLU"
  bottom: "fc7"
  top: "fc7"
}
layer {
  name: "drop7"
  type: "Dropout"
  bottom: "fc7"
  top: "fc7"
  dropout_param {
    dropout_ratio: 0.5
  }
}
layer {
  name: "fc7-newb"
  type: "InnerProduct"
  bottom: "fc7"
  top: "fc7b"
  param {
    lr_mult: 10
    decay_mult: 1
  }
  param {
    lr_mult: 20
    decay_mult: 0
  }
  inner_product_param {
    num_output: 1024
    weight_filler {
      type: "gaussian"
      std: 0.005
    }
    bias_filler {
      type: "constant"
      value: 1
    }
  }
}
layer {
  name: "relu7b"
  type: "ReLU"
  bottom: "fc7b"
  top: "fc7b"
}
layer {
  name: "drop7b"
  type: "Dropout"
  bottom: "fc7b"
  top: "fc7b"
  dropout_param {
    dropout_ratio: 0.5
  }
}
layer {
  name: "fc8-shapes"
  type: "InnerProduct"
  bottom: "fc7b"
  top: "fc8"
  param {
    lr_mult: 10
    decay_mult: 1
  }
  param {
    lr_mult: 20
    decay_mult: 0
  }
  inner_product_param {
    num_output: 4
    weight_filler {
      type: "gaussian"
      std: 0.01
    }
    bias_filler {
      type: "constant"
      value: 0
    }
  }
}
layer {
  name: "neg"
  type: "Power"
  bottom: "bbox"
  top: "bbox_neg"
  power_param {
    power: 1
    scale: -1
    shift: 0
  }
}
layer {
  name: "flatten"
  type: "Flatten"
  bottom: "bbox_neg"
  top: "bbox_neg_flat"
}
layer {
  name: "subtract"
  type: "Eltwise"
  bottom: "fc8"
  bottom: "bbox_neg_flat"
  top: "out_diff"
}
layer {
  name: "abssum"
  type: "Reduction"
  bottom: "out_diff"
  top: "loss"
  loss_weight: 1
  reduction_param {
    operation: ASUM
  }
}
I0920 20:34:44.142966 28730 layer_factory.hpp:77] Creating layer input
I0920 20:34:44.142988 28730 net.cpp:100] Creating Layer input
I0920 20:34:44.142994 28730 net.cpp:408] input -> target
I0920 20:34:44.143036 28730 net.cpp:408] input -> image
I0920 20:34:44.143059 28730 net.cpp:408] input -> bbox
I0920 20:34:44.210964 28730 net.cpp:150] Setting up input
I0920 20:34:44.211011 28730 net.cpp:157] Top shape: 1 3 227 227 (154587)
I0920 20:34:44.211036 28730 net.cpp:157] Top shape: 1 3 227 227 (154587)
I0920 20:34:44.211048 28730 net.cpp:157] Top shape: 1 4 1 1 (4)
I0920 20:34:44.211064 28730 net.cpp:165] Memory required for data: 1236712
I0920 20:34:44.211087 28730 layer_factory.hpp:77] Creating layer conv1
I0920 20:34:44.211128 28730 net.cpp:100] Creating Layer conv1
I0920 20:34:44.211138 28730 net.cpp:434] conv1 <- target
I0920 20:34:44.211153 28730 net.cpp:408] conv1 -> conv1
I0920 20:34:46.201892 28730 net.cpp:150] Setting up conv1
I0920 20:34:46.201928 28730 net.cpp:157] Top shape: 1 96 55 55 (290400)
I0920 20:34:46.201932 28730 net.cpp:165] Memory required for data: 2398312
I0920 20:34:46.201953 28730 layer_factory.hpp:77] Creating layer relu1
I0920 20:34:46.201967 28730 net.cpp:100] Creating Layer relu1
I0920 20:34:46.201972 28730 net.cpp:434] relu1 <- conv1
I0920 20:34:46.201977 28730 net.cpp:395] relu1 -> conv1 (in-place)
I0920 20:34:46.202194 28730 net.cpp:150] Setting up relu1
I0920 20:34:46.202204 28730 net.cpp:157] Top shape: 1 96 55 55 (290400)
I0920 20:34:46.202208 28730 net.cpp:165] Memory required for data: 3559912
I0920 20:34:46.202211 28730 layer_factory.hpp:77] Creating layer pool1
I0920 20:34:46.202219 28730 net.cpp:100] Creating Layer pool1
I0920 20:34:46.202224 28730 net.cpp:434] pool1 <- conv1
I0920 20:34:46.202229 28730 net.cpp:408] pool1 -> pool1
I0920 20:34:46.202266 28730 net.cpp:150] Setting up pool1
I0920 20:34:46.202273 28730 net.cpp:157] Top shape: 1 96 27 27 (69984)
I0920 20:34:46.202276 28730 net.cpp:165] Memory required for data: 3839848
I0920 20:34:46.202280 28730 layer_factory.hpp:77] Creating layer norm1
I0920 20:34:46.202289 28730 net.cpp:100] Creating Layer norm1
I0920 20:34:46.202293 28730 net.cpp:434] norm1 <- pool1
I0920 20:34:46.202297 28730 net.cpp:408] norm1 -> norm1
I0920 20:34:46.202431 28730 net.cpp:150] Setting up norm1
I0920 20:34:46.202440 28730 net.cpp:157] Top shape: 1 96 27 27 (69984)
I0920 20:34:46.202442 28730 net.cpp:165] Memory required for data: 4119784
I0920 20:34:46.202445 28730 layer_factory.hpp:77] Creating layer conv2
I0920 20:34:46.202455 28730 net.cpp:100] Creating Layer conv2
I0920 20:34:46.202458 28730 net.cpp:434] conv2 <- norm1
I0920 20:34:46.202464 28730 net.cpp:408] conv2 -> conv2
I0920 20:34:46.213654 28730 net.cpp:150] Setting up conv2
I0920 20:34:46.213721 28730 net.cpp:157] Top shape: 1 256 23 23 (135424)
I0920 20:34:46.213729 28730 net.cpp:165] Memory required for data: 4661480
I0920 20:34:46.213754 28730 layer_factory.hpp:77] Creating layer relu2
I0920 20:34:46.213774 28730 net.cpp:100] Creating Layer relu2
I0920 20:34:46.213785 28730 net.cpp:434] relu2 <- conv2
I0920 20:34:46.213798 28730 net.cpp:395] relu2 -> conv2 (in-place)
I0920 20:34:46.214231 28730 net.cpp:150] Setting up relu2
I0920 20:34:46.214246 28730 net.cpp:157] Top shape: 1 256 23 23 (135424)
I0920 20:34:46.214252 28730 net.cpp:165] Memory required for data: 5203176
I0920 20:34:46.214258 28730 layer_factory.hpp:77] Creating layer pool2
I0920 20:34:46.214272 28730 net.cpp:100] Creating Layer pool2
I0920 20:34:46.214278 28730 net.cpp:434] pool2 <- conv2
I0920 20:34:46.214287 28730 net.cpp:408] pool2 -> pool2
I0920 20:34:46.214354 28730 net.cpp:150] Setting up pool2
I0920 20:34:46.214364 28730 net.cpp:157] Top shape: 1 256 11 11 (30976)
I0920 20:34:46.214367 28730 net.cpp:165] Memory required for data: 5327080
I0920 20:34:46.214371 28730 layer_factory.hpp:77] Creating layer norm2
I0920 20:34:46.214385 28730 net.cpp:100] Creating Layer norm2
I0920 20:34:46.214390 28730 net.cpp:434] norm2 <- pool2
I0920 20:34:46.214417 28730 net.cpp:408] norm2 -> norm2
I0920 20:34:46.215517 28730 net.cpp:150] Setting up norm2
I0920 20:34:46.215549 28730 net.cpp:157] Top shape: 1 256 11 11 (30976)
I0920 20:34:46.215571 28730 net.cpp:165] Memory required for data: 5450984
I0920 20:34:46.215580 28730 layer_factory.hpp:77] Creating layer conv3
I0920 20:34:46.215595 28730 net.cpp:100] Creating Layer conv3
I0920 20:34:46.215600 28730 net.cpp:434] conv3 <- norm2
I0920 20:34:46.215618 28730 net.cpp:408] conv3 -> conv3
I0920 20:34:46.241204 28730 net.cpp:150] Setting up conv3
I0920 20:34:46.241237 28730 net.cpp:157] Top shape: 1 384 9 9 (31104)
I0920 20:34:46.241242 28730 net.cpp:165] Memory required for data: 5575400
I0920 20:34:46.241256 28730 layer_factory.hpp:77] Creating layer relu3
I0920 20:34:46.241266 28730 net.cpp:100] Creating Layer relu3
I0920 20:34:46.241272 28730 net.cpp:434] relu3 <- conv3
I0920 20:34:46.241278 28730 net.cpp:395] relu3 -> conv3 (in-place)
I0920 20:34:46.242148 28730 net.cpp:150] Setting up relu3
I0920 20:34:46.242156 28730 net.cpp:157] Top shape: 1 384 9 9 (31104)
I0920 20:34:46.242159 28730 net.cpp:165] Memory required for data: 5699816
I0920 20:34:46.242163 28730 layer_factory.hpp:77] Creating layer conv4
I0920 20:34:46.242172 28730 net.cpp:100] Creating Layer conv4
I0920 20:34:46.242177 28730 net.cpp:434] conv4 <- conv3
I0920 20:34:46.242182 28730 net.cpp:408] conv4 -> conv4
I0920 20:34:46.265370 28730 net.cpp:150] Setting up conv4
I0920 20:34:46.265413 28730 net.cpp:157] Top shape: 1 384 7 7 (18816)
I0920 20:34:46.265421 28730 net.cpp:165] Memory required for data: 5775080
I0920 20:34:46.265435 28730 layer_factory.hpp:77] Creating layer relu4
I0920 20:34:46.265455 28730 net.cpp:100] Creating Layer relu4
I0920 20:34:46.265463 28730 net.cpp:434] relu4 <- conv4
I0920 20:34:46.265476 28730 net.cpp:395] relu4 -> conv4 (in-place)
I0920 20:34:46.266486 28730 net.cpp:150] Setting up relu4
I0920 20:34:46.266496 28730 net.cpp:157] Top shape: 1 384 7 7 (18816)
I0920 20:34:46.266500 28730 net.cpp:165] Memory required for data: 5850344
I0920 20:34:46.266505 28730 layer_factory.hpp:77] Creating layer conv1_p
I0920 20:34:46.266518 28730 net.cpp:100] Creating Layer conv1_p
I0920 20:34:46.266522 28730 net.cpp:434] conv1_p <- image
I0920 20:34:46.266530 28730 net.cpp:408] conv1_p -> conv1_p
I0920 20:34:46.270982 28730 net.cpp:150] Setting up conv1_p
I0920 20:34:46.271008 28730 net.cpp:157] Top shape: 1 96 55 55 (290400)
I0920 20:34:46.271013 28730 net.cpp:165] Memory required for data: 7011944
I0920 20:34:46.271046 28730 layer_factory.hpp:77] Creating layer relu1_p
I0920 20:34:46.271059 28730 net.cpp:100] Creating Layer relu1_p
I0920 20:34:46.271076 28730 net.cpp:434] relu1_p <- conv1_p
I0920 20:34:46.271085 28730 net.cpp:395] relu1_p -> conv1_p (in-place)
I0920 20:34:46.272106 28730 net.cpp:150] Setting up relu1_p
I0920 20:34:46.272122 28730 net.cpp:157] Top shape: 1 96 55 55 (290400)
I0920 20:34:46.272140 28730 net.cpp:165] Memory required for data: 8173544
I0920 20:34:46.272147 28730 layer_factory.hpp:77] Creating layer pool1_p
I0920 20:34:46.272158 28730 net.cpp:100] Creating Layer pool1_p
I0920 20:34:46.272166 28730 net.cpp:434] pool1_p <- conv1_p
I0920 20:34:46.272186 28730 net.cpp:408] pool1_p -> pool1_p
I0920 20:34:46.272240 28730 net.cpp:150] Setting up pool1_p
I0920 20:34:46.272249 28730 net.cpp:157] Top shape: 1 96 27 27 (69984)
I0920 20:34:46.272254 28730 net.cpp:165] Memory required for data: 8453480
I0920 20:34:46.272259 28730 layer_factory.hpp:77] Creating layer norm1_p
I0920 20:34:46.272272 28730 net.cpp:100] Creating Layer norm1_p
I0920 20:34:46.272277 28730 net.cpp:434] norm1_p <- pool1_p
I0920 20:34:46.272286 28730 net.cpp:408] norm1_p -> norm1_p
I0920 20:34:46.273445 28730 net.cpp:150] Setting up norm1_p
I0920 20:34:46.273457 28730 net.cpp:157] Top shape: 1 96 27 27 (69984)
I0920 20:34:46.273463 28730 net.cpp:165] Memory required for data: 8733416
I0920 20:34:46.273468 28730 layer_factory.hpp:77] Creating layer conv2_p
I0920 20:34:46.273480 28730 net.cpp:100] Creating Layer conv2_p
I0920 20:34:46.273494 28730 net.cpp:434] conv2_p <- norm1_p
I0920 20:34:46.273501 28730 net.cpp:408] conv2_p -> conv2_p
I0920 20:34:46.294713 28730 net.cpp:150] Setting up conv2_p
I0920 20:34:46.294765 28730 net.cpp:157] Top shape: 1 256 23 23 (135424)
I0920 20:34:46.294772 28730 net.cpp:165] Memory required for data: 9275112
I0920 20:34:46.294786 28730 layer_factory.hpp:77] Creating layer relu2_p
I0920 20:34:46.294802 28730 net.cpp:100] Creating Layer relu2_p
I0920 20:34:46.294811 28730 net.cpp:434] relu2_p <- conv2_p
I0920 20:34:46.294822 28730 net.cpp:395] relu2_p -> conv2_p (in-place)
I0920 20:34:46.296763 28730 net.cpp:150] Setting up relu2_p
I0920 20:34:46.296780 28730 net.cpp:157] Top shape: 1 256 23 23 (135424)
I0920 20:34:46.296787 28730 net.cpp:165] Memory required for data: 9816808
I0920 20:34:46.296792 28730 layer_factory.hpp:77] Creating layer pool2_p
I0920 20:34:46.296802 28730 net.cpp:100] Creating Layer pool2_p
I0920 20:34:46.296808 28730 net.cpp:434] pool2_p <- conv2_p
I0920 20:34:46.296818 28730 net.cpp:408] pool2_p -> pool2_p
I0920 20:34:46.296870 28730 net.cpp:150] Setting up pool2_p
I0920 20:34:46.296880 28730 net.cpp:157] Top shape: 1 256 11 11 (30976)
I0920 20:34:46.296885 28730 net.cpp:165] Memory required for data: 9940712
I0920 20:34:46.296890 28730 layer_factory.hpp:77] Creating layer norm2_p
I0920 20:34:46.296898 28730 net.cpp:100] Creating Layer norm2_p
I0920 20:34:46.296903 28730 net.cpp:434] norm2_p <- pool2_p
I0920 20:34:46.296911 28730 net.cpp:408] norm2_p -> norm2_p
I0920 20:34:46.298055 28730 net.cpp:150] Setting up norm2_p
I0920 20:34:46.298072 28730 net.cpp:157] Top shape: 1 256 11 11 (30976)
I0920 20:34:46.298076 28730 net.cpp:165] Memory required for data: 10064616
I0920 20:34:46.298080 28730 layer_factory.hpp:77] Creating layer conv3_p
I0920 20:34:46.298094 28730 net.cpp:100] Creating Layer conv3_p
I0920 20:34:46.298099 28730 net.cpp:434] conv3_p <- norm2_p
I0920 20:34:46.298105 28730 net.cpp:408] conv3_p -> conv3_p
I0920 20:34:46.327111 28730 net.cpp:150] Setting up conv3_p
I0920 20:34:46.327173 28730 net.cpp:157] Top shape: 1 384 9 9 (31104)
I0920 20:34:46.327185 28730 net.cpp:165] Memory required for data: 10189032
I0920 20:34:46.327203 28730 layer_factory.hpp:77] Creating layer relu3_p
I0920 20:34:46.327221 28730 net.cpp:100] Creating Layer relu3_p
I0920 20:34:46.327234 28730 net.cpp:434] relu3_p <- conv3_p
I0920 20:34:46.327246 28730 net.cpp:395] relu3_p -> conv3_p (in-place)
I0920 20:34:46.327545 28730 net.cpp:150] Setting up relu3_p
I0920 20:34:46.327575 28730 net.cpp:157] Top shape: 1 384 9 9 (31104)
I0920 20:34:46.327589 28730 net.cpp:165] Memory required for data: 10313448
I0920 20:34:46.327601 28730 layer_factory.hpp:77] Creating layer conv4_p
I0920 20:34:46.327636 28730 net.cpp:100] Creating Layer conv4_p
I0920 20:34:46.327651 28730 net.cpp:434] conv4_p <- conv3_p
I0920 20:34:46.327667 28730 net.cpp:408] conv4_p -> conv4_p
I0920 20:34:46.355649 28730 net.cpp:150] Setting up conv4_p
I0920 20:34:46.355695 28730 net.cpp:157] Top shape: 1 384 7 7 (18816)
I0920 20:34:46.355700 28730 net.cpp:165] Memory required for data: 10388712
I0920 20:34:46.355710 28730 layer_factory.hpp:77] Creating layer relu4_p
I0920 20:34:46.355720 28730 net.cpp:100] Creating Layer relu4_p
I0920 20:34:46.355726 28730 net.cpp:434] relu4_p <- conv4_p
I0920 20:34:46.355731 28730 net.cpp:395] relu4_p -> conv4_p (in-place)
I0920 20:34:46.356792 28730 net.cpp:150] Setting up relu4_p
I0920 20:34:46.356801 28730 net.cpp:157] Top shape: 1 384 7 7 (18816)
I0920 20:34:46.356806 28730 net.cpp:165] Memory required for data: 10463976
I0920 20:34:46.356808 28730 layer_factory.hpp:77] Creating layer concat
I0920 20:34:46.356822 28730 net.cpp:100] Creating Layer concat
I0920 20:34:46.356825 28730 net.cpp:434] concat <- conv4
I0920 20:34:46.356829 28730 net.cpp:434] concat <- conv4_p
I0920 20:34:46.356834 28730 net.cpp:408] concat -> conv4_concat
I0920 20:34:46.356863 28730 net.cpp:150] Setting up concat
I0920 20:34:46.356868 28730 net.cpp:157] Top shape: 1 768 7 7 (37632)
I0920 20:34:46.356871 28730 net.cpp:165] Memory required for data: 10614504
I0920 20:34:46.356879 28730 layer_factory.hpp:77] Creating layer fc6-new
I0920 20:34:46.356889 28730 net.cpp:100] Creating Layer fc6-new
I0920 20:34:46.356899 28730 net.cpp:434] fc6-new <- conv4_concat
I0920 20:34:46.356904 28730 net.cpp:408] fc6-new -> fc6
I0920 20:34:50.263139 28730 net.cpp:150] Setting up fc6-new
I0920 20:34:50.263173 28730 net.cpp:157] Top shape: 1 4096 (4096)
I0920 20:34:50.263180 28730 net.cpp:165] Memory required for data: 10630888
I0920 20:34:50.263193 28730 layer_factory.hpp:77] Creating layer relu6
I0920 20:34:50.263205 28730 net.cpp:100] Creating Layer relu6
I0920 20:34:50.263209 28730 net.cpp:434] relu6 <- fc6
I0920 20:34:50.263216 28730 net.cpp:395] relu6 -> fc6 (in-place)
I0920 20:34:50.263561 28730 net.cpp:150] Setting up relu6
I0920 20:34:50.263572 28730 net.cpp:157] Top shape: 1 4096 (4096)
I0920 20:34:50.263576 28730 net.cpp:165] Memory required for data: 10647272
I0920 20:34:50.263581 28730 layer_factory.hpp:77] Creating layer drop6
I0920 20:34:50.263588 28730 net.cpp:100] Creating Layer drop6
I0920 20:34:50.263592 28730 net.cpp:434] drop6 <- fc6
I0920 20:34:50.263597 28730 net.cpp:395] drop6 -> fc6 (in-place)
I0920 20:34:50.263627 28730 net.cpp:150] Setting up drop6
I0920 20:34:50.263633 28730 net.cpp:157] Top shape: 1 4096 (4096)
I0920 20:34:50.263635 28730 net.cpp:165] Memory required for data: 10663656
I0920 20:34:50.263638 28730 layer_factory.hpp:77] Creating layer fc7-new
I0920 20:34:50.263645 28730 net.cpp:100] Creating Layer fc7-new
I0920 20:34:50.263648 28730 net.cpp:434] fc7-new <- fc6
I0920 20:34:50.263653 28730 net.cpp:408] fc7-new -> fc7
I0920 20:34:50.470908 28730 net.cpp:150] Setting up fc7-new
I0920 20:34:50.470955 28730 net.cpp:157] Top shape: 1 2048 (2048)
I0920 20:34:50.470963 28730 net.cpp:165] Memory required for data: 10671848
I0920 20:34:50.470973 28730 layer_factory.hpp:77] Creating layer relu7
I0920 20:34:50.470983 28730 net.cpp:100] Creating Layer relu7
I0920 20:34:50.470989 28730 net.cpp:434] relu7 <- fc7
I0920 20:34:50.470999 28730 net.cpp:395] relu7 -> fc7 (in-place)
I0920 20:34:50.471228 28730 net.cpp:150] Setting up relu7
I0920 20:34:50.471241 28730 net.cpp:157] Top shape: 1 2048 (2048)
I0920 20:34:50.471246 28730 net.cpp:165] Memory required for data: 10680040
I0920 20:34:50.471248 28730 layer_factory.hpp:77] Creating layer drop7
I0920 20:34:50.471256 28730 net.cpp:100] Creating Layer drop7
I0920 20:34:50.471259 28730 net.cpp:434] drop7 <- fc7
I0920 20:34:50.471264 28730 net.cpp:395] drop7 -> fc7 (in-place)
I0920 20:34:50.471292 28730 net.cpp:150] Setting up drop7
I0920 20:34:50.471298 28730 net.cpp:157] Top shape: 1 2048 (2048)
I0920 20:34:50.471302 28730 net.cpp:165] Memory required for data: 10688232
I0920 20:34:50.471304 28730 layer_factory.hpp:77] Creating layer fc7-newb
I0920 20:34:50.471318 28730 net.cpp:100] Creating Layer fc7-newb
I0920 20:34:50.471321 28730 net.cpp:434] fc7-newb <- fc7
I0920 20:34:50.471328 28730 net.cpp:408] fc7-newb -> fc7b
I0920 20:34:50.522666 28730 net.cpp:150] Setting up fc7-newb
I0920 20:34:50.522697 28730 net.cpp:157] Top shape: 1 1024 (1024)
I0920 20:34:50.522703 28730 net.cpp:165] Memory required for data: 10692328
I0920 20:34:50.522712 28730 layer_factory.hpp:77] Creating layer relu7b
I0920 20:34:50.522724 28730 net.cpp:100] Creating Layer relu7b
I0920 20:34:50.522730 28730 net.cpp:434] relu7b <- fc7b
I0920 20:34:50.522737 28730 net.cpp:395] relu7b -> fc7b (in-place)
I0920 20:34:50.523118 28730 net.cpp:150] Setting up relu7b
I0920 20:34:50.523131 28730 net.cpp:157] Top shape: 1 1024 (1024)
I0920 20:34:50.523134 28730 net.cpp:165] Memory required for data: 10696424
I0920 20:34:50.523138 28730 layer_factory.hpp:77] Creating layer drop7b
I0920 20:34:50.523146 28730 net.cpp:100] Creating Layer drop7b
I0920 20:34:50.523150 28730 net.cpp:434] drop7b <- fc7b
I0920 20:34:50.523157 28730 net.cpp:395] drop7b -> fc7b (in-place)
I0920 20:34:50.523183 28730 net.cpp:150] Setting up drop7b
I0920 20:34:50.523188 28730 net.cpp:157] Top shape: 1 1024 (1024)
I0920 20:34:50.523191 28730 net.cpp:165] Memory required for data: 10700520
I0920 20:34:50.523200 28730 layer_factory.hpp:77] Creating layer fc8-shapes
I0920 20:34:50.523208 28730 net.cpp:100] Creating Layer fc8-shapes
I0920 20:34:50.523218 28730 net.cpp:434] fc8-shapes <- fc7b
I0920 20:34:50.523224 28730 net.cpp:408] fc8-shapes -> fc8
I0920 20:34:50.523403 28730 net.cpp:150] Setting up fc8-shapes
I0920 20:34:50.523411 28730 net.cpp:157] Top shape: 1 4 (4)
I0920 20:34:50.523413 28730 net.cpp:165] Memory required for data: 10700536
I0920 20:34:50.523418 28730 layer_factory.hpp:77] Creating layer neg
I0920 20:34:50.523432 28730 net.cpp:100] Creating Layer neg
I0920 20:34:50.523435 28730 net.cpp:434] neg <- bbox
I0920 20:34:50.523439 28730 net.cpp:408] neg -> bbox_neg
I0920 20:34:50.523460 28730 net.cpp:150] Setting up neg
I0920 20:34:50.523465 28730 net.cpp:157] Top shape: 1 4 1 1 (4)
I0920 20:34:50.523468 28730 net.cpp:165] Memory required for data: 10700552
I0920 20:34:50.523471 28730 layer_factory.hpp:77] Creating layer flatten
I0920 20:34:50.523475 28730 net.cpp:100] Creating Layer flatten
I0920 20:34:50.523478 28730 net.cpp:434] flatten <- bbox_neg
I0920 20:34:50.523483 28730 net.cpp:408] flatten -> bbox_neg_flat
I0920 20:34:50.523500 28730 net.cpp:150] Setting up flatten
I0920 20:34:50.523505 28730 net.cpp:157] Top shape: 1 4 (4)
I0920 20:34:50.523509 28730 net.cpp:165] Memory required for data: 10700568
I0920 20:34:50.523511 28730 layer_factory.hpp:77] Creating layer subtract
I0920 20:34:50.523517 28730 net.cpp:100] Creating Layer subtract
I0920 20:34:50.523520 28730 net.cpp:434] subtract <- fc8
I0920 20:34:50.523524 28730 net.cpp:434] subtract <- bbox_neg_flat
I0920 20:34:50.523530 28730 net.cpp:408] subtract -> out_diff
I0920 20:34:50.523547 28730 net.cpp:150] Setting up subtract
I0920 20:34:50.523562 28730 net.cpp:157] Top shape: 1 4 (4)
I0920 20:34:50.523566 28730 net.cpp:165] Memory required for data: 10700584
I0920 20:34:50.523568 28730 layer_factory.hpp:77] Creating layer abssum
I0920 20:34:50.523584 28730 net.cpp:100] Creating Layer abssum
I0920 20:34:50.523587 28730 net.cpp:434] abssum <- out_diff
I0920 20:34:50.523593 28730 net.cpp:408] abssum -> loss
I0920 20:34:50.523634 28730 net.cpp:150] Setting up abssum
I0920 20:34:50.523639 28730 net.cpp:157] Top shape: (1)
…
