…
W0902 12:54:33.939440  4575 upgrade_proto.cpp:71] Note that future Caffe releases will only support input layers and not input fields.
I0902 12:54:33.947722  4575 net.cpp:58] Initializing net from parameters: 
name: "CaffeNet"
state {
  phase: TRAIN
  level: 0
}
layer {
  name: "input"
  type: "Input"
  top: "target"
  top: "image"
  top: "bbox"
  input_param {
    shape {
      dim: 1
      dim: 3
      dim: 227
      dim: 227
    }
    shape {
      dim: 1
      dim: 3
      dim: 227
      dim: 227
    }
    shape {
      dim: 1
      dim: 4
      dim: 1
      dim: 1
    }
  }
}
layer {
  name: "conv1"
  type: "Convolution"
  bottom: "target"
  top: "conv1"
  param {
    lr_mult: 5
    decay_mult: 1
  }
  param {
    lr_mult: 10
    decay_mult: 0
  }
  convolution_param {
    num_output: 96
    kernel_size: 11
    stride: 4
    weight_filler {
      type: "gaussian"
      std: 0.01
    }
    bias_filler {
      type: "constant"
      value: 0
    }
  }
}
layer {
  name: "relu1"
  type: "ReLU"
  bottom: "conv1"
  top: "conv1"
}
layer {
  name: "pool1"
  type: "Pooling"
  bottom: "conv1"
  top: "pool1"
  pooling_param {
    pool: MAX
    kernel_size: 3
    stride: 2
  }
}
layer {
  name: "norm1"
  type: "LRN"
  bottom: "pool1"
  top: "norm1"
  lrn_param {
    local_size: 5
    alpha: 0.0001
    beta: 0.75
  }
}
layer {
  name: "conv2"
  type: "Convolution"
  bottom: "norm1"
  top: "conv2"
  param {
    lr_mult: 5
    decay_mult: 1
  }
  param {
    lr_mult: 10
    decay_mult: 0
  }
  convolution_param {
    num_output: 256
    kernel_size: 5
    group: 2
    weight_filler {
      type: "gaussian"
      std: 0.01
    }
    bias_filler {
      type: "constant"
      value: 1
    }
  }
}
layer {
  name: "relu2"
  type: "ReLU"
  bottom: "conv2"
  top: "conv2"
}
layer {
  name: "pool2"
  type: "Pooling"
  bottom: "conv2"
  top: "pool2"
  pooling_param {
    pool: MAX
    kernel_size: 3
    stride: 2
  }
}
layer {
  name: "norm2"
  type: "LRN"
  bottom: "pool2"
  top: "norm2"
  lrn_param {
    local_size: 5
    alpha: 0.0001
    beta: 0.75
  }
}
layer {
  name: "conv3"
  type: "Convolution"
  bottom: "norm2"
  top: "conv3"
  param {
    lr_mult: 5
    decay_mult: 1
  }
  param {
    lr_mult: 10
    decay_mult: 0
  }
  convolution_param {
    num_output: 384
    kernel_size: 3
    weight_filler {
      type: "gaussian"
      std: 0.01
    }
    bias_filler {
      type: "constant"
      value: 0
    }
  }
}
layer {
  name: "relu3"
  type: "ReLU"
  bottom: "conv3"
  top: "conv3"
}
layer {
  name: "conv4"
  type: "Convolution"
  bottom: "conv3"
  top: "conv4"
  param {
    lr_mult: 5
    decay_mult: 1
  }
  param {
    lr_mult: 10
    decay_mult: 0
  }
  convolution_param {
    num_output: 384
    kernel_size: 3
    group: 2
    weight_filler {
      type: "gaussian"
      std: 0.01
    }
    bias_filler {
      type: "constant"
      value: 1
    }
  }
}
layer {
  name: "relu4"
  type: "ReLU"
  bottom: "conv4"
  top: "conv4"
}
layer {
  name: "conv5"
  type: "Convolution"
  bottom: "conv4"
  top: "conv5"
  param {
    lr_mult: 5
    decay_mult: 1
  }
  param {
    lr_mult: 10
    decay_mult: 0
  }
  convolution_param {
    num_output: 256
    kernel_size: 3
    group: 2
    weight_filler {
      type: "gaussian"
      std: 0.01
    }
    bias_filler {
      type: "constant"
      value: 1
    }
  }
}
layer {
  name: "relu5"
  type: "ReLU"
  bottom: "conv5"
  top: "conv5"
}
layer {
  name: "pool5"
  type: "Pooling"
  bottom: "conv5"
  top: "pool5"
  pooling_param {
    pool: MAX
    kernel_size: 3
    stride: 2
  }
}
layer {
  name: "conv1_p"
  type: "Convolution"
  bottom: "image"
  top: "conv1_p"
  param {
    lr_mult: 5
    decay_mult: 1
  }
  param {
    lr_mult: 10
    decay_mult: 0
  }
  convolution_param {
    num_output: 96
    kernel_size: 11
    stride: 4
    weight_filler {
      type: "gaussian"
      std: 0.01
    }
    bias_filler {
      type: "constant"
      value: 0
    }
  }
}
layer {
  name: "relu1_p"
  type: "ReLU"
  bottom: "conv1_p"
  top: "conv1_p"
}
layer {
  name: "pool1_p"
  type: "Pooling"
  bottom: "conv1_p"
  top: "pool1_p"
  pooling_param {
    pool: MAX
    kernel_size: 3
    stride: 2
  }
}
layer {
  name: "norm1_p"
  type: "LRN"
  bottom: "pool1_p"
  top: "norm1_p"
  lrn_param {
    local_size: 5
    alpha: 0.0001
    beta: 0.75
  }
}
layer {
  name: "conv2_p"
  type: "Convolution"
  bottom: "norm1_p"
  top: "conv2_p"
  param {
    lr_mult: 5
    decay_mult: 1
  }
  param {
    lr_mult: 10
    decay_mult: 0
  }
  convolution_param {
    num_output: 256
    kernel_size: 5
    group: 2
    weight_filler {
      type: "gaussian"
      std: 0.01
    }
    bias_filler {
      type: "constant"
      value: 1
    }
  }
}
layer {
  name: "relu2_p"
  type: "ReLU"
  bottom: "conv2_p"
  top: "conv2_p"
}
layer {
  name: "pool2_p"
  type: "Pooling"
  bottom: "conv2_p"
  top: "pool2_p"
  pooling_param {
    pool: MAX
    kernel_size: 3
    stride: 2
  }
}
layer {
  name: "norm2_p"
  type: "LRN"
  bottom: "pool2_p"
  top: "norm2_p"
  lrn_param {
    local_size: 5
    alpha: 0.0001
    beta: 0.75
  }
}
layer {
  name: "conv3_p"
  type: "Convolution"
  bottom: "norm2_p"
  top: "conv3_p"
  param {
    lr_mult: 5
    decay_mult: 1
  }
  param {
    lr_mult: 10
    decay_mult: 0
  }
  convolution_param {
    num_output: 384
    kernel_size: 3
    weight_filler {
      type: "gaussian"
      std: 0.01
    }
    bias_filler {
      type: "constant"
      value: 0
    }
  }
}
layer {
  name: "relu3_p"
  type: "ReLU"
  bottom: "conv3_p"
  top: "conv3_p"
}
layer {
  name: "conv4_p"
  type: "Convolution"
  bottom: "conv3_p"
  top: "conv4_p"
  param {
    lr_mult: 5
    decay_mult: 1
  }
  param {
    lr_mult: 10
    decay_mult: 0
  }
  convolution_param {
    num_output: 384
    kernel_size: 3
    group: 2
    weight_filler {
      type: "gaussian"
      std: 0.01
    }
    bias_filler {
      type: "constant"
      value: 1
    }
  }
}
layer {
  name: "relu4_p"
  type: "ReLU"
  bottom: "conv4_p"
  top: "conv4_p"
}
layer {
  name: "conv5_p"
  type: "Convolution"
  bottom: "conv4_p"
  top: "conv5_p"
  param {
    lr_mult: 5
    decay_mult: 1
  }
  param {
    lr_mult: 10
    decay_mult: 0
  }
  convolution_param {
    num_output: 256
    kernel_size: 3
    group: 2
    weight_filler {
      type: "gaussian"
      std: 0.01
    }
    bias_filler {
      type: "constant"
      value: 1
    }
  }
}
layer {
  name: "relu5_p"
  type: "ReLU"
  bottom: "conv5_p"
  top: "conv5_p"
}
layer {
  name: "pool5_p"
  type: "Pooling"
  bottom: "conv5_p"
  top: "pool5_p"
  pooling_param {
    pool: MAX
    kernel_size: 3
    stride: 2
  }
}
layer {
  name: "concat"
  type: "Concat"
  bottom: "pool5"
  bottom: "pool5_p"
  top: "pool5_concat"
  concat_param {
    axis: 1
  }
}
layer {
  name: "fc6-new"
  type: "InnerProduct"
  bottom: "pool5_concat"
  top: "fc6"
  param {
    lr_mult: 10
    decay_mult: 1
  }
  param {
    lr_mult: 20
    decay_mult: 0
  }
  inner_product_param {
    num_output: 4096
    weight_filler {
      type: "gaussian"
      std: 0.005
    }
    bias_filler {
      type: "constant"
      value: 1
    }
  }
}
layer {
  name: "relu6"
  type: "ReLU"
  bottom: "fc6"
  top: "fc6"
}
layer {
  name: "drop6"
  type: "Dropout"
  bottom: "fc6"
  top: "fc6"
  dropout_param {
    dropout_ratio: 0.5
  }
}
layer {
  name: "fc7-new"
  type: "InnerProduct"
  bottom: "fc6"
  top: "fc7"
  param {
    lr_mult: 10
    decay_mult: 1
  }
  param {
    lr_mult: 20
    decay_mult: 0
  }
  inner_product_param {
    num_output: 2048
    weight_filler {
      type: "gaussian"
      std: 0.005
    }
    bias_filler {
      type: "constant"
      value: 1
    }
  }
}
layer {
  name: "relu7"
  type: "ReLU"
  bottom: "fc7"
  top: "fc7"
}
layer {
  name: "drop7"
  type: "Dropout"
  bottom: "fc7"
  top: "fc7"
  dropout_param {
    dropout_ratio: 0.5
  }
}
layer {
  name: "fc7-newb"
  type: "InnerProduct"
  bottom: "fc7"
  top: "fc7b"
  param {
    lr_mult: 10
    decay_mult: 1
  }
  param {
    lr_mult: 20
    decay_mult: 0
  }
  inner_product_param {
    num_output: 1024
    weight_filler {
      type: "gaussian"
      std: 0.005
    }
    bias_filler {
      type: "constant"
      value: 1
    }
  }
}
layer {
  name: "relu7b"
  type: "ReLU"
  bottom: "fc7b"
  top: "fc7b"
}
layer {
  name: "drop7b"
  type: "Dropout"
  bottom: "fc7b"
  top: "fc7b"
  dropout_param {
    dropout_ratio: 0.5
  }
}
layer {
  name: "fc8-shapes"
  type: "InnerProduct"
  bottom: "fc7b"
  top: "fc8"
  param {
    lr_mult: 10
    decay_mult: 1
  }
  param {
    lr_mult: 20
    decay_mult: 0
  }
  inner_product_param {
    num_output: 4
    weight_filler {
      type: "gaussian"
      std: 0.01
    }
    bias_filler {
      type: "constant"
      value: 0
    }
  }
}
layer {
  name: "neg"
  type: "Power"
  bottom: "bbox"
  top: "bbox_neg"
  power_param {
    power: 1
    scale: -1
    shift: 0
  }
}
layer {
  name: "flatten"
  type: "Flatten"
  bottom: "bbox_neg"
  top: "bbox_neg_flat"
}
layer {
  name: "subtract"
  type: "Eltwise"
  bottom: "fc8"
  bottom: "bbox_neg_flat"
  top: "out_diff"
}
layer {
  name: "abssum"
  type: "Reduction"
  bottom: "out_diff"
  top: "loss"
  loss_weight: 1
  reduction_param {
    operation: ASUM
  }
}
I0902 12:54:33.947883  4575 layer_factory.hpp:77] Creating layer input
I0902 12:54:33.947901  4575 net.cpp:100] Creating Layer input
I0902 12:54:33.947907  4575 net.cpp:408] input -> target
I0902 12:54:33.963985  4575 net.cpp:408] input -> image
I0902 12:54:33.964030  4575 net.cpp:408] input -> bbox
I0902 12:54:33.999295  4575 net.cpp:150] Setting up input
I0902 12:54:33.999346  4575 net.cpp:157] Top shape: 1 3 227 227 (154587)
I0902 12:54:33.999356  4575 net.cpp:157] Top shape: 1 3 227 227 (154587)
I0902 12:54:33.999361  4575 net.cpp:157] Top shape: 1 4 1 1 (4)
I0902 12:54:33.999366  4575 net.cpp:165] Memory required for data: 1236712
I0902 12:54:33.999377  4575 layer_factory.hpp:77] Creating layer conv1
I0902 12:54:33.999408  4575 net.cpp:100] Creating Layer conv1
I0902 12:54:33.999416  4575 net.cpp:434] conv1 <- target
I0902 12:54:33.999429  4575 net.cpp:408] conv1 -> conv1
I0902 12:54:35.356493  4575 net.cpp:150] Setting up conv1
I0902 12:54:35.356534  4575 net.cpp:157] Top shape: 1 96 55 55 (290400)
I0902 12:54:35.356539  4575 net.cpp:165] Memory required for data: 2398312
I0902 12:54:35.356560  4575 layer_factory.hpp:77] Creating layer relu1
I0902 12:54:35.356575  4575 net.cpp:100] Creating Layer relu1
I0902 12:54:35.356580  4575 net.cpp:434] relu1 <- conv1
I0902 12:54:35.356585  4575 net.cpp:395] relu1 -> conv1 (in-place)
I0902 12:54:35.356750  4575 net.cpp:150] Setting up relu1
I0902 12:54:35.356758  4575 net.cpp:157] Top shape: 1 96 55 55 (290400)
I0902 12:54:35.356762  4575 net.cpp:165] Memory required for data: 3559912
I0902 12:54:35.356766  4575 layer_factory.hpp:77] Creating layer pool1
I0902 12:54:35.356776  4575 net.cpp:100] Creating Layer pool1
I0902 12:54:35.356781  4575 net.cpp:434] pool1 <- conv1
I0902 12:54:35.356786  4575 net.cpp:408] pool1 -> pool1
I0902 12:54:35.356827  4575 net.cpp:150] Setting up pool1
I0902 12:54:35.356833  4575 net.cpp:157] Top shape: 1 96 27 27 (69984)
I0902 12:54:35.356837  4575 net.cpp:165] Memory required for data: 3839848
I0902 12:54:35.356840  4575 layer_factory.hpp:77] Creating layer norm1
I0902 12:54:35.356851  4575 net.cpp:100] Creating Layer norm1
I0902 12:54:35.356855  4575 net.cpp:434] norm1 <- pool1
I0902 12:54:35.356859  4575 net.cpp:408] norm1 -> norm1
I0902 12:54:35.357087  4575 net.cpp:150] Setting up norm1
I0902 12:54:35.357098  4575 net.cpp:157] Top shape: 1 96 27 27 (69984)
I0902 12:54:35.357101  4575 net.cpp:165] Memory required for data: 4119784
I0902 12:54:35.357105  4575 layer_factory.hpp:77] Creating layer conv2
I0902 12:54:35.357117  4575 net.cpp:100] Creating Layer conv2
I0902 12:54:35.357121  4575 net.cpp:434] conv2 <- norm1
I0902 12:54:35.357126  4575 net.cpp:408] conv2 -> conv2
I0902 12:54:35.366602  4575 net.cpp:150] Setting up conv2
I0902 12:54:35.366646  4575 net.cpp:157] Top shape: 1 256 23 23 (135424)
I0902 12:54:35.366650  4575 net.cpp:165] Memory required for data: 4661480
I0902 12:54:35.366664  4575 layer_factory.hpp:77] Creating layer relu2
I0902 12:54:35.366683  4575 net.cpp:100] Creating Layer relu2
I0902 12:54:35.366689  4575 net.cpp:434] relu2 <- conv2
I0902 12:54:35.366695  4575 net.cpp:395] relu2 -> conv2 (in-place)
I0902 12:54:35.366837  4575 net.cpp:150] Setting up relu2
I0902 12:54:35.366845  4575 net.cpp:157] Top shape: 1 256 23 23 (135424)
I0902 12:54:35.366848  4575 net.cpp:165] Memory required for data: 5203176
I0902 12:54:35.366852  4575 layer_factory.hpp:77] Creating layer pool2
I0902 12:54:35.366858  4575 net.cpp:100] Creating Layer pool2
I0902 12:54:35.366863  4575 net.cpp:434] pool2 <- conv2
I0902 12:54:35.366868  4575 net.cpp:408] pool2 -> pool2
I0902 12:54:35.366904  4575 net.cpp:150] Setting up pool2
I0902 12:54:35.366909  4575 net.cpp:157] Top shape: 1 256 11 11 (30976)
I0902 12:54:35.366914  4575 net.cpp:165] Memory required for data: 5327080
I0902 12:54:35.366916  4575 layer_factory.hpp:77] Creating layer norm2
I0902 12:54:35.366925  4575 net.cpp:100] Creating Layer norm2
I0902 12:54:35.366928  4575 net.cpp:434] norm2 <- pool2
I0902 12:54:35.366933  4575 net.cpp:408] norm2 -> norm2
I0902 12:54:35.367177  4575 net.cpp:150] Setting up norm2
I0902 12:54:35.367188  4575 net.cpp:157] Top shape: 1 256 11 11 (30976)
I0902 12:54:35.367192  4575 net.cpp:165] Memory required for data: 5450984
I0902 12:54:35.367197  4575 layer_factory.hpp:77] Creating layer conv3
I0902 12:54:35.367207  4575 net.cpp:100] Creating Layer conv3
I0902 12:54:35.367211  4575 net.cpp:434] conv3 <- norm2
I0902 12:54:35.367218  4575 net.cpp:408] conv3 -> conv3
I0902 12:54:35.391289  4575 net.cpp:150] Setting up conv3
I0902 12:54:35.391366  4575 net.cpp:157] Top shape: 1 384 9 9 (31104)
I0902 12:54:35.391372  4575 net.cpp:165] Memory required for data: 5575400
I0902 12:54:35.391396  4575 layer_factory.hpp:77] Creating layer relu3
I0902 12:54:35.391409  4575 net.cpp:100] Creating Layer relu3
I0902 12:54:35.391415  4575 net.cpp:434] relu3 <- conv3
I0902 12:54:35.391422  4575 net.cpp:395] relu3 -> conv3 (in-place)
I0902 12:54:35.392032  4575 net.cpp:150] Setting up relu3
I0902 12:54:35.392089  4575 net.cpp:157] Top shape: 1 384 9 9 (31104)
I0902 12:54:35.392097  4575 net.cpp:165] Memory required for data: 5699816
I0902 12:54:35.392107  4575 layer_factory.hpp:77] Creating layer conv4
I0902 12:54:35.392145  4575 net.cpp:100] Creating Layer conv4
I0902 12:54:35.392158  4575 net.cpp:434] conv4 <- conv3
I0902 12:54:35.392177  4575 net.cpp:408] conv4 -> conv4
I0902 12:54:35.412818  4575 net.cpp:150] Setting up conv4
I0902 12:54:35.412869  4575 net.cpp:157] Top shape: 1 384 7 7 (18816)
I0902 12:54:35.412874  4575 net.cpp:165] Memory required for data: 5775080
I0902 12:54:35.412886  4575 layer_factory.hpp:77] Creating layer relu4
I0902 12:54:35.412899  4575 net.cpp:100] Creating Layer relu4
I0902 12:54:35.412905  4575 net.cpp:434] relu4 <- conv4
I0902 12:54:35.412914  4575 net.cpp:395] relu4 -> conv4 (in-place)
I0902 12:54:35.413069  4575 net.cpp:150] Setting up relu4
I0902 12:54:35.413084  4575 net.cpp:157] Top shape: 1 384 7 7 (18816)
I0902 12:54:35.413087  4575 net.cpp:165] Memory required for data: 5850344
I0902 12:54:35.413091  4575 layer_factory.hpp:77] Creating layer conv5
I0902 12:54:35.413105  4575 net.cpp:100] Creating Layer conv5
I0902 12:54:35.413108  4575 net.cpp:434] conv5 <- conv4
I0902 12:54:35.413113  4575 net.cpp:408] conv5 -> conv5
I0902 12:54:35.426486  4575 net.cpp:150] Setting up conv5
I0902 12:54:35.426527  4575 net.cpp:157] Top shape: 1 256 5 5 (6400)
I0902 12:54:35.426532  4575 net.cpp:165] Memory required for data: 5875944
I0902 12:54:35.426544  4575 layer_factory.hpp:77] Creating layer relu5
I0902 12:54:35.426554  4575 net.cpp:100] Creating Layer relu5
I0902 12:54:35.426559  4575 net.cpp:434] relu5 <- conv5
I0902 12:54:35.426565  4575 net.cpp:395] relu5 -> conv5 (in-place)
I0902 12:54:35.426695  4575 net.cpp:150] Setting up relu5
I0902 12:54:35.426709  4575 net.cpp:157] Top shape: 1 256 5 5 (6400)
I0902 12:54:35.426713  4575 net.cpp:165] Memory required for data: 5901544
I0902 12:54:35.426717  4575 layer_factory.hpp:77] Creating layer pool5
I0902 12:54:35.426733  4575 net.cpp:100] Creating Layer pool5
I0902 12:54:35.426738  4575 net.cpp:434] pool5 <- conv5
I0902 12:54:35.426743  4575 net.cpp:408] pool5 -> pool5
I0902 12:54:35.426779  4575 net.cpp:150] Setting up pool5
I0902 12:54:35.426784  4575 net.cpp:157] Top shape: 1 256 2 2 (1024)
I0902 12:54:35.426787  4575 net.cpp:165] Memory required for data: 5905640
I0902 12:54:35.426790  4575 layer_factory.hpp:77] Creating layer conv1_p
I0902 12:54:35.426802  4575 net.cpp:100] Creating Layer conv1_p
I0902 12:54:35.426806  4575 net.cpp:434] conv1_p <- image
I0902 12:54:35.426812  4575 net.cpp:408] conv1_p -> conv1_p
I0902 12:54:35.428458  4575 net.cpp:150] Setting up conv1_p
I0902 12:54:35.428472  4575 net.cpp:157] Top shape: 1 96 55 55 (290400)
I0902 12:54:35.428477  4575 net.cpp:165] Memory required for data: 7067240
I0902 12:54:35.428483  4575 layer_factory.hpp:77] Creating layer relu1_p
I0902 12:54:35.428488  4575 net.cpp:100] Creating Layer relu1_p
I0902 12:54:35.428493  4575 net.cpp:434] relu1_p <- conv1_p
I0902 12:54:35.428498  4575 net.cpp:395] relu1_p -> conv1_p (in-place)
I0902 12:54:35.428724  4575 net.cpp:150] Setting up relu1_p
I0902 12:54:35.428735  4575 net.cpp:157] Top shape: 1 96 55 55 (290400)
I0902 12:54:35.428740  4575 net.cpp:165] Memory required for data: 8228840
I0902 12:54:35.428743  4575 layer_factory.hpp:77] Creating layer pool1_p
I0902 12:54:35.428750  4575 net.cpp:100] Creating Layer pool1_p
I0902 12:54:35.428755  4575 net.cpp:434] pool1_p <- conv1_p
I0902 12:54:35.428760  4575 net.cpp:408] pool1_p -> pool1_p
I0902 12:54:35.428793  4575 net.cpp:150] Setting up pool1_p
I0902 12:54:35.428799  4575 net.cpp:157] Top shape: 1 96 27 27 (69984)
I0902 12:54:35.428802  4575 net.cpp:165] Memory required for data: 8508776
I0902 12:54:35.428807  4575 layer_factory.hpp:77] Creating layer norm1_p
I0902 12:54:35.428812  4575 net.cpp:100] Creating Layer norm1_p
I0902 12:54:35.428817  4575 net.cpp:434] norm1_p <- pool1_p
I0902 12:54:35.428822  4575 net.cpp:408] norm1_p -> norm1_p
I0902 12:54:35.428966  4575 net.cpp:150] Setting up norm1_p
I0902 12:54:35.428975  4575 net.cpp:157] Top shape: 1 96 27 27 (69984)
I0902 12:54:35.428979  4575 net.cpp:165] Memory required for data: 8788712
I0902 12:54:35.428982  4575 layer_factory.hpp:77] Creating layer conv2_p
I0902 12:54:35.428992  4575 net.cpp:100] Creating Layer conv2_p
I0902 12:54:35.428995  4575 net.cpp:434] conv2_p <- norm1_p
I0902 12:54:35.429000  4575 net.cpp:408] conv2_p -> conv2_p
I0902 12:54:35.438227  4575 net.cpp:150] Setting up conv2_p
I0902 12:54:35.438259  4575 net.cpp:157] Top shape: 1 256 23 23 (135424)
I0902 12:54:35.438263  4575 net.cpp:165] Memory required for data: 9330408
I0902 12:54:35.438271  4575 layer_factory.hpp:77] Creating layer relu2_p
I0902 12:54:35.438280  4575 net.cpp:100] Creating Layer relu2_p
I0902 12:54:35.438285  4575 net.cpp:434] relu2_p <- conv2_p
I0902 12:54:35.438292  4575 net.cpp:395] relu2_p -> conv2_p (in-place)
I0902 12:54:35.438427  4575 net.cpp:150] Setting up relu2_p
I0902 12:54:35.438436  4575 net.cpp:157] Top shape: 1 256 23 23 (135424)
I0902 12:54:35.438439  4575 net.cpp:165] Memory required for data: 9872104
I0902 12:54:35.438443  4575 layer_factory.hpp:77] Creating layer pool2_p
I0902 12:54:35.438449  4575 net.cpp:100] Creating Layer pool2_p
I0902 12:54:35.438452  4575 net.cpp:434] pool2_p <- conv2_p
I0902 12:54:35.438458  4575 net.cpp:408] pool2_p -> pool2_p
I0902 12:54:35.438495  4575 net.cpp:150] Setting up pool2_p
I0902 12:54:35.438501  4575 net.cpp:157] Top shape: 1 256 11 11 (30976)
I0902 12:54:35.438504  4575 net.cpp:165] Memory required for data: 9996008
I0902 12:54:35.438508  4575 layer_factory.hpp:77] Creating layer norm2_p
I0902 12:54:35.438515  4575 net.cpp:100] Creating Layer norm2_p
I0902 12:54:35.438519  4575 net.cpp:434] norm2_p <- pool2_p
I0902 12:54:35.438524  4575 net.cpp:408] norm2_p -> norm2_p
I0902 12:54:35.438766  4575 net.cpp:150] Setting up norm2_p
I0902 12:54:35.438777  4575 net.cpp:157] Top shape: 1 256 11 11 (30976)
I0902 12:54:35.438781  4575 net.cpp:165] Memory required for data: 10119912
I0902 12:54:35.438792  4575 layer_factory.hpp:77] Creating layer conv3_p
I0902 12:54:35.438803  4575 net.cpp:100] Creating Layer conv3_p
I0902 12:54:35.438807  4575 net.cpp:434] conv3_p <- norm2_p
I0902 12:54:35.438813  4575 net.cpp:408] conv3_p -> conv3_p
I0902 12:54:35.462873  4575 net.cpp:150] Setting up conv3_p
I0902 12:54:35.462913  4575 net.cpp:157] Top shape: 1 384 9 9 (31104)
I0902 12:54:35.462918  4575 net.cpp:165] Memory required for data: 10244328
I0902 12:54:35.462927  4575 layer_factory.hpp:77] Creating layer relu3_p
I0902 12:54:35.462937  4575 net.cpp:100] Creating Layer relu3_p
I0902 12:54:35.462942  4575 net.cpp:434] relu3_p <- conv3_p
I0902 12:54:35.462951  4575 net.cpp:395] relu3_p -> conv3_p (in-place)
I0902 12:54:35.463081  4575 net.cpp:150] Setting up relu3_p
I0902 12:54:35.463090  4575 net.cpp:157] Top shape: 1 384 9 9 (31104)
I0902 12:54:35.463094  4575 net.cpp:165] Memory required for data: 10368744
I0902 12:54:35.463098  4575 layer_factory.hpp:77] Creating layer conv4_p
I0902 12:54:35.463107  4575 net.cpp:100] Creating Layer conv4_p
I0902 12:54:35.463111  4575 net.cpp:434] conv4_p <- conv3_p
I0902 12:54:35.463117  4575 net.cpp:408] conv4_p -> conv4_p
I0902 12:54:35.481770  4575 net.cpp:150] Setting up conv4_p
I0902 12:54:35.481812  4575 net.cpp:157] Top shape: 1 384 7 7 (18816)
I0902 12:54:35.481817  4575 net.cpp:165] Memory required for data: 10444008
I0902 12:54:35.481832  4575 layer_factory.hpp:77] Creating layer relu4_p
I0902 12:54:35.481842  4575 net.cpp:100] Creating Layer relu4_p
I0902 12:54:35.481848  4575 net.cpp:434] relu4_p <- conv4_p
I0902 12:54:35.481854  4575 net.cpp:395] relu4_p -> conv4_p (in-place)
I0902 12:54:35.481990  4575 net.cpp:150] Setting up relu4_p
I0902 12:54:35.481998  4575 net.cpp:157] Top shape: 1 384 7 7 (18816)
I0902 12:54:35.482002  4575 net.cpp:165] Memory required for data: 10519272
I0902 12:54:35.482005  4575 layer_factory.hpp:77] Creating layer conv5_p
I0902 12:54:35.482015  4575 net.cpp:100] Creating Layer conv5_p
I0902 12:54:35.482019  4575 net.cpp:434] conv5_p <- conv4_p
I0902 12:54:35.482026  4575 net.cpp:408] conv5_p -> conv5_p
I0902 12:54:35.494997  4575 net.cpp:150] Setting up conv5_p
I0902 12:54:35.495034  4575 net.cpp:157] Top shape: 1 256 5 5 (6400)
I0902 12:54:35.495039  4575 net.cpp:165] Memory required for data: 10544872
I0902 12:54:35.495048  4575 layer_factory.hpp:77] Creating layer relu5_p
I0902 12:54:35.495059  4575 net.cpp:100] Creating Layer relu5_p
I0902 12:54:35.495064  4575 net.cpp:434] relu5_p <- conv5_p
I0902 12:54:35.495072  4575 net.cpp:395] relu5_p -> conv5_p (in-place)
I0902 12:54:35.495200  4575 net.cpp:150] Setting up relu5_p
I0902 12:54:35.495208  4575 net.cpp:157] Top shape: 1 256 5 5 (6400)
I0902 12:54:35.495213  4575 net.cpp:165] Memory required for data: 10570472
I0902 12:54:35.495215  4575 layer_factory.hpp:77] Creating layer pool5_p
I0902 12:54:35.495223  4575 net.cpp:100] Creating Layer pool5_p
I0902 12:54:35.495226  4575 net.cpp:434] pool5_p <- conv5_p
I0902 12:54:35.495232  4575 net.cpp:408] pool5_p -> pool5_p
I0902 12:54:35.495267  4575 net.cpp:150] Setting up pool5_p
I0902 12:54:35.495273  4575 net.cpp:157] Top shape: 1 256 2 2 (1024)
I0902 12:54:35.495277  4575 net.cpp:165] Memory required for data: 10574568
I0902 12:54:35.495280  4575 layer_factory.hpp:77] Creating layer concat
I0902 12:54:35.495286  4575 net.cpp:100] Creating Layer concat
I0902 12:54:35.495290  4575 net.cpp:434] concat <- pool5
I0902 12:54:35.495295  4575 net.cpp:434] concat <- pool5_p
I0902 12:54:35.495301  4575 net.cpp:408] concat -> pool5_concat
I0902 12:54:35.495321  4575 net.cpp:150] Setting up concat
I0902 12:54:35.495326  4575 net.cpp:157] Top shape: 1 512 2 2 (2048)
I0902 12:54:35.495329  4575 net.cpp:165] Memory required for data: 10582760
I0902 12:54:35.495333  4575 layer_factory.hpp:77] Creating layer fc6-new
I0902 12:54:35.495345  4575 net.cpp:100] Creating Layer fc6-new
I0902 12:54:35.495355  4575 net.cpp:434] fc6-new <- pool5_concat
I0902 12:54:35.495362  4575 net.cpp:408] fc6-new -> fc6
I0902 12:54:35.716572  4575 net.cpp:150] Setting up fc6-new
I0902 12:54:35.716616  4575 net.cpp:157] Top shape: 1 4096 (4096)
I0902 12:54:35.716622  4575 net.cpp:165] Memory required for data: 10599144
I0902 12:54:35.716634  4575 layer_factory.hpp:77] Creating layer relu6
I0902 12:54:35.716646  4575 net.cpp:100] Creating Layer relu6
I0902 12:54:35.716653  4575 net.cpp:434] relu6 <- fc6
I0902 12:54:35.716661  4575 net.cpp:395] relu6 -> fc6 (in-place)
I0902 12:54:35.717042  4575 net.cpp:150] Setting up relu6
I0902 12:54:35.717057  4575 net.cpp:157] Top shape: 1 4096 (4096)
I0902 12:54:35.717061  4575 net.cpp:165] Memory required for data: 10615528
I0902 12:54:35.717067  4575 layer_factory.hpp:77] Creating layer drop6
I0902 12:54:35.717073  4575 net.cpp:100] Creating Layer drop6
I0902 12:54:35.717078  4575 net.cpp:434] drop6 <- fc6
I0902 12:54:35.717085  4575 net.cpp:395] drop6 -> fc6 (in-place)
I0902 12:54:35.717119  4575 net.cpp:150] Setting up drop6
I0902 12:54:35.717125  4575 net.cpp:157] Top shape: 1 4096 (4096)
I0902 12:54:35.717128  4575 net.cpp:165] Memory required for data: 10631912
I0902 12:54:35.717133  4575 layer_factory.hpp:77] Creating layer fc7-new
I0902 12:54:35.717141  4575 net.cpp:100] Creating Layer fc7-new
I0902 12:54:35.717144  4575 net.cpp:434] fc7-new <- fc6
I0902 12:54:35.717152  4575 net.cpp:408] fc7-new -> fc7
I0902 12:54:35.937469  4575 net.cpp:150] Setting up fc7-new
I0902 12:54:35.937512  4575 net.cpp:157] Top shape: 1 2048 (2048)
I0902 12:54:35.937520  4575 net.cpp:165] Memory required for data: 10640104
I0902 12:54:35.937531  4575 layer_factory.hpp:77] Creating layer relu7
I0902 12:54:35.937544  4575 net.cpp:100] Creating Layer relu7
I0902 12:54:35.937551  4575 net.cpp:434] relu7 <- fc7
I0902 12:54:35.937558  4575 net.cpp:395] relu7 -> fc7 (in-place)
I0902 12:54:35.937772  4575 net.cpp:150] Setting up relu7
I0902 12:54:35.937783  4575 net.cpp:157] Top shape: 1 2048 (2048)
I0902 12:54:35.937788  4575 net.cpp:165] Memory required for data: 10648296
I0902 12:54:35.937791  4575 layer_factory.hpp:77] Creating layer drop7
I0902 12:54:35.937799  4575 net.cpp:100] Creating Layer drop7
I0902 12:54:35.937804  4575 net.cpp:434] drop7 <- fc7
I0902 12:54:35.937809  4575 net.cpp:395] drop7 -> fc7 (in-place)
I0902 12:54:35.937837  4575 net.cpp:150] Setting up drop7
I0902 12:54:35.937844  4575 net.cpp:157] Top shape: 1 2048 (2048)
I0902 12:54:35.937847  4575 net.cpp:165] Memory required for data: 10656488
I0902 12:54:35.937851  4575 layer_factory.hpp:77] Creating layer fc7-newb
I0902 12:54:35.937860  4575 net.cpp:100] Creating Layer fc7-newb
I0902 12:54:35.937865  4575 net.cpp:434] fc7-newb <- fc7
I0902 12:54:35.937870  4575 net.cpp:408] fc7-newb -> fc7b
I0902 12:54:35.993413  4575 net.cpp:150] Setting up fc7-newb
I0902 12:54:35.993460  4575 net.cpp:157] Top shape: 1 1024 (1024)
I0902 12:54:35.993468  4575 net.cpp:165] Memory required for data: 10660584
I0902 12:54:35.993480  4575 layer_factory.hpp:77] Creating layer relu7b
I0902 12:54:35.993495  4575 net.cpp:100] Creating Layer relu7b
I0902 12:54:35.993504  4575 net.cpp:434] relu7b <- fc7b
I0902 12:54:35.993512  4575 net.cpp:395] relu7b -> fc7b (in-place)
I0902 12:54:35.993903  4575 net.cpp:150] Setting up relu7b
I0902 12:54:35.993916  4575 net.cpp:157] Top shape: 1 1024 (1024)
I0902 12:54:35.993919  4575 net.cpp:165] Memory required for data: 10664680
I0902 12:54:35.993923  4575 layer_factory.hpp:77] Creating layer drop7b
I0902 12:54:35.993930  4575 net.cpp:100] Creating Layer drop7b
I0902 12:54:35.993934  4575 net.cpp:434] drop7b <- fc7b
I0902 12:54:35.993940  4575 net.cpp:395] drop7b -> fc7b (in-place)
I0902 12:54:35.993965  4575 net.cpp:150] Setting up drop7b
I0902 12:54:35.993973  4575 net.cpp:157] Top shape: 1 1024 (1024)
I0902 12:54:35.993975  4575 net.cpp:165] Memory required for data: 10668776
I0902 12:54:35.993979  4575 layer_factory.hpp:77] Creating layer fc8-shapes
I0902 12:54:35.993986  4575 net.cpp:100] Creating Layer fc8-shapes
I0902 12:54:35.993996  4575 net.cpp:434] fc8-shapes <- fc7b
I0902 12:54:35.994002  4575 net.cpp:408] fc8-shapes -> fc8
I0902 12:54:35.994200  4575 net.cpp:150] Setting up fc8-shapes
I0902 12:54:35.994207  4575 net.cpp:157] Top shape: 1 4 (4)
I0902 12:54:35.994210  4575 net.cpp:165] Memory required for data: 10668792
I0902 12:54:35.994216  4575 layer_factory.hpp:77] Creating layer neg
I0902 12:54:36.002004  4575 net.cpp:100] Creating Layer neg
I0902 12:54:36.002084  4575 net.cpp:434] neg <- bbox
I0902 12:54:36.002102  4575 net.cpp:408] neg -> bbox_neg
I0902 12:54:36.002270  4575 net.cpp:150] Setting up neg
I0902 12:54:36.002287  4575 net.cpp:157] Top shape: 1 4 1 1 (4)
I0902 12:54:36.002291  4575 net.cpp:165] Memory required for data: 10668808
I0902 12:54:36.002296  4575 layer_factory.hpp:77] Creating layer flatten
I0902 12:54:36.002311  4575 net.cpp:100] Creating Layer flatten
I0902 12:54:36.002315  4575 net.cpp:434] flatten <- bbox_neg
I0902 12:54:36.002326  4575 net.cpp:408] flatten -> bbox_neg_flat
I0902 12:54:36.002365  4575 net.cpp:150] Setting up flatten
I0902 12:54:36.002372  4575 net.cpp:157] Top shape: 1 4 (4)
I0902 12:54:36.002377  4575 net.cpp:165] Memory required for data: 10668824
I0902 12:54:36.002380  4575 layer_factory.hpp:77] Creating layer subtract
I0902 12:54:36.002388  4575 net.cpp:100] Creating Layer subtract
I0902 12:54:36.002393  4575 net.cpp:434] subtract <- fc8
I0902 12:54:36.002398  4575 net.cpp:434] subtract <- bbox_neg_flat
I0902 12:54:36.002406  4575 net.cpp:408] subtract -> out_diff
I0902 12:54:36.002445  4575 net.cpp:150] Setting up subtract
I0902 12:54:36.002452  4575 net.cpp:157] Top shape: 1 4 (4)
I0902 12:54:36.002456  4575 net.cpp:165] Memory required for data: 10668840
I0902 12:54:36.002460  4575 layer_factory.hpp:77] Creating layer abssum
I0902 12:54:36.002470  4575 net.cpp:100] Creating Layer abssum
I0902 12:54:36.002475  4575 net.cpp:434] abssum <- out_diff
I0902 12:54:36.002481  4575 net.cpp:408] abssum -> loss
I0902 12:54:36.002516  4575 net.cpp:150] Setting up abssum
I0902 12:54:36.002521  4575 net.cpp:157] Top shape: (1)
…
