…
W0901 12:29:43.552044  2609 upgrade_proto.cpp:71] Note that future Caffe releases will only support input layers and not input fields.
I0901 12:29:43.552398  2609 net.cpp:58] Initializing net from parameters: 
name: "CaffeNet"
state {
  phase: TRAIN
  level: 0
}
layer {
  name: "input"
  type: "Input"
  top: "target"
  top: "image"
  top: "bbox"
  input_param {
    shape {
      dim: 1
      dim: 3
      dim: 227
      dim: 227
    }
    shape {
      dim: 1
      dim: 3
      dim: 227
      dim: 227
    }
    shape {
      dim: 1
      dim: 4
      dim: 1
      dim: 1
    }
  }
}
layer {
  name: "conv1"
  type: "Convolution"
  bottom: "target"
  top: "conv1"
  param {
    lr_mult: 0
    decay_mult: 1
  }
  param {
    lr_mult: 0
    decay_mult: 0
  }
  convolution_param {
    num_output: 96
    kernel_size: 11
    stride: 4
    weight_filler {
      type: "gaussian"
      std: 0.01
    }
    bias_filler {
      type: "constant"
      value: 0
    }
  }
}
layer {
  name: "relu1"
  type: "ReLU"
  bottom: "conv1"
  top: "conv1"
}
layer {
  name: "pool1"
  type: "Pooling"
  bottom: "conv1"
  top: "pool1"
  pooling_param {
    pool: MAX
    kernel_size: 3
    stride: 2
  }
}
layer {
  name: "norm1"
  type: "LRN"
  bottom: "pool1"
  top: "norm1"
  lrn_param {
    local_size: 5
    alpha: 0.0001
    beta: 0.75
  }
}
layer {
  name: "conv2"
  type: "Convolution"
  bottom: "norm1"
  top: "conv2"
  param {
    lr_mult: 0
    decay_mult: 1
  }
  param {
    lr_mult: 0
    decay_mult: 0
  }
  convolution_param {
    num_output: 256
    pad: 2
    kernel_size: 5
    group: 2
    weight_filler {
      type: "gaussian"
      std: 0.01
    }
    bias_filler {
      type: "constant"
      value: 1
    }
  }
}
layer {
  name: "relu2"
  type: "ReLU"
  bottom: "conv2"
  top: "conv2"
}
layer {
  name: "pool2"
  type: "Pooling"
  bottom: "conv2"
  top: "pool2"
  pooling_param {
    pool: MAX
    kernel_size: 3
    stride: 2
  }
}
layer {
  name: "norm2"
  type: "LRN"
  bottom: "pool2"
  top: "norm2"
  lrn_param {
    local_size: 5
    alpha: 0.0001
    beta: 0.75
  }
}
layer {
  name: "conv3"
  type: "Convolution"
  bottom: "norm2"
  top: "conv3"
  param {
    lr_mult: 0
    decay_mult: 1
  }
  param {
    lr_mult: 0
    decay_mult: 0
  }
  convolution_param {
    num_output: 384
    pad: 1
    kernel_size: 3
    weight_filler {
      type: "gaussian"
      std: 0.01
    }
    bias_filler {
      type: "constant"
      value: 0
    }
  }
}
layer {
  name: "relu3"
  type: "ReLU"
  bottom: "conv3"
  top: "conv3"
}
layer {
  name: "conv4"
  type: "Convolution"
  bottom: "conv3"
  top: "conv4"
  param {
    lr_mult: 0
    decay_mult: 1
  }
  param {
    lr_mult: 0
    decay_mult: 0
  }
  convolution_param {
    num_output: 384
    pad: 1
    kernel_size: 3
    group: 2
    weight_filler {
      type: "gaussian"
      std: 0.01
    }
    bias_filler {
      type: "constant"
      value: 1
    }
  }
}
layer {
  name: "relu4"
  type: "ReLU"
  bottom: "conv4"
  top: "conv4"
}
layer {
  name: "conv5"
  type: "Convolution"
  bottom: "conv4"
  top: "conv5"
  param {
    lr_mult: 0
    decay_mult: 1
  }
  param {
    lr_mult: 0
    decay_mult: 0
  }
  convolution_param {
    num_output: 256
    pad: 1
    kernel_size: 3
    group: 2
    weight_filler {
      type: "gaussian"
      std: 0.01
    }
    bias_filler {
      type: "constant"
      value: 1
    }
  }
}
layer {
  name: "relu5"
  type: "ReLU"
  bottom: "conv5"
  top: "conv5"
}
layer {
  name: "pool5"
  type: "Pooling"
  bottom: "conv5"
  top: "pool5"
  pooling_param {
    pool: MAX
    kernel_size: 3
    stride: 2
  }
}
layer {
  name: "conv1_p"
  type: "Convolution"
  bottom: "image"
  top: "conv1_p"
  param {
    lr_mult: 0
    decay_mult: 1
  }
  param {
    lr_mult: 0
    decay_mult: 0
  }
  convolution_param {
    num_output: 96
    kernel_size: 11
    stride: 4
    weight_filler {
      type: "gaussian"
      std: 0.01
    }
    bias_filler {
      type: "constant"
      value: 0
    }
  }
}
layer {
  name: "relu1_p"
  type: "ReLU"
  bottom: "conv1_p"
  top: "conv1_p"
}
layer {
  name: "pool1_p"
  type: "Pooling"
  bottom: "conv1_p"
  top: "pool1_p"
  pooling_param {
    pool: MAX
    kernel_size: 3
    stride: 2
  }
}
layer {
  name: "norm1_p"
  type: "LRN"
  bottom: "pool1_p"
  top: "norm1_p"
  lrn_param {
    local_size: 5
    alpha: 0.0001
    beta: 0.75
  }
}
layer {
  name: "conv2_p"
  type: "Convolution"
  bottom: "norm1_p"
  top: "conv2_p"
  param {
    lr_mult: 0
    decay_mult: 1
  }
  param {
    lr_mult: 0
    decay_mult: 0
  }
  convolution_param {
    num_output: 256
    pad: 2
    kernel_size: 5
    group: 2
    weight_filler {
      type: "gaussian"
      std: 0.01
    }
    bias_filler {
      type: "constant"
      value: 1
    }
  }
}
layer {
  name: "relu2_p"
  type: "ReLU"
  bottom: "conv2_p"
  top: "conv2_p"
}
layer {
  name: "pool2_p"
  type: "Pooling"
  bottom: "conv2_p"
  top: "pool2_p"
  pooling_param {
    pool: MAX
    kernel_size: 3
    stride: 2
  }
}
layer {
  name: "norm2_p"
  type: "LRN"
  bottom: "pool2_p"
  top: "norm2_p"
  lrn_param {
    local_size: 5
    alpha: 0.0001
    beta: 0.75
  }
}
layer {
  name: "conv3_p"
  type: "Convolution"
  bottom: "norm2_p"
  top: "conv3_p"
  param {
    lr_mult: 0
    decay_mult: 1
  }
  param {
    lr_mult: 0
    decay_mult: 0
  }
  convolution_param {
    num_output: 384
    pad: 1
    kernel_size: 3
    weight_filler {
      type: "gaussian"
      std: 0.01
    }
    bias_filler {
      type: "constant"
      value: 0
    }
  }
}
layer {
  name: "relu3_p"
  type: "ReLU"
  bottom: "conv3_p"
  top: "conv3_p"
}
layer {
  name: "conv4_p"
  type: "Convolution"
  bottom: "conv3_p"
  top: "conv4_p"
  param {
    lr_mult: 0
    decay_mult: 1
  }
  param {
    lr_mult: 0
    decay_mult: 0
  }
  convolution_param {
    num_output: 384
    pad: 1
    kernel_size: 3
    group: 2
    weight_filler {
      type: "gaussian"
      std: 0.01
    }
    bias_filler {
      type: "constant"
      value: 1
    }
  }
}
layer {
  name: "relu4_p"
  type: "ReLU"
  bottom: "conv4_p"
  top: "conv4_p"
}
layer {
  name: "conv5_p"
  type: "Convolution"
  bottom: "conv4_p"
  top: "conv5_p"
  param {
    lr_mult: 0
    decay_mult: 1
  }
  param {
    lr_mult: 0
    decay_mult: 0
  }
  convolution_param {
    num_output: 256
    pad: 1
    kernel_size: 3
    group: 2
    weight_filler {
      type: "gaussian"
      std: 0.01
    }
    bias_filler {
      type: "constant"
      value: 1
    }
  }
}
layer {
  name: "relu5_p"
  type: "ReLU"
  bottom: "conv5_p"
  top: "conv5_p"
}
layer {
  name: "pool5_p"
  type: "Pooling"
  bottom: "conv5_p"
  top: "pool5_p"
  pooling_param {
    pool: MAX
    kernel_size: 3
    stride: 2
  }
}
layer {
  name: "concat"
  type: "Concat"
  bottom: "pool5"
  bottom: "pool5_p"
  top: "pool5_concat"
  concat_param {
    axis: 1
  }
}
layer {
  name: "fc6-new"
  type: "InnerProduct"
  bottom: "pool5_concat"
  top: "fc6"
  param {
    lr_mult: 10
    decay_mult: 1
  }
  param {
    lr_mult: 20
    decay_mult: 0
  }
  inner_product_param {
    num_output: 4096
    weight_filler {
      type: "gaussian"
      std: 0.005
    }
    bias_filler {
      type: "constant"
      value: 1
    }
  }
}
layer {
  name: "relu6"
  type: "ReLU"
  bottom: "fc6"
  top: "fc6"
}
layer {
  name: "drop6"
  type: "Dropout"
  bottom: "fc6"
  top: "fc6"
  dropout_param {
    dropout_ratio: 0.5
  }
}
layer {
  name: "fc7-new"
  type: "InnerProduct"
  bottom: "fc6"
  top: "fc7"
  param {
    lr_mult: 10
    decay_mult: 1
  }
  param {
    lr_mult: 20
    decay_mult: 0
  }
  inner_product_param {
    num_output: 4096
    weight_filler {
      type: "gaussian"
      std: 0.005
    }
    bias_filler {
      type: "constant"
      value: 1
    }
  }
}
layer {
  name: "relu7"
  type: "ReLU"
  bottom: "fc7"
  top: "fc7"
}
layer {
  name: "drop7"
  type: "Dropout"
  bottom: "fc7"
  top: "fc7"
  dropout_param {
    dropout_ratio: 0.5
  }
}
layer {
  name: "fc7-newb"
  type: "InnerProduct"
  bottom: "fc7"
  top: "fc7b"
  param {
    lr_mult: 10
    decay_mult: 1
  }
  param {
    lr_mult: 20
    decay_mult: 0
  }
  inner_product_param {
    num_output: 4096
    weight_filler {
      type: "gaussian"
      std: 0.005
    }
    bias_filler {
      type: "constant"
      value: 1
    }
  }
}
layer {
  name: "relu7b"
  type: "ReLU"
  bottom: "fc7b"
  top: "fc7b"
}
layer {
  name: "drop7b"
  type: "Dropout"
  bottom: "fc7b"
  top: "fc7b"
  dropout_param {
    dropout_ratio: 0.5
  }
}
layer {
  name: "fc8-shapes"
  type: "InnerProduct"
  bottom: "fc7b"
  top: "fc8"
  param {
    lr_mult: 10
    decay_mult: 1
  }
  param {
    lr_mult: 20
    decay_mult: 0
  }
  inner_product_param {
    num_output: 4
    weight_filler {
      type: "gaussian"
      std: 0.01
    }
    bias_filler {
      type: "constant"
      value: 0
    }
  }
}
layer {
  name: "neg"
  type: "Power"
  bottom: "bbox"
  top: "bbox_neg"
  power_param {
    power: 1
    scale: -1
    shift: 0
  }
}
layer {
  name: "flatten"
  type: "Flatten"
  bottom: "bbox_neg"
  top: "bbox_neg_flat"
}
layer {
  name: "subtract"
  type: "Eltwise"
  bottom: "fc8"
  bottom: "bbox_neg_flat"
  top: "out_diff"
}
layer {
  name: "abssum"
  type: "Reduction"
  bottom: "out_diff"
  top: "loss"
  loss_weight: 1
  reduction_param {
    operation: ASUM
  }
}
I0901 12:29:43.552544  2609 layer_factory.hpp:77] Creating layer input
I0901 12:29:43.552563  2609 net.cpp:100] Creating Layer input
I0901 12:29:43.552570  2609 net.cpp:408] input -> target
I0901 12:29:43.552600  2609 net.cpp:408] input -> image
I0901 12:29:43.552610  2609 net.cpp:408] input -> bbox
I0901 12:29:43.558640  2609 net.cpp:150] Setting up input
I0901 12:29:43.558714  2609 net.cpp:157] Top shape: 1 3 227 227 (154587)
I0901 12:29:43.558722  2609 net.cpp:157] Top shape: 1 3 227 227 (154587)
I0901 12:29:43.558727  2609 net.cpp:157] Top shape: 1 4 1 1 (4)
I0901 12:29:43.558729  2609 net.cpp:165] Memory required for data: 1236712
I0901 12:29:43.558743  2609 layer_factory.hpp:77] Creating layer conv1
I0901 12:29:43.558784  2609 net.cpp:100] Creating Layer conv1
I0901 12:29:43.558792  2609 net.cpp:434] conv1 <- target
I0901 12:29:43.558809  2609 net.cpp:408] conv1 -> conv1
I0901 12:29:43.671145  2609 net.cpp:150] Setting up conv1
I0901 12:29:43.671195  2609 net.cpp:157] Top shape: 1 96 55 55 (290400)
I0901 12:29:43.671200  2609 net.cpp:165] Memory required for data: 2398312
I0901 12:29:43.671226  2609 layer_factory.hpp:77] Creating layer relu1
I0901 12:29:43.671238  2609 net.cpp:100] Creating Layer relu1
I0901 12:29:43.671244  2609 net.cpp:434] relu1 <- conv1
I0901 12:29:43.671250  2609 net.cpp:395] relu1 -> conv1 (in-place)
I0901 12:29:43.671408  2609 net.cpp:150] Setting up relu1
I0901 12:29:43.671417  2609 net.cpp:157] Top shape: 1 96 55 55 (290400)
I0901 12:29:43.671422  2609 net.cpp:165] Memory required for data: 3559912
I0901 12:29:43.671424  2609 layer_factory.hpp:77] Creating layer pool1
I0901 12:29:43.671437  2609 net.cpp:100] Creating Layer pool1
I0901 12:29:43.671442  2609 net.cpp:434] pool1 <- conv1
I0901 12:29:43.671447  2609 net.cpp:408] pool1 -> pool1
I0901 12:29:43.671489  2609 net.cpp:150] Setting up pool1
I0901 12:29:43.671495  2609 net.cpp:157] Top shape: 1 96 27 27 (69984)
I0901 12:29:43.671499  2609 net.cpp:165] Memory required for data: 3839848
I0901 12:29:43.671502  2609 layer_factory.hpp:77] Creating layer norm1
I0901 12:29:43.671514  2609 net.cpp:100] Creating Layer norm1
I0901 12:29:43.671519  2609 net.cpp:434] norm1 <- pool1
I0901 12:29:43.671524  2609 net.cpp:408] norm1 -> norm1
I0901 12:29:43.671758  2609 net.cpp:150] Setting up norm1
I0901 12:29:43.671769  2609 net.cpp:157] Top shape: 1 96 27 27 (69984)
I0901 12:29:43.671773  2609 net.cpp:165] Memory required for data: 4119784
I0901 12:29:43.671777  2609 layer_factory.hpp:77] Creating layer conv2
I0901 12:29:43.671792  2609 net.cpp:100] Creating Layer conv2
I0901 12:29:43.671797  2609 net.cpp:434] conv2 <- norm1
I0901 12:29:43.671803  2609 net.cpp:408] conv2 -> conv2
I0901 12:29:43.681749  2609 net.cpp:150] Setting up conv2
I0901 12:29:43.681792  2609 net.cpp:157] Top shape: 1 256 27 27 (186624)
I0901 12:29:43.681797  2609 net.cpp:165] Memory required for data: 4866280
I0901 12:29:43.681824  2609 layer_factory.hpp:77] Creating layer relu2
I0901 12:29:43.681838  2609 net.cpp:100] Creating Layer relu2
I0901 12:29:43.681843  2609 net.cpp:434] relu2 <- conv2
I0901 12:29:43.681850  2609 net.cpp:395] relu2 -> conv2 (in-place)
I0901 12:29:43.681995  2609 net.cpp:150] Setting up relu2
I0901 12:29:43.682004  2609 net.cpp:157] Top shape: 1 256 27 27 (186624)
I0901 12:29:43.682008  2609 net.cpp:165] Memory required for data: 5612776
I0901 12:29:43.682011  2609 layer_factory.hpp:77] Creating layer pool2
I0901 12:29:43.682019  2609 net.cpp:100] Creating Layer pool2
I0901 12:29:43.682023  2609 net.cpp:434] pool2 <- conv2
I0901 12:29:43.682029  2609 net.cpp:408] pool2 -> pool2
I0901 12:29:43.682063  2609 net.cpp:150] Setting up pool2
I0901 12:29:43.682070  2609 net.cpp:157] Top shape: 1 256 13 13 (43264)
I0901 12:29:43.682073  2609 net.cpp:165] Memory required for data: 5785832
I0901 12:29:43.682076  2609 layer_factory.hpp:77] Creating layer norm2
I0901 12:29:43.682085  2609 net.cpp:100] Creating Layer norm2
I0901 12:29:43.682090  2609 net.cpp:434] norm2 <- pool2
I0901 12:29:43.682096  2609 net.cpp:408] norm2 -> norm2
I0901 12:29:43.682333  2609 net.cpp:150] Setting up norm2
I0901 12:29:43.682345  2609 net.cpp:157] Top shape: 1 256 13 13 (43264)
I0901 12:29:43.682349  2609 net.cpp:165] Memory required for data: 5958888
I0901 12:29:43.682353  2609 layer_factory.hpp:77] Creating layer conv3
I0901 12:29:43.682366  2609 net.cpp:100] Creating Layer conv3
I0901 12:29:43.682370  2609 net.cpp:434] conv3 <- norm2
I0901 12:29:43.682379  2609 net.cpp:408] conv3 -> conv3
I0901 12:29:43.707916  2609 net.cpp:150] Setting up conv3
I0901 12:29:43.707957  2609 net.cpp:157] Top shape: 1 384 13 13 (64896)
I0901 12:29:43.707962  2609 net.cpp:165] Memory required for data: 6218472
I0901 12:29:43.707978  2609 layer_factory.hpp:77] Creating layer relu3
I0901 12:29:43.707988  2609 net.cpp:100] Creating Layer relu3
I0901 12:29:43.707993  2609 net.cpp:434] relu3 <- conv3
I0901 12:29:43.708000  2609 net.cpp:395] relu3 -> conv3 (in-place)
I0901 12:29:43.708231  2609 net.cpp:150] Setting up relu3
I0901 12:29:43.708242  2609 net.cpp:157] Top shape: 1 384 13 13 (64896)
I0901 12:29:43.708246  2609 net.cpp:165] Memory required for data: 6478056
I0901 12:29:43.708250  2609 layer_factory.hpp:77] Creating layer conv4
I0901 12:29:43.708261  2609 net.cpp:100] Creating Layer conv4
I0901 12:29:43.708266  2609 net.cpp:434] conv4 <- conv3
I0901 12:29:43.708272  2609 net.cpp:408] conv4 -> conv4
I0901 12:29:43.727977  2609 net.cpp:150] Setting up conv4
I0901 12:29:43.728026  2609 net.cpp:157] Top shape: 1 384 13 13 (64896)
I0901 12:29:43.728036  2609 net.cpp:165] Memory required for data: 6737640
I0901 12:29:43.728054  2609 layer_factory.hpp:77] Creating layer relu4
I0901 12:29:43.728070  2609 net.cpp:100] Creating Layer relu4
I0901 12:29:43.728075  2609 net.cpp:434] relu4 <- conv4
I0901 12:29:43.728083  2609 net.cpp:395] relu4 -> conv4 (in-place)
I0901 12:29:43.728224  2609 net.cpp:150] Setting up relu4
I0901 12:29:43.728233  2609 net.cpp:157] Top shape: 1 384 13 13 (64896)
I0901 12:29:43.728237  2609 net.cpp:165] Memory required for data: 6997224
I0901 12:29:43.728241  2609 layer_factory.hpp:77] Creating layer conv5
I0901 12:29:43.728252  2609 net.cpp:100] Creating Layer conv5
I0901 12:29:43.728257  2609 net.cpp:434] conv5 <- conv4
I0901 12:29:43.728265  2609 net.cpp:408] conv5 -> conv5
I0901 12:29:43.741729  2609 net.cpp:150] Setting up conv5
I0901 12:29:43.741770  2609 net.cpp:157] Top shape: 1 256 13 13 (43264)
I0901 12:29:43.741775  2609 net.cpp:165] Memory required for data: 7170280
I0901 12:29:43.741791  2609 layer_factory.hpp:77] Creating layer relu5
I0901 12:29:43.741802  2609 net.cpp:100] Creating Layer relu5
I0901 12:29:43.741808  2609 net.cpp:434] relu5 <- conv5
I0901 12:29:43.741816  2609 net.cpp:395] relu5 -> conv5 (in-place)
I0901 12:29:43.742046  2609 net.cpp:150] Setting up relu5
I0901 12:29:43.742058  2609 net.cpp:157] Top shape: 1 256 13 13 (43264)
I0901 12:29:43.742061  2609 net.cpp:165] Memory required for data: 7343336
I0901 12:29:43.742074  2609 layer_factory.hpp:77] Creating layer pool5
I0901 12:29:43.742082  2609 net.cpp:100] Creating Layer pool5
I0901 12:29:43.742087  2609 net.cpp:434] pool5 <- conv5
I0901 12:29:43.742092  2609 net.cpp:408] pool5 -> pool5
I0901 12:29:43.742130  2609 net.cpp:150] Setting up pool5
I0901 12:29:43.742136  2609 net.cpp:157] Top shape: 1 256 6 6 (9216)
I0901 12:29:43.742139  2609 net.cpp:165] Memory required for data: 7380200
I0901 12:29:43.742142  2609 layer_factory.hpp:77] Creating layer conv1_p
I0901 12:29:43.742154  2609 net.cpp:100] Creating Layer conv1_p
I0901 12:29:43.742159  2609 net.cpp:434] conv1_p <- image
I0901 12:29:43.742166  2609 net.cpp:408] conv1_p -> conv1_p
I0901 12:29:43.743842  2609 net.cpp:150] Setting up conv1_p
I0901 12:29:43.743855  2609 net.cpp:157] Top shape: 1 96 55 55 (290400)
I0901 12:29:43.743860  2609 net.cpp:165] Memory required for data: 8541800
I0901 12:29:43.743866  2609 layer_factory.hpp:77] Creating layer relu1_p
I0901 12:29:43.743873  2609 net.cpp:100] Creating Layer relu1_p
I0901 12:29:43.743877  2609 net.cpp:434] relu1_p <- conv1_p
I0901 12:29:43.743883  2609 net.cpp:395] relu1_p -> conv1_p (in-place)
I0901 12:29:43.744096  2609 net.cpp:150] Setting up relu1_p
I0901 12:29:43.744107  2609 net.cpp:157] Top shape: 1 96 55 55 (290400)
I0901 12:29:43.744109  2609 net.cpp:165] Memory required for data: 9703400
I0901 12:29:43.744113  2609 layer_factory.hpp:77] Creating layer pool1_p
I0901 12:29:43.744120  2609 net.cpp:100] Creating Layer pool1_p
I0901 12:29:43.744123  2609 net.cpp:434] pool1_p <- conv1_p
I0901 12:29:43.744130  2609 net.cpp:408] pool1_p -> pool1_p
I0901 12:29:43.744163  2609 net.cpp:150] Setting up pool1_p
I0901 12:29:43.744169  2609 net.cpp:157] Top shape: 1 96 27 27 (69984)
I0901 12:29:43.744174  2609 net.cpp:165] Memory required for data: 9983336
I0901 12:29:43.744176  2609 layer_factory.hpp:77] Creating layer norm1_p
I0901 12:29:43.744184  2609 net.cpp:100] Creating Layer norm1_p
I0901 12:29:43.744187  2609 net.cpp:434] norm1_p <- pool1_p
I0901 12:29:43.744194  2609 net.cpp:408] norm1_p -> norm1_p
I0901 12:29:43.744338  2609 net.cpp:150] Setting up norm1_p
I0901 12:29:43.744345  2609 net.cpp:157] Top shape: 1 96 27 27 (69984)
I0901 12:29:43.744355  2609 net.cpp:165] Memory required for data: 10263272
I0901 12:29:43.744360  2609 layer_factory.hpp:77] Creating layer conv2_p
I0901 12:29:43.744369  2609 net.cpp:100] Creating Layer conv2_p
I0901 12:29:43.744372  2609 net.cpp:434] conv2_p <- norm1_p
I0901 12:29:43.744379  2609 net.cpp:408] conv2_p -> conv2_p
I0901 12:29:43.754156  2609 net.cpp:150] Setting up conv2_p
I0901 12:29:43.754194  2609 net.cpp:157] Top shape: 1 256 27 27 (186624)
I0901 12:29:43.754199  2609 net.cpp:165] Memory required for data: 11009768
I0901 12:29:43.754209  2609 layer_factory.hpp:77] Creating layer relu2_p
I0901 12:29:43.754220  2609 net.cpp:100] Creating Layer relu2_p
I0901 12:29:43.754226  2609 net.cpp:434] relu2_p <- conv2_p
I0901 12:29:43.754233  2609 net.cpp:395] relu2_p -> conv2_p (in-place)
I0901 12:29:43.754365  2609 net.cpp:150] Setting up relu2_p
I0901 12:29:43.754374  2609 net.cpp:157] Top shape: 1 256 27 27 (186624)
I0901 12:29:43.754379  2609 net.cpp:165] Memory required for data: 11756264
I0901 12:29:43.754381  2609 layer_factory.hpp:77] Creating layer pool2_p
I0901 12:29:43.754390  2609 net.cpp:100] Creating Layer pool2_p
I0901 12:29:43.754393  2609 net.cpp:434] pool2_p <- conv2_p
I0901 12:29:43.754398  2609 net.cpp:408] pool2_p -> pool2_p
I0901 12:29:43.754433  2609 net.cpp:150] Setting up pool2_p
I0901 12:29:43.754439  2609 net.cpp:157] Top shape: 1 256 13 13 (43264)
I0901 12:29:43.754442  2609 net.cpp:165] Memory required for data: 11929320
I0901 12:29:43.754446  2609 layer_factory.hpp:77] Creating layer norm2_p
I0901 12:29:43.754452  2609 net.cpp:100] Creating Layer norm2_p
I0901 12:29:43.754456  2609 net.cpp:434] norm2_p <- pool2_p
I0901 12:29:43.754468  2609 net.cpp:408] norm2_p -> norm2_p
I0901 12:29:43.754705  2609 net.cpp:150] Setting up norm2_p
I0901 12:29:43.754724  2609 net.cpp:157] Top shape: 1 256 13 13 (43264)
I0901 12:29:43.754727  2609 net.cpp:165] Memory required for data: 12102376
I0901 12:29:43.754731  2609 layer_factory.hpp:77] Creating layer conv3_p
I0901 12:29:43.754743  2609 net.cpp:100] Creating Layer conv3_p
I0901 12:29:43.754747  2609 net.cpp:434] conv3_p <- norm2_p
I0901 12:29:43.754755  2609 net.cpp:408] conv3_p -> conv3_p
I0901 12:29:43.780402  2609 net.cpp:150] Setting up conv3_p
I0901 12:29:43.780441  2609 net.cpp:157] Top shape: 1 384 13 13 (64896)
I0901 12:29:43.780447  2609 net.cpp:165] Memory required for data: 12361960
I0901 12:29:43.780457  2609 layer_factory.hpp:77] Creating layer relu3_p
I0901 12:29:43.780470  2609 net.cpp:100] Creating Layer relu3_p
I0901 12:29:43.780479  2609 net.cpp:434] relu3_p <- conv3_p
I0901 12:29:43.780491  2609 net.cpp:395] relu3_p -> conv3_p (in-place)
I0901 12:29:43.780643  2609 net.cpp:150] Setting up relu3_p
I0901 12:29:43.780653  2609 net.cpp:157] Top shape: 1 384 13 13 (64896)
I0901 12:29:43.780658  2609 net.cpp:165] Memory required for data: 12621544
I0901 12:29:43.780661  2609 layer_factory.hpp:77] Creating layer conv4_p
I0901 12:29:43.780673  2609 net.cpp:100] Creating Layer conv4_p
I0901 12:29:43.780678  2609 net.cpp:434] conv4_p <- conv3_p
I0901 12:29:43.780684  2609 net.cpp:408] conv4_p -> conv4_p
I0901 12:29:43.800458  2609 net.cpp:150] Setting up conv4_p
I0901 12:29:43.800499  2609 net.cpp:157] Top shape: 1 384 13 13 (64896)
I0901 12:29:43.800504  2609 net.cpp:165] Memory required for data: 12881128
I0901 12:29:43.800520  2609 layer_factory.hpp:77] Creating layer relu4_p
I0901 12:29:43.800531  2609 net.cpp:100] Creating Layer relu4_p
I0901 12:29:43.800537  2609 net.cpp:434] relu4_p <- conv4_p
I0901 12:29:43.800545  2609 net.cpp:395] relu4_p -> conv4_p (in-place)
I0901 12:29:43.800681  2609 net.cpp:150] Setting up relu4_p
I0901 12:29:43.800691  2609 net.cpp:157] Top shape: 1 384 13 13 (64896)
I0901 12:29:43.800694  2609 net.cpp:165] Memory required for data: 13140712
I0901 12:29:43.800698  2609 layer_factory.hpp:77] Creating layer conv5_p
I0901 12:29:43.800710  2609 net.cpp:100] Creating Layer conv5_p
I0901 12:29:43.800714  2609 net.cpp:434] conv5_p <- conv4_p
I0901 12:29:43.800720  2609 net.cpp:408] conv5_p -> conv5_p
I0901 12:29:43.814383  2609 net.cpp:150] Setting up conv5_p
I0901 12:29:43.814424  2609 net.cpp:157] Top shape: 1 256 13 13 (43264)
I0901 12:29:43.814429  2609 net.cpp:165] Memory required for data: 13313768
I0901 12:29:43.814440  2609 layer_factory.hpp:77] Creating layer relu5_p
I0901 12:29:43.814450  2609 net.cpp:100] Creating Layer relu5_p
I0901 12:29:43.814456  2609 net.cpp:434] relu5_p <- conv5_p
I0901 12:29:43.814465  2609 net.cpp:395] relu5_p -> conv5_p (in-place)
I0901 12:29:43.814697  2609 net.cpp:150] Setting up relu5_p
I0901 12:29:43.814707  2609 net.cpp:157] Top shape: 1 256 13 13 (43264)
I0901 12:29:43.814712  2609 net.cpp:165] Memory required for data: 13486824
I0901 12:29:43.814715  2609 layer_factory.hpp:77] Creating layer pool5_p
I0901 12:29:43.814723  2609 net.cpp:100] Creating Layer pool5_p
I0901 12:29:43.814728  2609 net.cpp:434] pool5_p <- conv5_p
I0901 12:29:43.814733  2609 net.cpp:408] pool5_p -> pool5_p
I0901 12:29:43.814771  2609 net.cpp:150] Setting up pool5_p
I0901 12:29:43.814777  2609 net.cpp:157] Top shape: 1 256 6 6 (9216)
I0901 12:29:43.814781  2609 net.cpp:165] Memory required for data: 13523688
I0901 12:29:43.814785  2609 layer_factory.hpp:77] Creating layer concat
I0901 12:29:43.814791  2609 net.cpp:100] Creating Layer concat
I0901 12:29:43.814795  2609 net.cpp:434] concat <- pool5
I0901 12:29:43.814800  2609 net.cpp:434] concat <- pool5_p
I0901 12:29:43.814805  2609 net.cpp:408] concat -> pool5_concat
I0901 12:29:43.814826  2609 net.cpp:150] Setting up concat
I0901 12:29:43.814831  2609 net.cpp:157] Top shape: 1 512 6 6 (18432)
I0901 12:29:43.814836  2609 net.cpp:165] Memory required for data: 13597416
I0901 12:29:43.814846  2609 layer_factory.hpp:77] Creating layer fc6-new
I0901 12:29:43.814859  2609 net.cpp:100] Creating Layer fc6-new
I0901 12:29:43.814863  2609 net.cpp:434] fc6-new <- pool5_concat
I0901 12:29:43.814877  2609 net.cpp:408] fc6-new -> fc6
I0901 12:29:45.790083  2609 net.cpp:150] Setting up fc6-new
I0901 12:29:45.790125  2609 net.cpp:157] Top shape: 1 4096 (4096)
I0901 12:29:45.790130  2609 net.cpp:165] Memory required for data: 13613800
I0901 12:29:45.790141  2609 layer_factory.hpp:77] Creating layer relu6
I0901 12:29:45.790153  2609 net.cpp:100] Creating Layer relu6
I0901 12:29:45.790158  2609 net.cpp:434] relu6 <- fc6
I0901 12:29:45.790165  2609 net.cpp:395] relu6 -> fc6 (in-place)
I0901 12:29:45.790503  2609 net.cpp:150] Setting up relu6
I0901 12:29:45.790514  2609 net.cpp:157] Top shape: 1 4096 (4096)
I0901 12:29:45.790518  2609 net.cpp:165] Memory required for data: 13630184
I0901 12:29:45.790523  2609 layer_factory.hpp:77] Creating layer drop6
I0901 12:29:45.790529  2609 net.cpp:100] Creating Layer drop6
I0901 12:29:45.790534  2609 net.cpp:434] drop6 <- fc6
I0901 12:29:45.790544  2609 net.cpp:395] drop6 -> fc6 (in-place)
I0901 12:29:45.790568  2609 net.cpp:150] Setting up drop6
I0901 12:29:45.790573  2609 net.cpp:157] Top shape: 1 4096 (4096)
I0901 12:29:45.790577  2609 net.cpp:165] Memory required for data: 13646568
I0901 12:29:45.790580  2609 layer_factory.hpp:77] Creating layer fc7-new
I0901 12:29:45.790590  2609 net.cpp:100] Creating Layer fc7-new
I0901 12:29:45.790594  2609 net.cpp:434] fc7-new <- fc6
I0901 12:29:45.790601  2609 net.cpp:408] fc7-new -> fc7
I0901 12:29:46.231099  2609 net.cpp:150] Setting up fc7-new
I0901 12:29:46.231140  2609 net.cpp:157] Top shape: 1 4096 (4096)
I0901 12:29:46.231145  2609 net.cpp:165] Memory required for data: 13662952
I0901 12:29:46.231158  2609 layer_factory.hpp:77] Creating layer relu7
I0901 12:29:46.231169  2609 net.cpp:100] Creating Layer relu7
I0901 12:29:46.231175  2609 net.cpp:434] relu7 <- fc7
I0901 12:29:46.231183  2609 net.cpp:395] relu7 -> fc7 (in-place)
I0901 12:29:46.231375  2609 net.cpp:150] Setting up relu7
I0901 12:29:46.231384  2609 net.cpp:157] Top shape: 1 4096 (4096)
I0901 12:29:46.231389  2609 net.cpp:165] Memory required for data: 13679336
I0901 12:29:46.231392  2609 layer_factory.hpp:77] Creating layer drop7
I0901 12:29:46.231398  2609 net.cpp:100] Creating Layer drop7
I0901 12:29:46.231402  2609 net.cpp:434] drop7 <- fc7
I0901 12:29:46.231408  2609 net.cpp:395] drop7 -> fc7 (in-place)
I0901 12:29:46.231431  2609 net.cpp:150] Setting up drop7
I0901 12:29:46.231436  2609 net.cpp:157] Top shape: 1 4096 (4096)
I0901 12:29:46.231439  2609 net.cpp:165] Memory required for data: 13695720
I0901 12:29:46.231442  2609 layer_factory.hpp:77] Creating layer fc7-newb
I0901 12:29:46.231452  2609 net.cpp:100] Creating Layer fc7-newb
I0901 12:29:46.231456  2609 net.cpp:434] fc7-newb <- fc7
I0901 12:29:46.231462  2609 net.cpp:408] fc7-newb -> fc7b
I0901 12:29:46.668210  2609 net.cpp:150] Setting up fc7-newb
I0901 12:29:46.668273  2609 net.cpp:157] Top shape: 1 4096 (4096)
I0901 12:29:46.668283  2609 net.cpp:165] Memory required for data: 13712104
I0901 12:29:46.668300  2609 layer_factory.hpp:77] Creating layer relu7b
I0901 12:29:46.668318  2609 net.cpp:100] Creating Layer relu7b
I0901 12:29:46.668328  2609 net.cpp:434] relu7b <- fc7b
I0901 12:29:46.668339  2609 net.cpp:395] relu7b -> fc7b (in-place)
I0901 12:29:46.668828  2609 net.cpp:150] Setting up relu7b
I0901 12:29:46.668850  2609 net.cpp:157] Top shape: 1 4096 (4096)
I0901 12:29:46.668859  2609 net.cpp:165] Memory required for data: 13728488
I0901 12:29:46.668866  2609 layer_factory.hpp:77] Creating layer drop7b
I0901 12:29:46.668879  2609 net.cpp:100] Creating Layer drop7b
I0901 12:29:46.668886  2609 net.cpp:434] drop7b <- fc7b
I0901 12:29:46.668896  2609 net.cpp:395] drop7b -> fc7b (in-place)
I0901 12:29:46.668936  2609 net.cpp:150] Setting up drop7b
I0901 12:29:46.668948  2609 net.cpp:157] Top shape: 1 4096 (4096)
I0901 12:29:46.668956  2609 net.cpp:165] Memory required for data: 13744872
I0901 12:29:46.668972  2609 layer_factory.hpp:77] Creating layer fc8-shapes
I0901 12:29:46.668985  2609 net.cpp:100] Creating Layer fc8-shapes
I0901 12:29:46.669003  2609 net.cpp:434] fc8-shapes <- fc7b
I0901 12:29:46.669015  2609 net.cpp:408] fc8-shapes -> fc8
I0901 12:29:46.670253  2609 net.cpp:150] Setting up fc8-shapes
I0901 12:29:46.670300  2609 net.cpp:157] Top shape: 1 4 (4)
I0901 12:29:46.670307  2609 net.cpp:165] Memory required for data: 13744888
I0901 12:29:46.670322  2609 layer_factory.hpp:77] Creating layer neg
I0901 12:29:46.670338  2609 net.cpp:100] Creating Layer neg
I0901 12:29:46.670347  2609 net.cpp:434] neg <- bbox
I0901 12:29:46.670361  2609 net.cpp:408] neg -> bbox_neg
I0901 12:29:46.670402  2609 net.cpp:150] Setting up neg
I0901 12:29:46.670414  2609 net.cpp:157] Top shape: 1 4 1 1 (4)
I0901 12:29:46.670423  2609 net.cpp:165] Memory required for data: 13744904
I0901 12:29:46.670428  2609 layer_factory.hpp:77] Creating layer flatten
I0901 12:29:46.670440  2609 net.cpp:100] Creating Layer flatten
I0901 12:29:46.670447  2609 net.cpp:434] flatten <- bbox_neg
I0901 12:29:46.670456  2609 net.cpp:408] flatten -> bbox_neg_flat
I0901 12:29:46.670492  2609 net.cpp:150] Setting up flatten
I0901 12:29:46.670506  2609 net.cpp:157] Top shape: 1 4 (4)
I0901 12:29:46.670511  2609 net.cpp:165] Memory required for data: 13744920
I0901 12:29:46.670518  2609 layer_factory.hpp:77] Creating layer subtract
I0901 12:29:46.670527  2609 net.cpp:100] Creating Layer subtract
I0901 12:29:46.670534  2609 net.cpp:434] subtract <- fc8
I0901 12:29:46.670547  2609 net.cpp:434] subtract <- bbox_neg_flat
I0901 12:29:46.670558  2609 net.cpp:408] subtract -> out_diff
I0901 12:29:46.670593  2609 net.cpp:150] Setting up subtract
I0901 12:29:46.670606  2609 net.cpp:157] Top shape: 1 4 (4)
I0901 12:29:46.670614  2609 net.cpp:165] Memory required for data: 13744936
I0901 12:29:46.670619  2609 layer_factory.hpp:77] Creating layer abssum
I0901 12:29:46.670629  2609 net.cpp:100] Creating Layer abssum
I0901 12:29:46.670637  2609 net.cpp:434] abssum <- out_diff
I0901 12:29:46.670650  2609 net.cpp:408] abssum -> loss
I0901 12:29:46.670687  2609 net.cpp:150] Setting up abssum
I0901 12:29:46.670699  2609 net.cpp:157] Top shape: (1)
…
