…
W0914 08:26:56.211664  5330 upgrade_proto.cpp:71] Note that future Caffe releases will only support input layers and not input fields.
I0914 08:26:56.227056  5330 net.cpp:58] Initializing net from parameters: 
name: "CaffeNet"
state {
  phase: TRAIN
  level: 0
}
layer {
  name: "input"
  type: "Input"
  top: "target"
  top: "image"
  top: "bbox"
  input_param {
    shape {
      dim: 1
      dim: 3
      dim: 227
      dim: 227
    }
    shape {
      dim: 1
      dim: 3
      dim: 227
      dim: 227
    }
    shape {
      dim: 1
      dim: 4
      dim: 1
      dim: 1
    }
  }
}
layer {
  name: "conv1"
  type: "Convolution"
  bottom: "target"
  top: "conv1"
  param {
    lr_mult: 0
    decay_mult: 1
  }
  param {
    lr_mult: 0
    decay_mult: 0
  }
  convolution_param {
    num_output: 96
    kernel_size: 11
    stride: 4
    weight_filler {
      type: "gaussian"
      std: 0.01
    }
    bias_filler {
      type: "constant"
      value: 0
    }
  }
}
layer {
  name: "relu1"
  type: "ReLU"
  bottom: "conv1"
  top: "conv1"
}
layer {
  name: "pool1"
  type: "Pooling"
  bottom: "conv1"
  top: "pool1"
  pooling_param {
    pool: MAX
    kernel_size: 3
    stride: 2
  }
}
layer {
  name: "norm1"
  type: "LRN"
  bottom: "pool1"
  top: "norm1"
  lrn_param {
    local_size: 5
    alpha: 0.0001
    beta: 0.75
  }
}
layer {
  name: "conv2"
  type: "Convolution"
  bottom: "norm1"
  top: "conv2"
  param {
    lr_mult: 0
    decay_mult: 1
  }
  param {
    lr_mult: 0
    decay_mult: 0
  }
  convolution_param {
    num_output: 256
    kernel_size: 5
    group: 2
    weight_filler {
      type: "gaussian"
      std: 0.01
    }
    bias_filler {
      type: "constant"
      value: 1
    }
  }
}
layer {
  name: "relu2"
  type: "ReLU"
  bottom: "conv2"
  top: "conv2"
}
layer {
  name: "pool2"
  type: "Pooling"
  bottom: "conv2"
  top: "pool2"
  pooling_param {
    pool: MAX
    kernel_size: 3
    stride: 2
  }
}
layer {
  name: "norm2"
  type: "LRN"
  bottom: "pool2"
  top: "norm2"
  lrn_param {
    local_size: 5
    alpha: 0.0001
    beta: 0.75
  }
}
layer {
  name: "conv3"
  type: "Convolution"
  bottom: "norm2"
  top: "conv3"
  param {
    lr_mult: 0
    decay_mult: 1
  }
  param {
    lr_mult: 0
    decay_mult: 0
  }
  convolution_param {
    num_output: 384
    kernel_size: 3
    weight_filler {
      type: "gaussian"
      std: 0.01
    }
    bias_filler {
      type: "constant"
      value: 0
    }
  }
}
layer {
  name: "relu3"
  type: "ReLU"
  bottom: "conv3"
  top: "conv3"
}
layer {
  name: "conv4"
  type: "Convolution"
  bottom: "conv3"
  top: "conv4"
  param {
    lr_mult: 0
    decay_mult: 1
  }
  param {
    lr_mult: 0
    decay_mult: 0
  }
  convolution_param {
    num_output: 384
    kernel_size: 3
    group: 2
    weight_filler {
      type: "gaussian"
      std: 0.01
    }
    bias_filler {
      type: "constant"
      value: 1
    }
  }
}
layer {
  name: "relu4"
  type: "ReLU"
  bottom: "conv4"
  top: "conv4"
}
layer {
  name: "conv1_p"
  type: "Convolution"
  bottom: "image"
  top: "conv1_p"
  param {
    lr_mult: 10
    decay_mult: 1
  }
  param {
    lr_mult: 20
    decay_mult: 0
  }
  convolution_param {
    num_output: 96
    kernel_size: 11
    stride: 4
    weight_filler {
      type: "gaussian"
      std: 0.01
    }
    bias_filler {
      type: "constant"
      value: 0
    }
  }
}
layer {
  name: "relu1_p"
  type: "ReLU"
  bottom: "conv1_p"
  top: "conv1_p"
}
layer {
  name: "pool1_p"
  type: "Pooling"
  bottom: "conv1_p"
  top: "pool1_p"
  pooling_param {
    pool: MAX
    kernel_size: 3
    stride: 2
  }
}
layer {
  name: "norm1_p"
  type: "LRN"
  bottom: "pool1_p"
  top: "norm1_p"
  lrn_param {
    local_size: 5
    alpha: 0.0001
    beta: 0.75
  }
}
layer {
  name: "conv2_p"
  type: "Convolution"
  bottom: "norm1_p"
  top: "conv2_p"
  param {
    lr_mult: 10
    decay_mult: 1
  }
  param {
    lr_mult: 20
    decay_mult: 0
  }
  convolution_param {
    num_output: 256
    kernel_size: 5
    group: 2
    weight_filler {
      type: "gaussian"
      std: 0.01
    }
    bias_filler {
      type: "constant"
      value: 1
    }
  }
}
layer {
  name: "relu2_p"
  type: "ReLU"
  bottom: "conv2_p"
  top: "conv2_p"
}
layer {
  name: "pool2_p"
  type: "Pooling"
  bottom: "conv2_p"
  top: "pool2_p"
  pooling_param {
    pool: MAX
    kernel_size: 3
    stride: 2
  }
}
layer {
  name: "norm2_p"
  type: "LRN"
  bottom: "pool2_p"
  top: "norm2_p"
  lrn_param {
    local_size: 5
    alpha: 0.0001
    beta: 0.75
  }
}
layer {
  name: "conv3_p"
  type: "Convolution"
  bottom: "norm2_p"
  top: "conv3_p"
  param {
    lr_mult: 10
    decay_mult: 1
  }
  param {
    lr_mult: 20
    decay_mult: 0
  }
  convolution_param {
    num_output: 384
    kernel_size: 3
    weight_filler {
      type: "gaussian"
      std: 0.01
    }
    bias_filler {
      type: "constant"
      value: 0
    }
  }
}
layer {
  name: "relu3_p"
  type: "ReLU"
  bottom: "conv3_p"
  top: "conv3_p"
}
layer {
  name: "conv4_p"
  type: "Convolution"
  bottom: "conv3_p"
  top: "conv4_p"
  param {
    lr_mult: 10
    decay_mult: 1
  }
  param {
    lr_mult: 20
    decay_mult: 0
  }
  convolution_param {
    num_output: 384
    kernel_size: 3
    group: 2
    weight_filler {
      type: "gaussian"
      std: 0.01
    }
    bias_filler {
      type: "constant"
      value: 1
    }
  }
}
layer {
  name: "relu4_p"
  type: "ReLU"
  bottom: "conv4_p"
  top: "conv4_p"
}
layer {
  name: "concat"
  type: "Concat"
  bottom: "conv4"
  bottom: "conv4_p"
  top: "conv4_concat"
  concat_param {
    axis: 1
  }
}
layer {
  name: "fc6-new"
  type: "InnerProduct"
  bottom: "conv4_concat"
  top: "fc6"
  param {
    lr_mult: 10
    decay_mult: 1
  }
  param {
    lr_mult: 20
    decay_mult: 0
  }
  inner_product_param {
    num_output: 4096
    weight_filler {
      type: "gaussian"
      std: 0.005
    }
    bias_filler {
      type: "constant"
      value: 1
    }
  }
}
layer {
  name: "relu6"
  type: "ReLU"
  bottom: "fc6"
  top: "fc6"
}
layer {
  name: "drop6"
  type: "Dropout"
  bottom: "fc6"
  top: "fc6"
  dropout_param {
    dropout_ratio: 0.5
  }
}
layer {
  name: "fc7-new"
  type: "InnerProduct"
  bottom: "fc6"
  top: "fc7"
  param {
    lr_mult: 10
    decay_mult: 1
  }
  param {
    lr_mult: 20
    decay_mult: 0
  }
  inner_product_param {
    num_output: 2048
    weight_filler {
      type: "gaussian"
      std: 0.005
    }
    bias_filler {
      type: "constant"
      value: 1
    }
  }
}
layer {
  name: "relu7"
  type: "ReLU"
  bottom: "fc7"
  top: "fc7"
}
layer {
  name: "drop7"
  type: "Dropout"
  bottom: "fc7"
  top: "fc7"
  dropout_param {
    dropout_ratio: 0.5
  }
}
layer {
  name: "fc7-newb"
  type: "InnerProduct"
  bottom: "fc7"
  top: "fc7b"
  param {
    lr_mult: 10
    decay_mult: 1
  }
  param {
    lr_mult: 20
    decay_mult: 0
  }
  inner_product_param {
    num_output: 1024
    weight_filler {
      type: "gaussian"
      std: 0.005
    }
    bias_filler {
      type: "constant"
      value: 1
    }
  }
}
layer {
  name: "relu7b"
  type: "ReLU"
  bottom: "fc7b"
  top: "fc7b"
}
layer {
  name: "drop7b"
  type: "Dropout"
  bottom: "fc7b"
  top: "fc7b"
  dropout_param {
    dropout_ratio: 0.5
  }
}
layer {
  name: "fc8-shapes"
  type: "InnerProduct"
  bottom: "fc7b"
  top: "fc8"
  param {
    lr_mult: 10
    decay_mult: 1
  }
  param {
    lr_mult: 20
    decay_mult: 0
  }
  inner_product_param {
    num_output: 4
    weight_filler {
      type: "gaussian"
      std: 0.01
    }
    bias_filler {
      type: "constant"
      value: 0
    }
  }
}
layer {
  name: "neg"
  type: "Power"
  bottom: "bbox"
  top: "bbox_neg"
  power_param {
    power: 1
    scale: -1
    shift: 0
  }
}
layer {
  name: "flatten"
  type: "Flatten"
  bottom: "bbox_neg"
  top: "bbox_neg_flat"
}
layer {
  name: "subtract"
  type: "Eltwise"
  bottom: "fc8"
  bottom: "bbox_neg_flat"
  top: "out_diff"
}
layer {
  name: "abssum"
  type: "Reduction"
  bottom: "out_diff"
  top: "loss"
  loss_weight: 1
  reduction_param {
    operation: ASUM
  }
}
I0914 08:26:56.227284  5330 layer_factory.hpp:77] Creating layer input
I0914 08:26:56.227320  5330 net.cpp:100] Creating Layer input
I0914 08:26:56.227341  5330 net.cpp:408] input -> target
I0914 08:26:56.227385  5330 net.cpp:408] input -> image
I0914 08:26:56.227401  5330 net.cpp:408] input -> bbox
I0914 08:26:56.254762  5330 net.cpp:150] Setting up input
I0914 08:26:56.254814  5330 net.cpp:157] Top shape: 1 3 227 227 (154587)
I0914 08:26:56.254822  5330 net.cpp:157] Top shape: 1 3 227 227 (154587)
I0914 08:26:56.254827  5330 net.cpp:157] Top shape: 1 4 1 1 (4)
I0914 08:26:56.254829  5330 net.cpp:165] Memory required for data: 1236712
I0914 08:26:56.254839  5330 layer_factory.hpp:77] Creating layer conv1
I0914 08:26:56.254874  5330 net.cpp:100] Creating Layer conv1
I0914 08:26:56.254881  5330 net.cpp:434] conv1 <- target
I0914 08:26:56.254894  5330 net.cpp:408] conv1 -> conv1
I0914 08:26:56.381144  5330 net.cpp:150] Setting up conv1
I0914 08:26:56.381186  5330 net.cpp:157] Top shape: 1 96 55 55 (290400)
I0914 08:26:56.381192  5330 net.cpp:165] Memory required for data: 2398312
I0914 08:26:56.381212  5330 layer_factory.hpp:77] Creating layer relu1
I0914 08:26:56.381235  5330 net.cpp:100] Creating Layer relu1
I0914 08:26:56.381240  5330 net.cpp:434] relu1 <- conv1
I0914 08:26:56.381245  5330 net.cpp:395] relu1 -> conv1 (in-place)
I0914 08:26:56.381521  5330 net.cpp:150] Setting up relu1
I0914 08:26:56.381532  5330 net.cpp:157] Top shape: 1 96 55 55 (290400)
I0914 08:26:56.381536  5330 net.cpp:165] Memory required for data: 3559912
I0914 08:26:56.381541  5330 layer_factory.hpp:77] Creating layer pool1
I0914 08:26:56.381561  5330 net.cpp:100] Creating Layer pool1
I0914 08:26:56.381566  5330 net.cpp:434] pool1 <- conv1
I0914 08:26:56.381572  5330 net.cpp:408] pool1 -> pool1
I0914 08:26:56.381618  5330 net.cpp:150] Setting up pool1
I0914 08:26:56.381624  5330 net.cpp:157] Top shape: 1 96 27 27 (69984)
I0914 08:26:56.381628  5330 net.cpp:165] Memory required for data: 3839848
I0914 08:26:56.381633  5330 layer_factory.hpp:77] Creating layer norm1
I0914 08:26:56.381641  5330 net.cpp:100] Creating Layer norm1
I0914 08:26:56.381645  5330 net.cpp:434] norm1 <- pool1
I0914 08:26:56.381650  5330 net.cpp:408] norm1 -> norm1
I0914 08:26:56.381780  5330 net.cpp:150] Setting up norm1
I0914 08:26:56.381789  5330 net.cpp:157] Top shape: 1 96 27 27 (69984)
I0914 08:26:56.381793  5330 net.cpp:165] Memory required for data: 4119784
I0914 08:26:56.381796  5330 layer_factory.hpp:77] Creating layer conv2
I0914 08:26:56.381806  5330 net.cpp:100] Creating Layer conv2
I0914 08:26:56.381810  5330 net.cpp:434] conv2 <- norm1
I0914 08:26:56.381815  5330 net.cpp:408] conv2 -> conv2
I0914 08:26:56.390753  5330 net.cpp:150] Setting up conv2
I0914 08:26:56.390768  5330 net.cpp:157] Top shape: 1 256 23 23 (135424)
I0914 08:26:56.390771  5330 net.cpp:165] Memory required for data: 4661480
I0914 08:26:56.390780  5330 layer_factory.hpp:77] Creating layer relu2
I0914 08:26:56.390786  5330 net.cpp:100] Creating Layer relu2
I0914 08:26:56.390790  5330 net.cpp:434] relu2 <- conv2
I0914 08:26:56.390795  5330 net.cpp:395] relu2 -> conv2 (in-place)
I0914 08:26:56.390909  5330 net.cpp:150] Setting up relu2
I0914 08:26:56.390918  5330 net.cpp:157] Top shape: 1 256 23 23 (135424)
I0914 08:26:56.390921  5330 net.cpp:165] Memory required for data: 5203176
I0914 08:26:56.390924  5330 layer_factory.hpp:77] Creating layer pool2
I0914 08:26:56.390930  5330 net.cpp:100] Creating Layer pool2
I0914 08:26:56.390934  5330 net.cpp:434] pool2 <- conv2
I0914 08:26:56.390939  5330 net.cpp:408] pool2 -> pool2
I0914 08:26:56.390969  5330 net.cpp:150] Setting up pool2
I0914 08:26:56.390974  5330 net.cpp:157] Top shape: 1 256 11 11 (30976)
I0914 08:26:56.390977  5330 net.cpp:165] Memory required for data: 5327080
I0914 08:26:56.390980  5330 layer_factory.hpp:77] Creating layer norm2
I0914 08:26:56.390986  5330 net.cpp:100] Creating Layer norm2
I0914 08:26:56.390990  5330 net.cpp:434] norm2 <- pool2
I0914 08:26:56.391000  5330 net.cpp:408] norm2 -> norm2
I0914 08:26:56.391247  5330 net.cpp:150] Setting up norm2
I0914 08:26:56.391269  5330 net.cpp:157] Top shape: 1 256 11 11 (30976)
I0914 08:26:56.391294  5330 net.cpp:165] Memory required for data: 5450984
I0914 08:26:56.391297  5330 layer_factory.hpp:77] Creating layer conv3
I0914 08:26:56.391306  5330 net.cpp:100] Creating Layer conv3
I0914 08:26:56.391310  5330 net.cpp:434] conv3 <- norm2
I0914 08:26:56.391316  5330 net.cpp:408] conv3 -> conv3
I0914 08:26:56.413691  5330 net.cpp:150] Setting up conv3
I0914 08:26:56.413717  5330 net.cpp:157] Top shape: 1 384 9 9 (31104)
I0914 08:26:56.413722  5330 net.cpp:165] Memory required for data: 5575400
I0914 08:26:56.413732  5330 layer_factory.hpp:77] Creating layer relu3
I0914 08:26:56.413738  5330 net.cpp:100] Creating Layer relu3
I0914 08:26:56.413743  5330 net.cpp:434] relu3 <- conv3
I0914 08:26:56.413758  5330 net.cpp:395] relu3 -> conv3 (in-place)
I0914 08:26:56.413883  5330 net.cpp:150] Setting up relu3
I0914 08:26:56.413892  5330 net.cpp:157] Top shape: 1 384 9 9 (31104)
I0914 08:26:56.413895  5330 net.cpp:165] Memory required for data: 5699816
I0914 08:26:56.413899  5330 layer_factory.hpp:77] Creating layer conv4
I0914 08:26:56.413908  5330 net.cpp:100] Creating Layer conv4
I0914 08:26:56.413911  5330 net.cpp:434] conv4 <- conv3
I0914 08:26:56.413918  5330 net.cpp:408] conv4 -> conv4
I0914 08:26:56.431646  5330 net.cpp:150] Setting up conv4
I0914 08:26:56.431679  5330 net.cpp:157] Top shape: 1 384 7 7 (18816)
I0914 08:26:56.431684  5330 net.cpp:165] Memory required for data: 5775080
I0914 08:26:56.431691  5330 layer_factory.hpp:77] Creating layer relu4
I0914 08:26:56.431701  5330 net.cpp:100] Creating Layer relu4
I0914 08:26:56.431705  5330 net.cpp:434] relu4 <- conv4
I0914 08:26:56.431721  5330 net.cpp:395] relu4 -> conv4 (in-place)
I0914 08:26:56.431849  5330 net.cpp:150] Setting up relu4
I0914 08:26:56.431856  5330 net.cpp:157] Top shape: 1 384 7 7 (18816)
I0914 08:26:56.431859  5330 net.cpp:165] Memory required for data: 5850344
I0914 08:26:56.431864  5330 layer_factory.hpp:77] Creating layer conv1_p
I0914 08:26:56.431872  5330 net.cpp:100] Creating Layer conv1_p
I0914 08:26:56.431877  5330 net.cpp:434] conv1_p <- image
I0914 08:26:56.431884  5330 net.cpp:408] conv1_p -> conv1_p
I0914 08:26:56.433472  5330 net.cpp:150] Setting up conv1_p
I0914 08:26:56.433485  5330 net.cpp:157] Top shape: 1 96 55 55 (290400)
I0914 08:26:56.433488  5330 net.cpp:165] Memory required for data: 7011944
I0914 08:26:56.433497  5330 layer_factory.hpp:77] Creating layer relu1_p
I0914 08:26:56.433503  5330 net.cpp:100] Creating Layer relu1_p
I0914 08:26:56.433507  5330 net.cpp:434] relu1_p <- conv1_p
I0914 08:26:56.433513  5330 net.cpp:395] relu1_p -> conv1_p (in-place)
I0914 08:26:56.433715  5330 net.cpp:150] Setting up relu1_p
I0914 08:26:56.433725  5330 net.cpp:157] Top shape: 1 96 55 55 (290400)
I0914 08:26:56.433729  5330 net.cpp:165] Memory required for data: 8173544
I0914 08:26:56.433733  5330 layer_factory.hpp:77] Creating layer pool1_p
I0914 08:26:56.433740  5330 net.cpp:100] Creating Layer pool1_p
I0914 08:26:56.433744  5330 net.cpp:434] pool1_p <- conv1_p
I0914 08:26:56.433749  5330 net.cpp:408] pool1_p -> pool1_p
I0914 08:26:56.433782  5330 net.cpp:150] Setting up pool1_p
I0914 08:26:56.433789  5330 net.cpp:157] Top shape: 1 96 27 27 (69984)
I0914 08:26:56.433791  5330 net.cpp:165] Memory required for data: 8453480
I0914 08:26:56.433795  5330 layer_factory.hpp:77] Creating layer norm1_p
I0914 08:26:56.433804  5330 net.cpp:100] Creating Layer norm1_p
I0914 08:26:56.433807  5330 net.cpp:434] norm1_p <- pool1_p
I0914 08:26:56.433812  5330 net.cpp:408] norm1_p -> norm1_p
I0914 08:26:56.433959  5330 net.cpp:150] Setting up norm1_p
I0914 08:26:56.433966  5330 net.cpp:157] Top shape: 1 96 27 27 (69984)
I0914 08:26:56.433970  5330 net.cpp:165] Memory required for data: 8733416
I0914 08:26:56.433974  5330 layer_factory.hpp:77] Creating layer conv2_p
I0914 08:26:56.433982  5330 net.cpp:100] Creating Layer conv2_p
I0914 08:26:56.433990  5330 net.cpp:434] conv2_p <- norm1_p
I0914 08:26:56.433997  5330 net.cpp:408] conv2_p -> conv2_p
I0914 08:26:56.442842  5330 net.cpp:150] Setting up conv2_p
I0914 08:26:56.442883  5330 net.cpp:157] Top shape: 1 256 23 23 (135424)
I0914 08:26:56.442888  5330 net.cpp:165] Memory required for data: 9275112
I0914 08:26:56.442894  5330 layer_factory.hpp:77] Creating layer relu2_p
I0914 08:26:56.442900  5330 net.cpp:100] Creating Layer relu2_p
I0914 08:26:56.442905  5330 net.cpp:434] relu2_p <- conv2_p
I0914 08:26:56.442921  5330 net.cpp:395] relu2_p -> conv2_p (in-place)
I0914 08:26:56.443050  5330 net.cpp:150] Setting up relu2_p
I0914 08:26:56.443058  5330 net.cpp:157] Top shape: 1 256 23 23 (135424)
I0914 08:26:56.443063  5330 net.cpp:165] Memory required for data: 9816808
I0914 08:26:56.443065  5330 layer_factory.hpp:77] Creating layer pool2_p
I0914 08:26:56.443071  5330 net.cpp:100] Creating Layer pool2_p
I0914 08:26:56.443075  5330 net.cpp:434] pool2_p <- conv2_p
I0914 08:26:56.443080  5330 net.cpp:408] pool2_p -> pool2_p
I0914 08:26:56.443114  5330 net.cpp:150] Setting up pool2_p
I0914 08:26:56.443120  5330 net.cpp:157] Top shape: 1 256 11 11 (30976)
I0914 08:26:56.443122  5330 net.cpp:165] Memory required for data: 9940712
I0914 08:26:56.443125  5330 layer_factory.hpp:77] Creating layer norm2_p
I0914 08:26:56.443132  5330 net.cpp:100] Creating Layer norm2_p
I0914 08:26:56.443135  5330 net.cpp:434] norm2_p <- pool2_p
I0914 08:26:56.443140  5330 net.cpp:408] norm2_p -> norm2_p
I0914 08:26:56.443363  5330 net.cpp:150] Setting up norm2_p
I0914 08:26:56.443375  5330 net.cpp:157] Top shape: 1 256 11 11 (30976)
I0914 08:26:56.443378  5330 net.cpp:165] Memory required for data: 10064616
I0914 08:26:56.443382  5330 layer_factory.hpp:77] Creating layer conv3_p
I0914 08:26:56.443392  5330 net.cpp:100] Creating Layer conv3_p
I0914 08:26:56.443397  5330 net.cpp:434] conv3_p <- norm2_p
I0914 08:26:56.443402  5330 net.cpp:408] conv3_p -> conv3_p
I0914 08:26:56.465858  5330 net.cpp:150] Setting up conv3_p
I0914 08:26:56.465890  5330 net.cpp:157] Top shape: 1 384 9 9 (31104)
I0914 08:26:56.465895  5330 net.cpp:165] Memory required for data: 10189032
I0914 08:26:56.465903  5330 layer_factory.hpp:77] Creating layer relu3_p
I0914 08:26:56.465910  5330 net.cpp:100] Creating Layer relu3_p
I0914 08:26:56.465914  5330 net.cpp:434] relu3_p <- conv3_p
I0914 08:26:56.465930  5330 net.cpp:395] relu3_p -> conv3_p (in-place)
I0914 08:26:56.466065  5330 net.cpp:150] Setting up relu3_p
I0914 08:26:56.466074  5330 net.cpp:157] Top shape: 1 384 9 9 (31104)
I0914 08:26:56.466078  5330 net.cpp:165] Memory required for data: 10313448
I0914 08:26:56.466083  5330 layer_factory.hpp:77] Creating layer conv4_p
I0914 08:26:56.466091  5330 net.cpp:100] Creating Layer conv4_p
I0914 08:26:56.466095  5330 net.cpp:434] conv4_p <- conv3_p
I0914 08:26:56.466102  5330 net.cpp:408] conv4_p -> conv4_p
I0914 08:26:56.483686  5330 net.cpp:150] Setting up conv4_p
I0914 08:26:56.483716  5330 net.cpp:157] Top shape: 1 384 7 7 (18816)
I0914 08:26:56.483721  5330 net.cpp:165] Memory required for data: 10388712
I0914 08:26:56.483728  5330 layer_factory.hpp:77] Creating layer relu4_p
I0914 08:26:56.483736  5330 net.cpp:100] Creating Layer relu4_p
I0914 08:26:56.483739  5330 net.cpp:434] relu4_p <- conv4_p
I0914 08:26:56.483757  5330 net.cpp:395] relu4_p -> conv4_p (in-place)
I0914 08:26:56.483886  5330 net.cpp:150] Setting up relu4_p
I0914 08:26:56.483893  5330 net.cpp:157] Top shape: 1 384 7 7 (18816)
I0914 08:26:56.483897  5330 net.cpp:165] Memory required for data: 10463976
I0914 08:26:56.483901  5330 layer_factory.hpp:77] Creating layer concat
I0914 08:26:56.483907  5330 net.cpp:100] Creating Layer concat
I0914 08:26:56.483911  5330 net.cpp:434] concat <- conv4
I0914 08:26:56.483916  5330 net.cpp:434] concat <- conv4_p
I0914 08:26:56.483921  5330 net.cpp:408] concat -> conv4_concat
I0914 08:26:56.483945  5330 net.cpp:150] Setting up concat
I0914 08:26:56.483952  5330 net.cpp:157] Top shape: 1 768 7 7 (37632)
I0914 08:26:56.483955  5330 net.cpp:165] Memory required for data: 10614504
I0914 08:26:56.483963  5330 layer_factory.hpp:77] Creating layer fc6-new
I0914 08:26:56.483973  5330 net.cpp:100] Creating Layer fc6-new
I0914 08:26:56.483981  5330 net.cpp:434] fc6-new <- conv4_concat
I0914 08:26:56.483986  5330 net.cpp:408] fc6-new -> fc6
I0914 08:27:00.333068  5330 net.cpp:150] Setting up fc6-new
I0914 08:27:00.333115  5330 net.cpp:157] Top shape: 1 4096 (4096)
I0914 08:27:00.333122  5330 net.cpp:165] Memory required for data: 10630888
I0914 08:27:00.333138  5330 layer_factory.hpp:77] Creating layer relu6
I0914 08:27:00.333150  5330 net.cpp:100] Creating Layer relu6
I0914 08:27:00.333168  5330 net.cpp:434] relu6 <- fc6
I0914 08:27:00.333174  5330 net.cpp:395] relu6 -> fc6 (in-place)
I0914 08:27:00.333500  5330 net.cpp:150] Setting up relu6
I0914 08:27:00.333514  5330 net.cpp:157] Top shape: 1 4096 (4096)
I0914 08:27:00.333518  5330 net.cpp:165] Memory required for data: 10647272
I0914 08:27:00.333523  5330 layer_factory.hpp:77] Creating layer drop6
I0914 08:27:00.333529  5330 net.cpp:100] Creating Layer drop6
I0914 08:27:00.333534  5330 net.cpp:434] drop6 <- fc6
I0914 08:27:00.333540  5330 net.cpp:395] drop6 -> fc6 (in-place)
I0914 08:27:00.333570  5330 net.cpp:150] Setting up drop6
I0914 08:27:00.333575  5330 net.cpp:157] Top shape: 1 4096 (4096)
I0914 08:27:00.333580  5330 net.cpp:165] Memory required for data: 10663656
I0914 08:27:00.333583  5330 layer_factory.hpp:77] Creating layer fc7-new
I0914 08:27:00.333591  5330 net.cpp:100] Creating Layer fc7-new
I0914 08:27:00.333595  5330 net.cpp:434] fc7-new <- fc6
I0914 08:27:00.333601  5330 net.cpp:408] fc7-new -> fc7
I0914 08:27:00.542565  5330 net.cpp:150] Setting up fc7-new
I0914 08:27:00.542610  5330 net.cpp:157] Top shape: 1 2048 (2048)
I0914 08:27:00.542618  5330 net.cpp:165] Memory required for data: 10671848
I0914 08:27:00.542628  5330 layer_factory.hpp:77] Creating layer relu7
I0914 08:27:00.542640  5330 net.cpp:100] Creating Layer relu7
I0914 08:27:00.542656  5330 net.cpp:434] relu7 <- fc7
I0914 08:27:00.542664  5330 net.cpp:395] relu7 -> fc7 (in-place)
I0914 08:27:00.542870  5330 net.cpp:150] Setting up relu7
I0914 08:27:00.542881  5330 net.cpp:157] Top shape: 1 2048 (2048)
I0914 08:27:00.542884  5330 net.cpp:165] Memory required for data: 10680040
I0914 08:27:00.542888  5330 layer_factory.hpp:77] Creating layer drop7
I0914 08:27:00.542896  5330 net.cpp:100] Creating Layer drop7
I0914 08:27:00.542899  5330 net.cpp:434] drop7 <- fc7
I0914 08:27:00.542906  5330 net.cpp:395] drop7 -> fc7 (in-place)
I0914 08:27:00.542932  5330 net.cpp:150] Setting up drop7
I0914 08:27:00.542937  5330 net.cpp:157] Top shape: 1 2048 (2048)
I0914 08:27:00.542942  5330 net.cpp:165] Memory required for data: 10688232
I0914 08:27:00.542944  5330 layer_factory.hpp:77] Creating layer fc7-newb
I0914 08:27:00.542958  5330 net.cpp:100] Creating Layer fc7-newb
I0914 08:27:00.542963  5330 net.cpp:434] fc7-newb <- fc7
I0914 08:27:00.542969  5330 net.cpp:408] fc7-newb -> fc7b
I0914 08:27:00.595412  5330 net.cpp:150] Setting up fc7-newb
I0914 08:27:00.595454  5330 net.cpp:157] Top shape: 1 1024 (1024)
I0914 08:27:00.595460  5330 net.cpp:165] Memory required for data: 10692328
I0914 08:27:00.595470  5330 layer_factory.hpp:77] Creating layer relu7b
I0914 08:27:00.595481  5330 net.cpp:100] Creating Layer relu7b
I0914 08:27:00.595486  5330 net.cpp:434] relu7b <- fc7b
I0914 08:27:00.595504  5330 net.cpp:395] relu7b -> fc7b (in-place)
I0914 08:27:00.595892  5330 net.cpp:150] Setting up relu7b
I0914 08:27:00.595906  5330 net.cpp:157] Top shape: 1 1024 (1024)
I0914 08:27:00.595909  5330 net.cpp:165] Memory required for data: 10696424
I0914 08:27:00.595913  5330 layer_factory.hpp:77] Creating layer drop7b
I0914 08:27:00.595921  5330 net.cpp:100] Creating Layer drop7b
I0914 08:27:00.595927  5330 net.cpp:434] drop7b <- fc7b
I0914 08:27:00.595932  5330 net.cpp:395] drop7b -> fc7b (in-place)
I0914 08:27:00.595958  5330 net.cpp:150] Setting up drop7b
I0914 08:27:00.595964  5330 net.cpp:157] Top shape: 1 1024 (1024)
I0914 08:27:00.595968  5330 net.cpp:165] Memory required for data: 10700520
I0914 08:27:00.595978  5330 layer_factory.hpp:77] Creating layer fc8-shapes
I0914 08:27:00.595988  5330 net.cpp:100] Creating Layer fc8-shapes
I0914 08:27:00.595999  5330 net.cpp:434] fc8-shapes <- fc7b
I0914 08:27:00.596006  5330 net.cpp:408] fc8-shapes -> fc8
I0914 08:27:00.596186  5330 net.cpp:150] Setting up fc8-shapes
I0914 08:27:00.596194  5330 net.cpp:157] Top shape: 1 4 (4)
I0914 08:27:00.596196  5330 net.cpp:165] Memory required for data: 10700536
I0914 08:27:00.596202  5330 layer_factory.hpp:77] Creating layer neg
I0914 08:27:00.596210  5330 net.cpp:100] Creating Layer neg
I0914 08:27:00.596213  5330 net.cpp:434] neg <- bbox
I0914 08:27:00.596218  5330 net.cpp:408] neg -> bbox_neg
I0914 08:27:00.596238  5330 net.cpp:150] Setting up neg
I0914 08:27:00.596245  5330 net.cpp:157] Top shape: 1 4 1 1 (4)
I0914 08:27:00.596247  5330 net.cpp:165] Memory required for data: 10700552
I0914 08:27:00.596251  5330 layer_factory.hpp:77] Creating layer flatten
I0914 08:27:00.596261  5330 net.cpp:100] Creating Layer flatten
I0914 08:27:00.596264  5330 net.cpp:434] flatten <- bbox_neg
I0914 08:27:00.596271  5330 net.cpp:408] flatten -> bbox_neg_flat
I0914 08:27:00.596288  5330 net.cpp:150] Setting up flatten
I0914 08:27:00.596293  5330 net.cpp:157] Top shape: 1 4 (4)
I0914 08:27:00.596297  5330 net.cpp:165] Memory required for data: 10700568
I0914 08:27:00.596300  5330 layer_factory.hpp:77] Creating layer subtract
I0914 08:27:00.596307  5330 net.cpp:100] Creating Layer subtract
I0914 08:27:00.596310  5330 net.cpp:434] subtract <- fc8
I0914 08:27:00.596314  5330 net.cpp:434] subtract <- bbox_neg_flat
I0914 08:27:00.596321  5330 net.cpp:408] subtract -> out_diff
I0914 08:27:00.596340  5330 net.cpp:150] Setting up subtract
I0914 08:27:00.596345  5330 net.cpp:157] Top shape: 1 4 (4)
I0914 08:27:00.596349  5330 net.cpp:165] Memory required for data: 10700584
I0914 08:27:00.596351  5330 layer_factory.hpp:77] Creating layer abssum
I0914 08:27:00.596359  5330 net.cpp:100] Creating Layer abssum
I0914 08:27:00.596362  5330 net.cpp:434] abssum <- out_diff
I0914 08:27:00.596366  5330 net.cpp:408] abssum -> loss
I0914 08:27:00.596385  5330 net.cpp:150] Setting up abssum
I0914 08:27:00.596391  5330 net.cpp:157] Top shape: (1)
…
